traffic_light_control/params/model_9.pth (torch_old, 172656 bytes, 24 tensors)

fc1.weight f4 [128, 28]
0	0xbbeba380	-0.0071911216
1	0x3ea8ad79	0.3294485
2	0xbe2fc36e	-0.17164394
3	0x3c42b2a0	0.011883408
4	0xbde7aea0	-0.11312604
5	0x3e3adc75	0.1824816
6	0xbe12e80c	-0.14346331
7	0xbe076a38	-0.13224113
8	0x3d403004	0.04692079
9	0x3d830e12	0.06399168
10	0x3ddb3b4b	0.107046686
11	0xbd107c44	-0.03527476
12	0xbd2d2cbc	-0.04227899
13	0x3f26ba00	0.65127563
14	0x3e2dfa87	0.169901
15	0x3df9b776	0.121931955
16	0x3dfcecc8	0.1234985
17	0x3cd15068	0.025551036
18	0x3e383319	0.17988242
19	0x3f847d93	1.0350822
20	0x3daf4aa2	0.08559157
21	0x3bc55e40	0.0060231984
22	0x3eb13298	0.34608912
23	0x3e182a6f	0.14859937
24	0x3e7db248	0.2477504
25	0x3e085002	0.1331177
26	0x3e57e56e	0.21083614
27	0x3e648124	0.22314888
28	0x3c83b8d0	0.016079336
29	0x3e82da85	0.25557342
30	0x3d628a70	0.055307806
31	0xbd9d0a43	-0.07667973
32	0xbd55f51a	-0.0522357
33	0x3da552da	0.08072443
34	0xbda17dcd	-0.07885323
35	0x3d96f2ef	0.07370555
36	0x3e3908bf	0.18069743
37	0xbe3acff8	-0.18243396
38	0x3e82d466	0.25552672
39	0xbde1eda2	-0.11031653
40	0x3e01981b	0.1265568
41	0x3f6046f4	0.87608266
42	0xbdb362c4	-0.087590724
43	0x3b97a5e0	0.004627928
44	0x3cca618e	0.02470472
45	0xbde8e4e8	-0.113717854
46	0xbb912be0	-0.004430279
47	0x3f531d26	0.8246635
48	0xbda2b41c	-0.079445094
49	0x3d9dc25e	0.07703088
50	0x3e7fb1f4	0.24970227
51	0x3debd0de	0.11514448
52	0x3e5c6451	0.21522643
53	0x3e5a1d82	0.21300319
54	0x3e754b40	0.23954487
55	0xbd1562dc	-0.036471233
56	0xbe025b04	-0.12730032
57	0x3e804afe	0.25057214
58	0xbda14460	-0.078743696
59	0xbd4f2420	-0.05057156
60	0xbd758a81	-0.05994654
61	0xbdd515a4	-0.10404518
62	0xbe2006f6	-0.15627655
63	0x3de3cb4e	0.11122762
64	0x3e1c6545	0.15273006
65	0xbd6e80bc	-0.05822824
66	0x3e0af84c	0.1357128
67	0xbd35d028	-0.044387966
68	0xbe0cbc3a	-0.13743678
69	0x3f23ebc4	0.64031625
70	0xbe3a168a	-0.1817266
71	0x3e1b8af9	0.15189733
72	0x3d294398	0.041324228
73	0x3dc770be	0.09738301
74	0xbc96ed80	-0.018423796
75	0x3f8ca004	1.0986333
76	0x3c825630	0.015910238
77	0x3e2e4605	0.17018898
78	0x3e13b54b	0.14424627
79	0x3da4310a	0.08017166
80	0x3c45eb66	0.012080049
81	0x3f05ced3	0.52268714
82	0x3e848935	0.2588593
83	0x3e56e5f0	0.20986152
84	0x3ce4afe0	0.027915895
85	0x3cf2f37d	0.02965712
86	0xbdb3c39e	-0.087775454
87	0xbd216aa0	-0.039408326
88	0xbda5ff80	-0.081053734
89	0xbe1ff763	-0.15621714
90	0xbe2b9987	-0.16757785
91	0xbd90199d	-0.07036135
92	0x3df73666	0.120709226
93	0xbd298814	-0.04138954
94	0x3e4ae3f8	0.19813526
95	0x3d2ede7c	0.042692646
96	0x3e0cf6b7	0.13765989
97	0x3f25865c	0.6465814
98	0x3e197d15	0.14989121
99	0xbd7bd8c8	-0.061486036
100	0xbc3fd308	-0.011708029
101	0xbda505ba	-0.08057733
102	0x3d0cb52c	0.034352466
103	0x3f4b31fe	0.7937316
104	0x3d98dbae	0.074637756
105	0x3c9ce398	0.019151494
106	0x3e884d83	0.26621637
107	0x3da6b852	0.08140625
108	0xbd962bbf	-0.07332563
109	0x3eda1d18	0.42600322
110	0x3e67e3b1	0.22645451
111	0x3d9a9ac0	0.075490475
112	0xbdd5c57a	-0.10438056
113	0x3e50fdb9	0.20409288
114	0xbd85be8d	-0.06530485
115	0x3d3df198	0.04637298
116	0x3d843e46	0.0645719
117	0xbe3989d6	-0.18118986
118	0x3cf096f8	0.029368863
119	0x3c871728	0.016490534
120	0x3d819792	0.06327738
121	0x3e0c0da1	0.13677074
122	0x3e34b0a6	0.17645511
123	0x3e335ee5	0.17516668
124	0x3d868952	0.065691605
125	0x3f1a3756	0.60240686
126	0xbd479aa0	-0.048731446
127	0x3c4824b0	0.012215778
128	0x3d8a8c31	0.06765021
129	0xbe16844a	-0.14698902
130	0xbe23ea10	-0.16007257
131	0x3f74bfa3	0.95604914
132	0xbcb28e38	-0.02179633
133	0xbe124051	-0.14282347
134	0x3de72c1b	0.11287709
135	0xbc0a0e80	-0.008426309
136	0x3e3ddb64	0.18540722
137	0x3eb6a79d	0.35674754
138	0x3ebf1a23	0.37324628
139	0xb907e786	-0.00012960852
140	0xbdb6721c	-0.089084834
141	0x3e203096	0.15643534
142	0xbe0331a8	-0.12811911
143	0xbe07ae05	-0.13249977
144	0xbd2d1a8e	-0.042261653
145	0x3d64e7f8	0.055885285
146	0x3ba9a760	0.0051774234
147	0x3e39c2a7	0.1814066
148	0xbe386a0f	-0.18009208
149	0xbcec6eb8	-0.028861389
150	0x3ea5df0c	0.32396734
151	0x3e2cf353	0.16889696
152	0xbd6d3800	-0.057914734
153	0x3f5cf8dd	0.86317235
154	0xbab1d800	-0.0013568401
155	0x3dd0ccc6	0.101953074
156	0xbd50faf3	-0.051020574
157	0xbde55153	-0.11197152
158	0xbe08ef91	-0.13372637
159	0x3f7532e6	0.9578079
160	0xbd6de3a4	-0.058078423
161	0xbe1cccf9	-0.15312566
162	0x3d87b5ba	0.066264585
163	0x3defdf4a	0.11712511
164	0x3e347285	0.1762181
165	0x3e6ee8b8	0.23330963
166	0x3eb4e276	0.35329026
167	0x3d29f1fa	0.041490532
168	0xbe13d69e	-0.14437339
169	0x3e8ad86f	0.2711825
170	0xbdb33e63	-0.08752134
171	0x3ddb326e	0.10702978
172	0x3e1d2127	0.15344678
173	0xbde87a4f	-0.113514535
174	0xbdf14a46	-0.11781745
175	0x3e634b55	0.22196706
176	0x3da22f9a	0.079192355
177	0x3dea173e	0.11430214
178	0x3e33308e	0.17498991
179	0xbd8cc07d	-0.06872652
180	0x3cbc2858	0.022968456
181	0x3f274629	0.6534143
182	0xbca976a8	-0.020686463
183	0x3d1a4030	0.03765887
184	0x3dcde41e	0.100532755
185	0xbc8520b0	-0.016250938
186	0x3c845068	0.016151622
187	0x3f7a92ad	0.9788006
188	0x3d3c0f88	0.04591325
189	0x3c042690	0.008065835
190	0x3cfc57de	0.030803617
191	0x3dd036fe	0.10166739
192	0x3e489e01	0.19591524
193	0x3e891545	0.2677404
194	0x3ef2b393	0.4740263
195	0x3e4dac9f	0.20085381
196	0x3e263153	0.16229753
197	0x3e695177	0.22784983
198	0xbe35de15	-0.17760499
199	0xbe27e632	-0.16396406
200	0x3dbd9e22	0.09258677
201	0x3d974c82	0.073876396
202	0x3d57be8c	0.052671954
203	0x3e4a772a	0.1977202
204	0x3de6fd32	0.11278762
205	0xbdc1372c	-0.09434351
206	0x3e5f7d60	0.2182517
207	0xbdafb0ec	-0.08578667
208	0x3d56ca88	0.052439243
209	0x3f129652	0.5726062
210	0x3e0361a9	0.12830223
211	0xbd8f3495	-0.06992451
212	0x3d554e4d	0.052076627
213	0xbc8ed458	-0.017435238
214	0xbddaa1ad	-0.106753685
215	0x3f2f0c9b	0.6837861
216	0xbe1cc267	-0.15308534
217	0x3bf1bbe0	0.007377133
218	0x3eba6389	0.36404064
219	0xbdbb6be5	-0.091514386
220	0xbd698b49	-0.0570176
221	0x3ef2c351	0.4741464
222	0x3e28a1a0	0.16467905
223	0x3e8c5912	0.27411705
224	0x3dad020a	0.084476545
225	0x3b2a9e5c	0.002603433
226	0xbd76ca6c	-0.06025164
227	0x3e20d6a5	0.1570688
228	0xbe56bf16	-0.20971331
229	0xbdf0f7d1	-0.11766017
230	0x3e014473	0.12623768
231	0xbe187533	-0.14888458
232	0xbe16c7bf	-0.14724635
233	0xbd14e0b0	-0.03634709
234	0x3e40199e	0.18759772
235	0x3d8814a2	0.066445604
236	0x3dc72d56	0.09725444
237	0x3f2f7891	0.68543345
238	0x3e00f7db	0.1259455
239	0xbd655050	-0.055984795
240	0x3e66ee39	0.22551812
241	0xbdecda68	-0.11565095
242	0x3d418408	0.047245055
243	0x3f7a782c	0.9783962
244	0x3cf7b720	0.030238688
245	0xbe3c161c	-0.18367809
246	0x3d12a51c	0.03580199
247	0xbe1fbaea	-0.15598646
248	0x3e702885	0.23452957
249	0x3e70bba7	0.23509084
250	0x3df75455	0.12076632
251	0x3e6e8097	0.2329124
252	0xbe3375f1	-0.1752546
253	0x3eacd310	0.33754778
254	0xbe2f2557	-0.17104088
255	0x3dec026a	0.11523898

fc1.bias f4 [128]
0	0x3ed74981	0.42048267
1	0x3e2450c8	0.1604644
2	0x3d9ccef7	0.07656663
3	0x3ed58d88	0.41709542
4	0x3e9720b8	0.2951715
5	0x3e621aab	0.22080486
6	0x3ed98304	0.4248277
7	0x3e2394c4	0.15974718
8	0x3e7eb956	0.24875388
9	0x3e82a819	0.25518873
10	0x3dd32261	0.10309292
11	0x3edbdc23	0.42941388
12	0x3ebf6320	0.37380314
13	0x3e560e40	0.20903873
14	0x3dafa807	0.085769705
15	0x3db12db2	0.08651294
16	0x3e61019d	0.21973272
17	0x3ea01f53	0.31273898
18	0xbe21290e	-0.15738317
19	0x3e3273df	0.17427014
20	0x3e380616	0.17971072
21	0x3e0345a2	0.12819532
22	0x3eb3776c	0.3505205
23	0x3e9b297a	0.30305082
24	0x3eb24b49	0.34823063
25	0x3e0ab62c	0.13546056
26	0x3ea6dbf5	0.3258969
27	0x3e823dd6	0.25437802
28	0x3d7fc5ce	0.0624445
29	0x3e69090e	0.2275736
30	0x3deccc53	0.11562409
31	0x3ed29054	0.4112574
32	0xbdb8a972	-0.09016694
33	0x3eb18291	0.34669927
34	0x3e665e48	0.22496903
35	0x3ca4ab80	0.020101309
36	0x3eabefcb	0.33581385
37	0x3e9a4df3	0.30137596
38	0x3eaa4350	0.3325448
39	0x3e01a4e8	0.12660563
40	0x3e5b5060	0.2141738
41	0x3dd5dbab	0.10442289
42	0xbcef6308	-0.029222026
43	0x3e36d8a9	0.17856087
44	0x3dd70864	0.10499647
45	0x3e894fec	0.26818788
46	0xbe2fac22	-0.17155507
47	0x3ed651b5	0.41859213
48	0x3e518c12	0.20463589
49	0x3d74a8bf	0.05973124
50	0x3e9a683c	0.3015765
51	0x3e44ebe6	0.19230613
52	0x3ea023d1	0.31277326
53	0x3e4203a2	0.18946698
54	0x3f0e094b	0.5548293
55	0x3e641f11	0.22277476
56	0x3ea7482f	0.3267226
57	0xbe262dd0	-0.16228414
58	0x3eb4b55e	0.35294622
59	0xbe29beeb	-0.16576736
60	0x3ebc4f13	0.3677908
61	0x3eb00b19	0.34383467
62	0x3e9b3eef	0.30321452
63	0x3e19b4c5	0.15010364
64	0x3ee8c588	0.45463204
65	0x3e8204dc	0.25394332
66	0x3e4cd4d4	0.20003062
67	0x3e89a16b	0.26880965
68	0x3ebc9860	0.36835003
69	0x3e6dd5d7	0.23226105
70	0xbd378910	-0.044808447
71	0x3df82077	0.12115567
72	0x3d8c71a5	0.068576135
73	0x3e0a42bb	0.13502018
74	0x3ec022e8	0.3752663
75	0x3e2dffb9	0.16992082
76	0x3e5f9949	0.21835817
77	0x3e584145	0.21118648
78	0x3cb55ce8	0.022139028
79	0x3d989095	0.07449452
80	0x3e29ba8b	0.16575067
81	0x3e96436e	0.2934832
82	0x3ebcde4f	0.36888358
83	0x3e8edea3	0.27904233
84	0xbd1c6f90	-0.03819233
85	0x3e3cf83a	0.18454066
86	0xbdc0237e	-0.093817696
87	0x3dd05903	0.10173228
88	0x3e7a16f0	0.24422812
89	0xbe0a37e7	-0.13497888
90	0x3d8548c2	0.06508018
91	0x3ed5f5c0	0.41789055
92	0x3d95e537	0.0731911
93	0x3d1b8798	0.03797111
94	0x3d5380f4	0.05163665
95	0x3e57aed1	0.21062781
96	0x3cf373c0	0.02971828
97	0x3ea4dd8f	0.32200286
98	0x3ed83435	0.4222733
99	0x3d718dd2	0.05897314
100	0x3eb0616f	0.34449336
101	0x3e7e6b15	0.24845536
102	0x3e1cb87c	0.1530475
103	0x3e7a2d76	0.24431404
104	0xbe1f8884	-0.1557942
105	0x3eb17be9	0.34664848
106	0x3ebafac4	0.36519444
107	0x3e6b5d6d	0.22984858
108	0x3d8b60f0	0.06805599
109	0x3e615cbb	0.2200803
110	0xbdaaf451	-0.08347381
111	0x3e81fc6b	0.25387892
112	0x3dbc111e	0.09182952
113	0xbe1ada9a	-0.15122452
114	0x3e86e513	0.26346645
115	0x3ecaf8f2	0.39643055
116	0x3e82da87	0.25557348
117	0x3e3c6d3d	0.18401046
118	0x3e8ed858	0.27899432
119	0x3d875045	0.06607107
120	0x3ed40d48	0.41416383
121	0xbe17d9a1	-0.14829113
122	0x3d87efa4	0.06637505
123	0x3e6d74b3	0.23189048
124	0xbd60d8e4	-0.054894343
125	0xbce5e800	-0.028064728
126	0xbdae90f0	-0.085237384
127	0x3e260919	0.16214408

fc2.weight f4 [64, 128]
0	0x3e7e470e	0.24831793
1	0x3e3e80e6	0.18603858
2	0x3e72cc13	0.2371066
3	0x3e9b3ff8	0.30322242
4	0x3e0164b5	0.12636073
5	0x3e3d1d7b	0.18468277
6	0x3e57783a	0.21041957
7	0x3e34f1a5	0.17670305
8	0x3e876221	0.26442054
9	0x3e782654	0.24233371
10	0x3e67b79d	0.22628637
11	0x3e2d231d	0.16907926
12	0x3e9064c4	0.28201878
13	0x3e87a805	0.26495376
14	0x3e0d3fa4	0.13793808
15	0x3e5762df	0.2103381
16	0x3e1d3886	0.15353593
17	0x3e43e185	0.19128998
18	0xbcfe437a	-0.031038035
19	0x3d309d92	0.04311902
20	0x3e4c43e0	0.19947767
21	0x3e7be8f8	0.2460059
22	0x3e3e4659	0.18581523
23	0x3e190fb8	0.14947402
24	0x3e0f0a1b	0.13968699
25	0x3e9fb657	0.31193802
26	0x3e7ae79d	0.24502416
27	0x3e069f33	0.13146667
28	0x3e49fe10	0.19725823
29	0x3e124cfc	0.1428718
30	0x3d36d5a7	0.04463735
31	0x3db66056	0.08905093
32	0x3d8ea345	0.06964735
33	0x3e701d72	0.23448732
34	0x3e819984	0.25312436
35	0xbd3205bc	-0.0434625
36	0x3ea7e667	0.3279297
37	0x3e2d1155	0.16901143
38	0x3dcd1d7b	0.100153886
39	0x3e5ac2bd	0.2136335
40	0x3db4fb1b	0.08836957
41	0x3e1d2cae	0.15349075
42	0x3daa760d	0.08323298
43	0x3e9f9073	0.31164894
44	0x3d906dda	0.070522025
45	0x3e4c6314	0.1995967
46	0xbd83c6df	-0.06434416
47	0x3e28b3c0	0.16474819
48	0x3e821706	0.2540819
49	0x3e870166	0.26368254
50	0x3e72b915	0.23703416
51	0x3e2e09c6	0.16995916
52	0x3e3a4093	0.18188696
53	0x3e39787b	0.18112366
54	0xbfaedf7d	-1.3661953
55	0x3e8074ac	0.25089014
56	0x3dff036a	0.12451823
57	0x3d8c480f	0.068496816
58	0xbefb3e54	-0.4907099
59	0xbd3a2a80	-0.045450687
60	0x3dec1f7d	0.115294434
61	0x3e9a7abd	0.30171767
62	0x3e7e9d18	0.24864614
63	0x3ebd7226	0.3700115
64	0x3ec6fa43	0.3886281
65	0x3e7d96b2	0.24764517
66	0x3e8baca0	0.2728014
67	0x3e0d89ea	0.13822141
68	0x3e885d91	0.26633886
69	0x3dea03ce	0.11426507
70	0xbd8d74ca	-0.06907041
71	0x3e64a170	0.22327209
72	0xbd800c32	-0.06252326
73	0xbcdb2334	-0.026750185
74	0x3e18cd03	0.14921956
75	0x3eb23343	0.34804735
76	0x3e1f896c	0.15579766
77	0x3e5b07d6	0.21389708
78	0xbcc8e0f0	-0.024521321
79	0x3e2c3264	0.16816097
80	0x3ecd67b8	0.40118194
81	0x3e75959a	0.2398285
82	0x3e7560b9	0.23962678
83	0x3e7d5cfa	0.24742499
84	0xbd83392e	-0.064073905
85	0x3dddfde0	0.108394384
86	0x3d9c3d7d	0.076289155
87	0x3e993101	0.299202
88	0x3e325783	0.17416196
89	0xbcf18f3a	-0.029487241
90	0x3e9b3767	0.30315706
91	0x3e8698a9	0.26288345
92	0x3dd8fd88	0.10595232
93	0x3e5ca723	0.21548133
94	0xbce0e0b8	-0.027450904
95	0x3e9d087d	0.3067054
96	0xbcbbf8e8	-0.022945836
97	0x3de21324	0.11038807
98	0x3df42721	0.11921526
99	0x3e193b71	0.14964081
100	0x3e451e5a	0.1924986
101	0x3deb155d	0.11478684
102	0x3d5b3824	0.053520337
103	0x3e98f450	0.29873896
104	0xbd4437f8	-0.04790494
105	0x3e4cfde0	0.2001872
106	0x3dcd277a	0.10017295
107	0x3ea1f2a0	0.3163042
108	0x3e148204	0.14502722
109	0x3e40fb95	0.18845971
110	0xbd81c8cc	-0.06337127
111	0x3e332db9	0.1749791
112	0xbd810bb0	-0.06301057
113	0x3a2ea680	0.00066623837
114	0x3e81d4b9	0.25357607
115	0x3e13020c	0.1435625
116	0x3e9f4660	0.3110838
117	0x3e1de604	0.15419775
118	0x3df519f5	0.119678415
119	0x3e777583	0.24165921
120	0x3dfbdd86	0.122981116
121	0x3d9d71fd	0.07687757
122	0x3e521264	0.20514828
123	0x3e2a798e	0.16647932
124	0xbbc0c840	-0.0058832467
125	0xbd5b1796	-0.05348929
126	0x3d9435bb	0.07236811
127	0x3e041bae	0.12901184
128	0x3bd9fa60	0.0066521615
129	0xbdad4bd6	-0.0846173
130	0xbd5d94a8	-0.054096848
131	0xbc98db24	-0.018659182
132	0x3d2898b2	0.041161247
133	0xbd72ce6c	-0.05927889
134	0x3ace0b40	0.0015719905
135	0x3d9ae3e7	0.07563
136	0xbb7899e0	-0.0037933514
137	0x39403800	0.00018331409
138	0xbd69baab	-0.057062786
139	0x3d4a1596	0.049336992
140	0xbdaab8ac	-0.083360046
141	0xbd109ae2	-0.035303958
142	0xbd411d15	-0.047146875
143	0xbcdf101c	-0.027229361
144	0x3d12f74c	0.035880372
145	0xbd961171	-0.073275454
146	0xbd763626	-0.060110234
147	0x3c146050	0.009056166
148	0x3cfd8d38	0.030951127
149	0xbd84d7a6	-0.06486444
150	0xb9e74500	-0.00044111162
151	0xbd506094	-0.050873354
152	0x3d9d1141	0.076693065
153	0x3b9c5020	0.004770294
154	0xbca29d10	-0.019850284
155	0x392e1400	0.00016601384
156	0x3d8d2af1	0.06892956
157	0xbce8c240	-0.028412938
158	0x3cbb05fc	0.022830002
159	0xbd05485b	-0.032539707
160	0x3d4f20ba	0.05056832
161	0xbd19c62b	-0.037542503
162	0xbd5d2c10	-0.0539971
163	0x3d8db9b7	0.06920188
164	0x3d631e32	0.05544872
165	0x3d88e8e5	0.06685046
166	0xbcf6b1fc	-0.030114166
167	0x3d228cc2	0.03968502
168	0xbd89dff8	-0.06732172
169	0x3c214ae0	0.009844512
170	0xbc55c7f0	-0.013048157
171	0x3cab1b94	0.020887174
172	0x3d81a5a1	0.06330419
173	0x3d86877b	0.065688096
174	0xbda2d1bb	-0.07950159
175	0xbce71d92	-0.028212342
176	0x3d68d70e	0.056845717
177	0xbd2df80f	-0.042472895
178	0x3d9e7405	0.07736973
179	0xbdb3097b	-0.08742043
180	0x3d654996	0.05597838
181	0xbd416ee6	-0.0472249
182	0x3da01fb3	0.07818546
183	0xbc8fd2c8	-0.017556563
184	0x3ccff568	0.025385574
185	0xbd97d05a	-0.07412787
186	0xbd717236	-0.05894681
187	0x3d84bc39	0.06481213
188	0xbcd821ce	-0.026383307
189	0x3d2758aa	0.04085604
190	0x3ca17368	0.01970835
191	0xbb48f4a0	-0.0030663386
192	0xbd5ae7d6	-0.053443752
193	0xbc602850	-0.013681486
194	0xbdab44dd	-0.08362744
195	0x3da6b8f9	0.081407495
196	0x3d2b3dae	0.04180687
197	0xbd499425	-0.049213547
198	0x3d95c28f	0.073125
199	0x3d97eccf	0.074182145
200	0xbd3f1a4c	-0.046655938
201	0xbdae5d76	-0.0851392
202	0xbd8e1ed5	-0.069394745
203	0x3d06987e	0.03286027
204	0xbda91af4	-0.08257094
205	0xbb07c9e0	-0.0020719692
206	0xbd3eeeb6	-0.04661437
207	0x3da84a7d	0.082173325
208	0xbd0095e6	-0.031392954
209	0x3da73207	0.08163839
210	0xbc853ab8	-0.01626335
211	0xbd10784d	-0.035270978
212	0xbc25a5d0	-0.010110334
213	0xbd557c34	-0.052120402
214	0x3cf453b0	0.029825062
215	0xbc9501f0	-0.0181894
216	0xbcd869f8	-0.026417717
217	0xbc8072f0	-0.015679806
218	0xbdaf0428	-0.085457146
219	0xbdae17f3	-0.08500662
220	0xbd4e0400	-0.050296783
221	0xbd753112	-0.05986125
222	0xbdad1451	-0.08451141
223	0x3d358372	0.04431481
224	0xbda7f4fa	-0.082010224
225	0x3c020268	0.007935144
226	0xbcc68374	-0.024232604
227	0xbd999619	-0.07499332
228	0x3d6905ee	0.05689042
229	0xbd69e0e2	-0.05709923
230	0x3d3b8ffe	0.04579162
231	0xbc6e54f0	-0.014546618
232	0xbc1fe798	-0.009759806
233	0x39c0e700	0.00036793202
234	0xbd69ed26	-0.057110928
235	0x3d76582e	0.06014269
236	0x3d385e36	0.04501172
237	0x3d9f9d13	0.077936314
238	0xbd7295aa	-0.059224762
239	0x3ce69da0	0.028151333
240	0xbd2367bb	-0.039893847
241	0xbcfcf45a	-0.030878235
242	0x3d2db2f6	0.042407
243	0xbd0cde20	-0.034391522
244	0x3da96d6b	0.08272823
245	0xbd34a953	-0.044106793
246	0xbd697b37	-0.057002272
247	0xbd2cfdfa	-0.0422344
248	0xbd96bf42	-0.07360698
249	0xbd83114e	-0.06399785
250	0xbd06a747	-0.03287437
251	0x3c4372e8	0.011929251
252	0x3db4db13	0.088308476
253	0xbd098188	-0.033570796
254	0x3a8d5940	0.0010784045
255	0x3da46221	0.08026529

fc2.bias f4 [64]
0	0x3e6e185e	0.23251483
1	0xbd9c36e9	-0.07627661
2	0xbc211658	-0.009831987
3	0x3c84c89c	0.01620894
4	0x3e84d19b	0.25941166
5	0xbd99d5e4	-0.075114995
6	0xbd9cb37d	-0.07651422
7	0x3e903f6b	0.28173384
8	0xbc979b04	-0.018506534
9	0x3e047199	0.12933959
10	0x3e3aa7af	0.18228029
11	0xbdae3c9a	-0.085076526
12	0xbd8fc1b3	-0.07019367
13	0xbc9bdb76	-0.019025546
14	0xbd6c6bed	-0.057720114
15	0x3e299ebf	0.16564463
16	0xbd75a51e	-0.05997192
17	0x3e9d0c4b	0.3067344
18	0x3e00a5d9	0.12563266
19	0x3e31c594	0.17360526
20	0x3e78e27d	0.24305148
21	0x3e89813d	0.26856413
22	0x3e4999c6	0.19687566
23	0x3e03491e	0.1282086
24	0x3d98d311	0.07462133
25	0xbc3129a0	-0.010813147
26	0x3cf78800	0.030216217
27	0xbc521978	-0.012823455
28	0x3e9823e4	0.29714882
29	0x3e92f0ad	0.28699246
30	0x3ca347cc	0.019931696
31	0xbbeeaa79	-0.0072835055
32	0x3e086e60	0.13323355
33	0x3e82d0c6	0.25549906
34	0xbd07cf15	-0.033156473
35	0x3e81a167	0.25318453
36	0xbd8ca0a6	-0.06866579
37	0x3d9e3d88	0.0772658
38	0x3e7b7cbb	0.245593
39	0x3e45acca	0.19304195
40	0x3e959291	0.29213384
41	0x3d38ad12	0.045086928
42	0x3d278072	0.04089398
43	0x3e722aa7	0.23649083
44	0x3ce148b8	0.027500495
45	0x3e4f95e7	0.20272027
46	0xbd991ff9	-0.074768014
47	0xbd974437	-0.07386058
48	0x3e2d40d5	0.16919263
49	0xbd2f45ea	-0.042791285
50	0xbc3df13c	-0.011593159
51	0x3e59d885	0.21274002
52	0xbd2c0472	-0.041996427
53	0x3d5f4fa8	0.054519325
54	0x3e85feff	0.2617111
55	0x3e805b33	0.2506958
56	0x3e6e8bac	0.23295468
57	0xbd8aafa8	-0.06771785
58	0x3bbfa910	0.0058490112
59	0xbdb1b6c6	-0.086774394
60	0x3e0393d6	0.12849364
61	0x3e9b4be5	0.3033134
62	0x3e950aeb	0.29109892
63	0xbd679178	-0.056535214

fc3.weight f4 [32, 64]
0	0x3e511387	0.20417605
1	0x3d5f2750	0.05448085
2	0x3d683018	0.05668649
3	0x3dc3992c	0.095506996
4	0x3e290ab6	0.16507992
5	0xbdc9de92	-0.09856905
6	0x3dc5b4f8	0.09653658
7	0x3e8279b7	0.25483486
8	0xbde3f808	-0.111312926
9	0x3da74cb8	0.0816893
10	0x3e24ea71	0.16105057
11	0xbd82488c	-0.063614935
12	0x3cd696bd	0.026194924
13	0xbd252644	-0.040319696
14	0xbde927c9	-0.113845415
15	0x3dc77a14	0.097400814
16	0xbdcb7c58	-0.09935826
17	0x3e11d29b	0.14240496
18	0x3da240ff	0.07922553
19	0x3e73e088	0.2381612
20	0x3def18bb	0.11674639
21	0x3e5d2de2	0.21599534
22	0x3e978925	0.2959682
23	0x3db14351	0.08655418
24	0x3d9a904e	0.07547055
25	0xbd5a68d6	-0.053322636
26	0xbc668b0f	-0.01407124
27	0x3dd796fc	0.10526845
28	0x3e913043	0.28357133
29	0x3ddb7d1e	0.107172236
30	0x3d9d0530	0.07667005
31	0xbc991f5f	-0.018691717
32	0x3e7017dd	0.23446603
33	0x3e7c100a	0.24615493
34	0xbdb2e06a	-0.0873421
35	0x3e148544	0.14503962
36	0x3dc078be	0.0939803
37	0xbdccdd97	-0.100032024
38	0x3e022e64	0.12713009
39	0x3e8a72a6	0.27040595
40	0x3e730e97	0.23736034
41	0x3c275d00	0.010215044
42	0xbdcc2ee0	-0.09969878
43	0x3e6dbc95	0.2321647
44	0xbd965c93	-0.07341876
45	0x3e9d5c94	0.30734694
46	0x3d0c8b2c	0.034312412
47	0x3df380a4	0.118897706
48	0x3e9102e2	0.28322512
49	0x3dfbb146	0.122896716
50	0xbd22f15c	-0.03978096
51	0x3e74350e	0.23848364
52	0x3d89384f	0.06700193
53	0xbdc32702	-0.095289245
54	0x3e51b5d7	0.20479523
55	0x3e1017f3	0.14071636
56	0x3dcd2bed	0.10018144
57	0xbca1a977	-0.019734127
58	0x3d8275ce	0.06370126
59	0xbd9fbdef	-0.07799899
60	0x3e4984c4	0.19679552
61	0x3e83343e	0.25625795
62	0x3e80dff5	0.25170866
63	0xbd42d824	-0.04756941
64	0xbd12d5bf	-0.035848375
65	0xbd58e618	-0.05295381
66	0x3dd30ffe	0.10305785
67	0xbdee1522	-0.116251245
68	0xbd2cc582	-0.042180546
69	0xbd7b4442	-0.061344393
70	0xbd12139c	-0.035663232
71	0x3d90f22c	0.070774406
72	0xbdbbd91a	-0.09172268
73	0xbe0c9cbb	-0.13731663
74	0x3dc0289d	0.09382746
75	0xbb1b52f7	-0.0023700574
76	0xbd124bd5	-0.03571685
77	0x3d87e1ac	0.0663484
78	0x3d81ff75	0.06347553
79	0xbc7356db	-0.014852251
80	0xbdf71068	-0.12063676
81	0xbe0b5149	-0.13605227
82	0xbca0a07e	-0.019607779
83	0xbd106844	-0.035255685
84	0x3d5e2658	0.054235786
85	0xbda0c0d9	-0.07849283
86	0xbdd953da	-0.106116965
87	0xbdb24c8a	-0.08706005
88	0xbd21e90c	-0.03952889
89	0x3dbffdea	0.09374602
90	0xbbd1f41a	-0.006407273
91	0xbba0c400	-0.0049061775
92	0xbe04876f	-0.12942289
93	0x3d99a2a1	0.07501722
94	0xbd82b176	-0.06381504
95	0x3d12ee73	0.035871934
96	0x3d963233	0.073337935
97	0x3c36d08c	0.01115812
98	0x3bb77fe0	0.0055999607
99	0x3dd6eb43	0.10494091
100	0x3d667aa4	0.056269303
101	0xbde796e9	-0.11308081
102	0x3de0fe59	0.10986013
103	0x3d6f3883	0.058403503
104	0xbe121763	-0.14266734
105	0xbc331010	-0.010929123
106	0x3b861dac	0.0040928926
107	0xbba2f408	-0.0049729384
108	0xbd5201f3	-0.05127139
109	0x3d385ac7	0.045008447
110	0x3dc59592	0.09647669
111	0xbdcface2	-0.10140397
112	0xbdda7bdf	-0.10668158
113	0xbd90a916	-0.070635006
114	0x3c9cab59	0.019124674
115	0xbdf9033f	-0.12158822
116	0x3d8e64ba	0.06952806
117	0xbd9e72cf	-0.07736742
118	0x3dce08d0	0.100602746
119	0x3a24d819	0.00062883046
120	0x3dcce283	0.10004141
121	0xbe02cf42	-0.12774375
122	0x3dadc202	0.0848427
123	0x3ddfeb76	0.109335825
124	0xbafdf300	-0.0019374788
125	0xbda79080	-0.08181858
126	0x3c72b913	0.014814633
127	0xbd8dd024	-0.06924465
128	0x3ddb11d0	0.10696757
129	0x3da64cf4	0.081201464
130	0x3d1782c4	0.036989942
131	0x3d841f78	0.06451315
132	0x3d0de4bc	0.034641966
133	0x3c68bf60	0.014205784
134	0xbc5774c0	-0.013150394
135	0xbde5006e	-0.111817226
136	0x3bf88f20	0.007585421
137	0x3d599528	0.053120762
138	0xbdcd70fe	-0.10031317
139	0x3d8223a2	0.06354453
140	0xbbc5a5e0	-0.0060317367
141	0x3d1801e4	0.037111178
142	0xbc176300	-0.009239912
143	0xb9467c00	-0.00018928945
144	0xbc00f740	-0.007871449
145	0x3bbf6560	0.0058409423
146	0xbb6dfc80	-0.0036313832
147	0x3d0c7438	0.034290522
148	0xbdf72348	-0.12067276
149	0xbcee1df8	-0.029067025
150	0xbdba39d8	-0.09093064
151	0xbddcca20	-0.1078074
152	0xbd92d056	-0.07168643
153	0x3df92622	0.121654764
154	0xbcf3d5e8	-0.029765084
155	0x3dbf6c28	0.09346801
156	0xbd4b77b4	-0.049674705
157	0x3d945242	0.07242252
158	0xbdc72ca8	-0.097253144
159	0xbda0f846	-0.078598544
160	0xbd986c30	-0.0744251
161	0x3d8608e4	0.065446645
162	0x3d314210	0.043275893
163	0xbdebb5c4	-0.115092784
164	0x3ca41d78	0.020033583
165	0x3c888ba8	0.016668156
166	0x3dccce2a	0.1000026
167	0xbdeeda86	-0.11662774
168	0x3d9a64b4	0.07538739
169	0xb9cff400	-0.0003966391
170	0x3d08cc84	0.033398166
171	0x3dd67a46	0.104725406
172	0x3d97d934	0.07414475
173	0x3d2bf93c	0.041985735
174	0xbcdeb6c0	-0.027186751
175	0x3d83d74e	0.064375505
176	0xbd676cf0	-0.056500375
177	0x3cd8d028	0.026466444
178	0xbd100bd8	-0.035167545
179	0x3bce05e0	0.0062873214
180	0x3d051074	0.032486394
181	0x3db4bb60	0.088248014
182	0xbd7200cc	-0.05908279
183	0xbdabdbfc	-0.08391568
184	0xbb40b180	-0.0029402673
185	0x3d867e1c	0.06567022
186	0xbd83d5a4	-0.06437233
187	0xbd4a0040	-0.049316645
188	0x3cff3558	0.031153366
189	0xbde79296	-0.11307256
190	0xbd7de5f8	-0.061986893
191	0x3dbdf3f0	0.09275043
192	0x3e9f1145	0.31067863
193	0xbd090474	-0.033451512
194	0xbd50e814	-0.051002577
195	0xbdd02aa6	-0.101643845
196	0x3e6d6933	0.23184662
197	0xbde6cd75	-0.112696566
198	0x3dfdc8c6	0.1239181
199	0x3e88262d	0.26591626
200	0xbd3a2364	-0.045443907
201	0x3e8e0513	0.27738246
202	0x3e8bc489	0.27298382
203	0xbcdc1070	-0.026863307
204	0x3dd84e56	0.105618164
205	0x3d9c143d	0.07621048
206	0x3df7d87e	0.121018395
207	0x3e9877ae	0.29778808
208	0x3dd673f8	0.10471338
209	0x3e491526	0.19636974
210	0x3e81a309	0.25319698
211	0x3e4f512f	0.20245813
212	0x3dfd62e2	0.12372376
213	0x3e7e8ea4	0.248591
214	0x3e670215	0.22559388
215	0x3e5be2ee	0.21473286
216	0x3deba78e	0.11506568
217	0xbdd575f2	-0.10422887
218	0xbca0a381	-0.019609215
219	0x3d3e9758	0.04653105
220	0x3e93eb2e	0.28890365
221	0x3ea0b4ed	0.31388035
222	0xbd88b75c	-0.06675598
223	0x3dd5b21e	0.10434364
224	0x3ddf07e2	0.108901754
225	0x3e0119e2	0.1260753
226	0x3ddb36b6	0.10703795
227	0x3e971f2d	0.29515973
228	0xbd9fc5d4	-0.078014046
229	0x3da90c88	0.08254343
230	0x3e39fb99	0.18162383
231	0x3dbe29b2	0.092852965
232	0x3e9964c2	0.29959685
233	0xbc35ce60	-0.011096567
234	0x3ded93e0	0.116004705
235	0x3ddca028	0.10772735
236	0xbda90205	-0.08252338
237	0x3e9e4428	0.30911374
238	0x3ddfe82c	0.10932955
239	0xbca176b8	-0.01970993
240	0x3e39b3e0	0.18135023
241	0xbda058ac	-0.07829413
242	0x3d01cc3b	0.03168891
243	0x3e83ffe4	0.25781167
244	0xbd0ea198	-0.034822077
245	0xbdcde61b	-0.10053655
246	0x3e5fc615	0.21852906
247	0x3e60ed61	0.21965553
248	0x3e0dbdc5	0.13841923
249	0x3d9c1b61	0.076224096
250	0x3cc5a6d0	0.024127394
251	0xbdbe196e	-0.09282194
252	0x3e5a59e9	0.2132336
253	0x3e70e20a	0.23523727
254	0x3e02569a	0.12728348
255	0x3d6d351c	0.057911977

fc3.bias f4 [32]
0	0x3e38ee42	0.18059638
1	0x3d61fa7d	0.055170525
2	0xbdc95c4e	-0.09832059
3	0x3e1bfa8b	0.15232293
4	0x3de5702f	0.11203038
5	0x3e89a02e	0.2688002
6	0xbdc30f1c	-0.09524366
7	0x3e384c98	0.17997968
8	0x3dfe34d0	0.12412417
9	0x3d32098d	0.04346614
10	0x3d0e4997	0.03473815
11	0x3d66de56	0.05636438
12	0x3e9997d1	0.2999864
13	0x3d3a5c54	0.045498207
14	0xbc8964f2	-0.016771767
15	0x3e488b7f	0.19584464
16	0x3d9aaf63	0.075529836
17	0x3e0d9533	0.13826446
18	0x3def4c76	0.11684506
19	0xbc9c1df0	-0.019057244
20	0xbb9a71a0	-0.004713252
21	0x3e6ea556	0.23305258
22	0x3da638fd	0.081163384
23	0xbd22e141	-0.0397656
24	0x3e7b93d9	0.24568118
25	0xbd801b28	-0.0625518
26	0xbb50ca00	-0.0031858683
27	0x3da4f251	0.08054031
28	0xbdc628e3	-0.09675767
29	0x3d2d03dc	0.04224001
30	0x3e1e6a40	0.15470219
31	0x3e9400bc	0.2890681

fc4.weight f4 [2, 32]
0	0xbea907a2	-0.33013636
1	0x3d9e1bb3	0.07720127
2	0x3dc265a6	0.09492044
3	0xbe659386	-0.22419557
4	0xbd62e2e0	-0.055392146
5	0xbe8123e3	-0.25222692
6	0xbdac0965	-0.08400229
7	0xbe078659	-0.13234843
8	0xbea7a1d6	-0.3274066
9	0xbe8bcb55	-0.27303568
10	0x3e288cfe	0.16460034
11	0xbe501c1a	-0.2032322
12	0xbea04cfd	-0.31308737
13	0x3ce174fd	0.027521605
14	0x3e2bc89a	0.16775742
15	0xbe6a1448	-0.22859299
16	0xbe8650e0	-0.26233578
17	0xbeb4909b	-0.35266575
18	0x3d9cb698	0.076520145
19	0xbd918824	-0.07106045
20	0xbdd46ffb	-0.10372921
21	0xbe4fe72b	-0.20303027
22	0xbe4d695f	-0.20059727
23	0x3de65d10	0.11248219
24	0xbe93698a	-0.28791457
25	0x3d888f09	0.06667907
26	0x3cbb0ee0	0.022834241
27	0xbe9921d5	-0.29908624
28	0x3e156ebc	0.14593023
29	0x3e15e4b9	0.14638032
30	0xbdae5dca	-0.085139826
31	0xbe635405	-0.2220002
32	0xbe5bee8f	-0.21477722
33	0xbb0c4808	-0.0021405239
34	0xbde0442a	-0.10950501
35	0xbe89b870	-0.26898527
36	0x3df4ec46	0.11959128
37	0xbebca200	-0.36842346
38	0xbdf057e6	-0.11735515
39	0xbe9dda91	-0.30830815
40	0xbe1cdfea	-0.15319791
41	0xbeaeb3db	-0.34121594
42	0x3ceb9e0d	0.028761888
43	0xbe7577da	-0.23971501
44	0xbdf3cbfb	-0.119041406
45	0x3d56ca0e	0.052438788
46	0xbcbd415b	-0.023102453
47	0xbeb45e2a	-0.3522809
48	0xbe0908e0	-0.13382292
49	0xbe53abf4	-0.20671064
50	0x3ddb4bc7	0.10707813
51	0x3db3d892	0.08781542
52	0x3e27fbb9	0.16404618
53	0xbe9ac4d7	-0.30228302
54	0xbe4982f5	-0.19678862
55	0x3e156a2c	0.14591283
56	0xbdf9f1b0	-0.12204301
57	0xbc069253	-0.008213597
58	0x3e298307	0.16553889
59	0xbe8c5c07	-0.2741396
60	0xbc8249a0	-0.015904248
61	0x3e13cd71	0.14433838
62	0xbebf5f8c	-0.37377584
63	0xbe211ff1	-0.15734841

fc4.bias f4 [2]
0	0xbcb78299	-0.022401141
1	0xbe6dce83	-0.23223309

exp_avg f4 [128, 28]
0	0x00000000	0.0
1	0x411fd96a	9.99058
2	0x00000000	0.0
3	0x00000000	0.0
4	0xc2ada894	-86.829254
5	0x00000000	0.0
6	0x00000000	0.0
7	0xc221ea47	-40.478786
8	0x00000000	0.0
9	0x00000000	0.0
10	0xc31fe38f	-159.8889
11	0x00000000	0.0
12	0x00000000	0.0
13	0x41a9d462	21.228703
14	0x00000000	0.0
15	0x00000000	0.0
16	0xc328b66e	-168.71262
17	0x00000000	0.0
18	0x00000000	0.0
19	0x4113220f	9.195815
20	0x00000000	0.0
21	0x00000000	0.0
22	0xc35a6971	-218.41188
23	0x00000000	0.0
24	0xc09a04d3	-4.813089
25	0xc0f04abc	-7.509123
26	0xc0f04abc	-7.509123
27	0xc09a04d3	-4.813089
28	0x00000000	0.0
29	0x40f6fd1d	7.7183976
30	0x00000000	0.0
31	0x00000000	0.0
32	0xc285c6ff	-66.888664
33	0x00000000	0.0
34	0x00000000	0.0
35	0xc1f992a6	-31.196606
36	0x00000000	0.0
37	0x00000000	0.0
38	0xc2f681f0	-123.253784
39	0x00000000	0.0
40	0x00000000	0.0
41	0x41831638	16.385849
42	0x00000000	0.0
43	0x00000000	0.0
44	0xc3021090	-130.0647
45	0x00000000	0.0
46	0x00000000	0.0
47	0x40e39e7a	7.1130953
48	0x00000000	0.0
49	0x00000000	0.0
50	0xc328624e	-168.384
51	0x00000000	0.0
52	0xc06d7992	-3.710545
53	0xc0b912c6	-5.7835417
54	0xc0b912c6	-5.7835417
55	0xc06d7992	-3.710545
56	0x00000000	0.0
57	0x411be1d5	9.742635
58	0x00000000	0.0
59	0x00000000	0.0
60	0xc2a9f937	-84.98675
61	0x00000000	0.0
62	0x00000000	0.0
63	0xc21e4e5d	-39.576527
64	0x00000000	0.0
65	0x00000000	0.0
66	0xc31c3be2	-156.23392
67	0x00000000	0.0
68	0x00000000	0.0
69	0x41a58c66	20.693554
70	0x00000000	0.0
71	0x00000000	0.0
72	0xc324ce3c	-164.8056
73	0x00000000	0.0
74	0x00000000	0.0
75	0x410ec13e	8.922178
76	0x00000000	0.0
77	0x00000000	0.0
78	0xc3555ee0	-213.3706
79	0x00000000	0.0
80	0xc0960aa0	-4.688797
81	0xc0ebb80a	-7.3662157
82	0xc0ebb80a	-7.3662157
83	0xc0960aa0	-4.688797
84	0x00000000	0.0
85	0x411bfcc6	9.749212
86	0x00000000	0.0
87	0x00000000	0.0
88	0xc2aa39ad	-85.11265
89	0x00000000	0.0
90	0x00000000	0.0
91	0xc21e7989	-39.618687
92	0x00000000	0.0
93	0x00000000	0.0
94	0xc31c6331	-156.38747
95	0x00000000	0.0
96	0x00000000	0.0
97	0x41a5a3d3	20.704992
98	0x00000000	0.0
99	0x00000000	0.0
100	0xc324f6c2	-164.9639
101	0x00000000	0.0
102	0x00000000	0.0
103	0x410ec3bc	8.922787
104	0x00000000	0.0
105	0x00000000	0.0
106	0xc35591da	-213.56973
107	0x00000000	0.0
108	0xc09620ad	-4.6914887
109	0xc0ec1183	-7.3771377
110	0xc0ec1183	-7.3771377
111	0xc09620ad	-4.6914887
112	0x00000000	0.0
113	0x40d2e9db	6.591047
114	0x00000000	0.0
115	0x00000000	0.0
116	0xc2644e92	-57.07673
117	0x00000000	0.0
118	0x00000000	0.0
119	0xc1d4ffcb	-26.624899
120	0x00000000	0.0
121	0x00000000	0.0
122	0xc2d25edc	-105.18527
123	0x00000000	0.0
124	0x00000000	0.0
125	0x415fc52c	13.985638
126	0x00000000	0.0
127	0x00000000	0.0
128	0xc2ddfacd	-110.989845
129	0x00000000	0.0
130	0x00000000	0.0
131	0x40c234d9	6.068951
132	0x00000000	0.0
133	0x00000000	0.0
134	0xc30fb376	-143.70102
135	0x00000000	0.0
136	0xc04a7b28	-3.1637669
137	0xc09e0f0e	-4.9393377
138	0xc09e0f0e	-4.9393377
139	0xc04a7b28	-3.1637669
140	0x00000000	0.0
141	0x410e8e40	8.909729
142	0x00000000	0.0
143	0x00000000	0.0
144	0xc29b77bc	-77.73386
145	0x00000000	0.0
146	0x00000000	0.0
147	0xc210ca14	-36.197342
148	0x00000000	0.0
149	0x00000000	0.0
150	0xc30ee15f	-142.88036
151	0x00000000	0.0
152	0x00000000	0.0
153	0x41975f48	18.921524
154	0x00000000	0.0
155	0x00000000	0.0
156	0xc316b5d0	-150.7102
157	0x00000000	0.0
158	0x00000000	0.0
159	0x41027091	8.152482
160	0x00000000	0.0
161	0x00000000	0.0
162	0xc3432173	-195.13066
163	0x00000000	0.0
164	0xc0891e2e	-4.284934
165	0xc0d7bb9a	-6.7416506
166	0xc0d7bb9a	-6.7416506
167	0xc0891e2e	-4.284934
168	0x00000000	0.0
169	0x40be39a6	5.944537
170	0x00000000	0.0
171	0x00000000	0.0
172	0xc24d9e32	-51.404488
173	0x00000000	0.0
174	0x00000000	0.0
175	0xc1bfed95	-23.991007
176	0x00000000	0.0
177	0x00000000	0.0
178	0xc2bd93c6	-94.78862
179	0x00000000	0.0
180	0x00000000	0.0
181	0x4149cb18	12.612083
182	0x00000000	0.0
183	0x00000000	0.0
184	0xc2c80a4c	-100.02011
185	0x00000000	0.0
186	0x00000000	0.0
187	0x40af3f48	5.476475
188	0x00000000	0.0
189	0x00000000	0.0
190	0xc30181af	-129.50658
191	0x00000000	0.0
192	0xc03679a7	-2.851175
193	0xc08e639c	-4.4496593
194	0xc08e639c	-4.4496593
195	0xc03679a7	-2.851175
196	0x00000000	0.0
197	0x40b683b3	5.7035766
198	0x00000000	0.0
199	0x00000000	0.0
200	0xc245d3db	-49.45689
201	0x00000000	0.0
202	0x00000000	0.0
203	0xc1b8370b	-23.026876
204	0x00000000	0.0
205	0x00000000	0.0
206	0xc2b5df63	-90.9363
207	0x00000000	0.0
208	0x00000000	0.0
209	0x414116ff	12.068114
210	0x00000000	0.0
211	0x00000000	0.0
212	0xc2bfdbad	-95.929054
213	0x00000000	0.0
214	0x00000000	0.0
215	0x40a72ccb	5.224218
216	0x00000000	0.0
217	0x00000000	0.0
218	0xc2f865e3	-124.199
219	0x00000000	0.0
220	0xc02e477b	-2.7231128
221	0xc08936c5	-4.2879357
222	0xc08936c5	-4.2879357
223	0xc02e477b	-2.7231128
224	0x00000000	0.0
225	0x41340f92	11.253801
226	0x00000000	0.0
227	0x00000000	0.0
228	0xc2c4e1cd	-98.44102
229	0x00000000	0.0
230	0x00000000	0.0
231	0xc2373392	-45.80036
232	0x00000000	0.0
233	0x00000000	0.0
234	0xc334bdfe	-180.74216
235	0x00000000	0.0
236	0x00000000	0.0
237	0x41bf36a5	23.901682
238	0x00000000	0.0
239	0x00000000	0.0
240	0xc33ea189	-190.631
241	0x00000000	0.0
242	0x00000000	0.0
243	0x41247515	10.2785845
244	0x00000000	0.0
245	0x00000000	0.0
246	0xc376cd88	-246.80286
247	0x00000000	0.0
248	0xc0ad4dce	-5.4157476
249	0xc108a278	-8.539665
250	0xc108a278	-8.539665
251	0xc0ad4dce	-5.4157476
252	0x00000000	0.0
253	0x410d484d	8.830152
254	0x00000000	0.0
255	0x00000000	0.0

exp_avg_sq f4 [128, 28]
0	0x00000000	0.0
1	0x460d262c	9033.543
2	0x00000000	0.0
3	0x00000000	0.0
4	0x49472908	815760.5
5	0x00000000	0.0
6	0x00000000	0.0
7	0x4768a44c	59556.297
8	0x00000000	0.0
9	0x00000000	0.0
10	0x4927f124	687890.25
11	0x00000000	0.0
12	0x00000000	0.0
13	0x43ed2471	474.2847
14	0x00000000	0.0
15	0x00000000	0.0
16	0x494eae63	846566.2
17	0x00000000	0.0
18	0x00000000	0.0
19	0x45388b85	2952.72
20	0x00000000	0.0
21	0x00000000	0.0
22	0x4971c823	990338.2
23	0x00000000	0.0
24	0x452edc31	2797.762
25	0x451ab7f6	2475.4976
26	0x451ab7f6	2475.4976
27	0x452edc31	2797.762
28	0x00000000	0.0
29	0x45b7358d	5862.694
30	0x00000000	0.0
31	0x00000000	0.0
32	0x48fe8587	521260.22
33	0x00000000	0.0
34	0x00000000	0.0
35	0x47156bfd	38251.99
36	0x00000000	0.0
37	0x00000000	0.0
38	0x48d69c2f	439521.47
39	0x00000000	0.0
40	0x00000000	0.0
41	0x43941960	296.19824
42	0x00000000	0.0
43	0x00000000	0.0
44	0x49043546	541524.4
45	0x00000000	0.0
46	0x00000000	0.0
47	0x44ef8dbe	1916.4294
48	0x00000000	0.0
49	0x00000000	0.0
50	0x491a91c7	633116.44
51	0x00000000	0.0
52	0x44e0634f	1795.1034
53	0x44c720dc	1593.0269
54	0x44c720dc	1593.0269
55	0x44e0634f	1795.1034
56	0x00000000	0.0
57	0x460d0a9c	9026.652
58	0x00000000	0.0
59	0x00000000	0.0
60	0x4945194f	807316.94
61	0x00000000	0.0
62	0x00000000	0.0
63	0x4766e5ae	59109.68
64	0x00000000	0.0
65	0x00000000	0.0
66	0x492634d3	680781.2
67	0x00000000	0.0
68	0x00000000	0.0
69	0x43e7f086	463.8791
70	0x00000000	0.0
71	0x00000000	0.0
72	0x494cad88	838360.5
73	0x00000000	0.0
74	0x00000000	0.0
75	0x4537e264	2942.1494
76	0x00000000	0.0
77	0x00000000	0.0
78	0x496f53de	980285.9
79	0x00000000	0.0
80	0x452d3667	2771.4001
81	0x451984ce	2456.3003
82	0x451984ce	2456.3003
83	0x452d3667	2771.4001
84	0x00000000	0.0
85	0x46104788	9233.883
86	0x00000000	0.0
87	0x00000000	0.0
88	0x49494084	824328.25
89	0x00000000	0.0
90	0x00000000	0.0
91	0x476bf2a5	60402.645
92	0x00000000	0.0
93	0x00000000	0.0
94	0x4929a675	694887.3
95	0x00000000	0.0
96	0x00000000	0.0
97	0x43eac245	469.51773
98	0x00000000	0.0
99	0x00000000	0.0
100	0x4950ef41	855796.06
101	0x00000000	0.0
102	0x00000000	0.0
103	0x453c298b	3010.5964
104	0x00000000	0.0
105	0x00000000	0.0
106	0x497447ad	1.0005708e+06
107	0x00000000	0.0
108	0x45308f5b	2824.9597
109	0x451cf8db	2511.5535
110	0x451cf8db	2511.5535
111	0x45308f5b	2824.9597
112	0x00000000	0.0
113	0x4599ea73	4925.306
114	0x00000000	0.0
115	0x00000000	0.0
116	0x48d0b10b	427400.34
117	0x00000000	0.0
118	0x00000000	0.0
119	0x46f71dae	31630.84
120	0x00000000	0.0
121	0x00000000	0.0
122	0x48b0204c	360706.38
123	0x00000000	0.0
124	0x00000000	0.0
125	0x436bce92	235.80692
126	0x00000000	0.0
127	0x00000000	0.0
128	0x48d959cf	445134.47
129	0x00000000	0.0
130	0x00000000	0.0
131	0x44c9c9cd	1614.3063
132	0x00000000	0.0
133	0x00000000	0.0
134	0x48fdf6ff	520119.97
135	0x00000000	0.0
136	0x44b966cc	1483.2124
137	0x44a51ac4	1320.8364
138	0x44a51ac4	1320.8364
139	0x44b966cc	1483.2124
140	0x00000000	0.0
141	0x45f6d92b	7899.146
142	0x00000000	0.0
143	0x00000000	0.0
144	0x492bbaed	703406.8
145	0x00000000	0.0
146	0x00000000	0.0
147	0x47497964	51577.39
148	0x00000000	0.0
149	0x00000000	0.0
150	0x4910bd3a	592851.6
151	0x00000000	0.0
152	0x00000000	0.0
153	0x43c71d4b	398.22885
154	0x00000000	0.0
155	0x00000000	0.0
156	0x49324c9b	730313.7
157	0x00000000	0.0
158	0x00000000	0.0
159	0x4520ce92	2572.9106
160	0x00000000	0.0
161	0x00000000	0.0
162	0x49506d0d	853712.8
163	0x00000000	0.0
164	0x4516c804	2412.501
165	0x4506183a	2145.5142
166	0x4506183a	2145.5142
167	0x4516c804	2412.501
168	0x00000000	0.0
169	0x45900a6a	4609.302
170	0x00000000	0.0
171	0x00000000	0.0
172	0x48be0966	389195.2
173	0x00000000	0.0
174	0x00000000	0.0
175	0x46e36534	29106.602
176	0x00000000	0.0
177	0x00000000	0.0
178	0x48a0e193	329484.6
179	0x00000000	0.0
180	0x00000000	0.0
181	0x435398b0	211.59644
182	0x00000000	0.0
183	0x00000000	0.0
184	0x48c6db14	407256.62
185	0x00000000	0.0
186	0x00000000	0.0
187	0x44be8c0a	1524.3762
188	0x00000000	0.0
189	0x00000000	0.0
190	0x48e85d75	475883.66
191	0x00000000	0.0
192	0x44ab3fff	1369.9999
193	0x449861f6	1219.0613
194	0x449861f6	1219.0613
195	0x44ab3fff	1369.9999
196	0x00000000	0.0
197	0x45721908	3873.5645
198	0x00000000	0.0
199	0x00000000	0.0
200	0x48a0ec4c	329570.38
201	0x00000000	0.0
202	0x00000000	0.0
203	0x46c003df	24577.936
204	0x00000000	0.0
205	0x00000000	0.0
206	0x48883abf	278997.97
207	0x00000000	0.0
208	0x00000000	0.0
209	0x43365409	182.32826
210	0x00000000	0.0
211	0x00000000	0.0
212	0x48a84f55	344698.66
213	0x00000000	0.0
214	0x00000000	0.0
215	0x449fa242	1277.0706
216	0x00000000	0.0
217	0x00000000	0.0
218	0x48c4b02a	402817.3
219	0x00000000	0.0
220	0x4490cc7e	1158.3904
221	0x44806c36	1027.3816
222	0x44806c36	1027.3816
223	0x4490cc7e	1158.3904
224	0x00000000	0.0
225	0x4623b402	10477.002
226	0x00000000	0.0
227	0x00000000	0.0
228	0x496a5c60	959942.0
229	0x00000000	0.0
230	0x00000000	0.0
231	0x47881949	69682.57
232	0x00000000	0.0
233	0x00000000	0.0
234	0x494595ff	809311.94
235	0x00000000	0.0
236	0x00000000	0.0
237	0x440f71ba	573.777
238	0x00000000	0.0
239	0x00000000	0.0
240	0x4972f96b	995222.7
241	0x00000000	0.0
242	0x00000000	0.0
243	0x4554abcb	3402.737
244	0x00000000	0.0
245	0x00000000	0.0
246	0x498e1fba	1.1642792e+06
247	0x00000000	0.0
248	0x454d0892	3280.5356
249	0x45344c1d	2884.757
250	0x45344c1d	2884.757
251	0x454d0892	3280.5356
252	0x00000000	0.0
253	0x45f1ace8	7733.6133
254	0x00000000	0.0
255	0x00000000	0.0

exp_avg f4 [128]
0	0xc14527c8	-12.322212
1	0xc117e7c0	-9.49408
2	0xc140e157	-12.055015
3	0xc141191a	-12.068628
4	0xc101a656	-8.103109
5	0xc1306cdd	-11.026578
6	0xc0e9a084	-7.300844
7	0xc0e05a75	-7.011042
8	0xc15f495e	-13.955412
9	0xc12e74c5	-10.903508
10	0xc125feb8	-10.374687
11	0xc121dd1b	-10.116481
12	0xc1411bb8	-12.069267
13	0xc13a8860	-11.658295
14	0xc12f9113	-10.9729185
15	0xc12d2f85	-10.824101
16	0xc138a50a	-11.540293
17	0xc115c09e	-9.359526
18	0x00000000	0.0
19	0x00000000	0.0
20	0xc115e72e	-9.36894
21	0xc131d2f9	-11.114007
22	0xc140f182	-12.058962
23	0xc1090017	-8.562522
24	0xc127ec0a	-10.495127
25	0xc13eb177	-11.918326
26	0xc10650dc	-8.394741
27	0xc0f02a25	-7.5051446
28	0xc114ecc5	-9.307805
29	0xc105fd1e	-8.374296
30	0xc0cf7700	-6.4832764
31	0xc1036319	-8.211694
32	0x00000000	0.0
33	0xc1046cf6	-8.276602
34	0xc13b87e9	-11.720681
35	0x00000004	6e-45
36	0xc15eb962	-13.920259
37	0xc10a8a8c	-8.658825
38	0xc0db3317	-6.8499866
39	0xc112caa0	-9.174469
40	0xc0fb47f5	-7.852534
41	0xc117bd2a	-9.483683
42	0x00000000	0.0
43	0xc14e0b21	-12.877717
44	0xc0ddf52d	-6.9361787
45	0xc1118732	-9.095507
46	0x00000000	0.0
47	0xc119390c	-9.576427
48	0xc1119f5f	-9.101409
49	0xc116cbed	-9.424787
50	0xc0f85e15	-7.7614846
51	0xc1085a0d	-8.521985
52	0xc1227144	-10.152653
53	0xc12d5b96	-10.83486
54	0xc243357c	-48.80223
55	0xc1189ea4	-9.538731
56	0xc0f176e1	-7.5457616
57	0x00000000	0.0
58	0xc183c41d	-16.470758
59	0x00000000	0.0
60	0xc10d4060	-8.828217
61	0xc147052d	-12.438764
62	0xc13a55d6	-11.645956
63	0xc189e7d4	-17.238197
64	0xc186c0af	-16.844084
65	0xc12bdaa0	-10.740875
66	0xc13fbfaf	-11.984298
67	0xc12157ff	-10.083983
68	0xc130fb65	-11.061376
69	0xc0e6d686	-7.213687
70	0x00000000	0.0
71	0xc13f4147	-11.953437
72	0x00000004	6e-45
73	0x00000000	0.0
74	0xc0fe03ae	-7.937949
75	0xc16d5c35	-14.8350115
76	0xc106f1b4	-8.43401
77	0xc1046b5f	-8.276214
78	0x00000000	0.0
79	0xc0dd6ef3	-6.9197936
80	0xc1943df4	-18.53025
81	0xc1393637	-11.575736
82	0xc170f777	-15.060416
83	0xc111537e	-9.082884
84	0x00000000	0.0
85	0xc102a7f2	-8.166002
86	0x00000000	0.0
87	0xc14171dd	-12.090299
88	0xc131c7ee	-11.111311
89	0x00000004	6e-45
90	0xc14ef9f5	-12.936025
91	0xc1476605	-12.462407
92	0xc0fe6b23	-7.950578
93	0xc0feb041	-7.9590154
94	0x00000000	0.0
95	0xc1300752	-11.001787
96	0x00000000	0.0
97	0xc0ca685b	-6.3252387
98	0xc103712c	-8.21513
99	0xc101ff2d	-8.124799
100	0xc0ff7588	-7.983097
101	0xc0fe1a8f	-7.940742
102	0xc0f196f1	-7.5496755
103	0xc1455f60	-12.335785
104	0x00000004	6e-45
105	0xc128e4f0	-10.555893
106	0xc106e606	-8.431158
107	0xc17b5e6c	-15.710552
108	0xc11c3e09	-9.765145
109	0xc1262eab	-10.386394
110	0x00000000	0.0
111	0xc134d739	-11.302545
112	0x00000000	0.0
113	0x00000000	0.0
114	0xc1284d39	-10.518853
115	0xc1311c55	-11.069417
116	0xc18a061b	-17.252981
117	0xc12eb932	-10.920214
118	0xc1058c41	-8.346742
119	0xc1177a6e	-9.46739
120	0xc11203c3	-9.125918
121	0x00000000	0.0
122	0xc15fb835	-13.982472
123	0xc1035e13	-8.210467
124	0x00000000	0.0
125	0x00000000	0.0
126	0x00000000	0.0
127	0xc125829a	-10.344385

exp_avg_sq f4 [128]
0	0x45aac25f	5464.2964
1	0x455a5e93	3493.911
2	0x45a8fe9a	5407.825
3	0x45ac7c09	5519.5044
4	0x45337da6	2871.853
5	0x45932912	4709.134
6	0x452471ea	2631.1196
7	0x450b232f	2226.199
8	0x45c89838	6419.0273
9	0x45904ad1	4617.352
10	0x4565dca2	3677.7896
11	0x45773643	3955.3914
12	0x45b5b0e4	5814.1113
13	0x45989b72	4883.4307
14	0x459d22e1	5028.36
15	0x459010ae	4610.085
16	0x45a874c5	5390.596
17	0x457896b5	3977.4192
18	0x00000000	0.0
19	0x00000000	0.0
20	0x45490632	3216.3872
21	0x458ff24b	4606.2866
22	0x45b6dc4f	5851.5386
23	0x4561330e	3603.191
24	0x458080c3	4112.095
25	0x45b093c0	5650.4688
26	0x45307626	2823.3843
27	0x4529632a	2710.1978
28	0x4564515e	3653.0854
29	0x453514bd	2897.2961
30	0x4510ea5e	2318.648
31	0x4539ac9c	2970.788
32	0x00000000	0.0
33	0x4533465f	2868.3982
34	0x459ad14b	4954.1616
35	0x2fcd6bf0	3.7365977e-10
36	0x45e3ddb3	7291.7124
37	0x45500a6a	3328.651
38	0x4501d5e1	2077.3674
39	0x456b9399	3769.2249
40	0x453880f6	2952.06
41	0x4560d719	3597.4436
42	0x00000000	0.0
43	0x45b8e05b	5916.0444
44	0x45155f31	2389.9495
45	0x45651de1	3665.8674
46	0x00000000	0.0
47	0x4569772f	3735.449
48	0x454f9425	3321.259
49	0x456f1e18	3825.8809
50	0x4526b3f8	2667.248
51	0x454bce5a	3260.897
52	0x45841cce	4227.6006
53	0x4570aa70	3850.6523
54	0x442b7c5b	685.94305
55	0x45677acc	3703.6748
56	0x4521f055	2591.0208
57	0x00000000	0.0
58	0x41c3905a	24.445484
59	0x00000000	0.0
60	0x45452f2e	3154.9487
61	0x45b0bdf7	5655.7456
62	0x459b6e1f	4973.765
63	0x46184b3c	9746.809
64	0x461231a0	9356.406
65	0x458b0793	4448.947
66	0x459ddf0b	5051.8804
67	0x4578206a	3970.026
68	0x4596d1cc	4826.2246
69	0x450fb9d8	2299.6152
70	0x00000000	0.0
71	0x459b23a6	4964.456
72	0x3089a85c	1.0015913e-09
73	0x00000000	0.0
74	0x452f6945	2806.5793
75	0x45f99761	7986.9224
76	0x453c5d90	3013.8477
77	0x4535e4e6	2910.3062
78	0x00000000	0.0
79	0x45104c8c	2308.7842
80	0x465a47b8	13969.93
81	0x45a3eff3	5245.9937
82	0x45f02ddb	7685.732
83	0x454fab3f	3322.703
84	0x00000000	0.0
85	0x4540f305	3087.1887
86	0x00000000	0.0
87	0x45b104db	5664.607
88	0x458ac82f	4441.023
89	0x32237eef	9.51671e-09
90	0x45d5b3b5	6838.4634
91	0x45acd5de	5530.7334
92	0x452c62d4	2758.1768
93	0x45321648	2849.3926
94	0x00000000	0.0
95	0x457e5afd	4069.6868
96	0x00000000	0.0
97	0x44f08c99	1924.3937
98	0x452cc8d5	2764.552
99	0x45354188	2900.0957
100	0x452bce82	2748.9067
101	0x452d8ce8	2776.8066
102	0x4526de4a	2669.893
103	0x45b4d02d	5786.022
104	0x36704fd1	3.5809246e-06
105	0x45841966	4227.175
106	0x4540e39e	3086.226
107	0x4605415f	8528.343
108	0x457a016c	4000.0889
109	0x4581e491	4156.571
110	0x00000000	0.0
111	0x458be77a	4476.9346
112	0x00000000	0.0
113	0x00000000	0.0
114	0x4586b7f0	4310.992
115	0x458b8cc6	4465.5967
116	0x46230b28	10434.789
117	0x4597690d	4845.1313
118	0x453f2d2c	3058.8232
119	0x454db017	3291.0056
120	0x45647f7a	3655.9673
121	0x00000000	0.0
122	0x45da93d9	6994.481
123	0x4536f5b4	2927.3564
124	0x00000000	0.0
125	0x00000000	0.0
126	0x00000000	0.0
127	0x457dce11	4060.8792

exp_avg f4 [64, 128]
0	0xc14b9b38	-12.725395
1	0xc13c850f	-11.782485
2	0xc0cdc10c	-6.4298153
3	0xc12617c7	-10.380805
4	0xc10eb35a	-8.918787
5	0xc0cc9095	-6.392649
6	0xc119cfed	-9.613263
7	0xc19ddf85	-19.73414
8	0xc0b184ea	-5.547475
9	0xc10c4631	-8.767137
10	0xc1416bf8	-12.08886
11	0xc18f8a02	-17.942387
12	0xc1463819	-12.388696
13	0xc139d9ad	-11.6156435
14	0xc0a711be	-5.220916
15	0xc14ca6a9	-12.7906885
16	0xc01c55c9	-2.442736
17	0xc0883425	-4.2563653
18	0x00000000	0.0
19	0x00000000	0.0
20	0xc15e2df5	-13.88622
21	0xc1072973	-8.447619
22	0xbfea0d14	-1.8285241
23	0xc1274549	-10.454415
24	0xc163cc74	-14.237415
25	0xbf933374	-1.1500077
26	0xc06effa0	-3.734352
27	0xc10c4f64	-8.769382
28	0xc13ce3fe	-11.805662
29	0xc129bc70	-10.608505
30	0xc0ab1baf	-5.3471293
31	0xc127a528	-10.477821
32	0x00000000	0.0
33	0xc18bbed0	-17.46817
34	0xc150f260	-13.059174
35	0x80000004	-6e-45
36	0xc0945fc1	-4.6366887
37	0xc128b1e8	-10.543434
38	0xc1854355	-16.657877
39	0xc0dee8d9	-6.965924
40	0xc0eed169	-7.463063
41	0xc1937b5f	-18.43524
42	0x00000000	0.0
43	0xc12d3233	-10.824756
44	0xc175f3a5	-15.371984
45	0xc147035b	-12.438319
46	0x00000000	0.0
47	0xc151246c	-13.071392
48	0xc1652c99	-14.323388
49	0xc08eed7e	-4.4664907
50	0xc1724bb8	-15.143486
51	0xc10f924e	-8.973219
52	0xc133cb62	-11.237154
53	0xc15315dc	-13.192837
54	0x40b907ed	5.7822175
55	0xc105560b	-8.333507
56	0xc1994887	-19.160414
57	0x00000000	0.0
58	0x4024a06d	2.5722916
59	0x00000000	0.0
60	0xc15fe7be	-13.994078
61	0xc108ea49	-8.557199
62	0xc14cbdf1	-12.796372
63	0xc0babf49	-5.8358502
64	0xbe8faf9b	-0.28063664
65	0xc11e8388	-9.907112
66	0xc1112c06	-9.073248
67	0xc186a24f	-16.829252
68	0xc0b34ea9	-5.603352
69	0xc183b643	-16.463995
70	0x00000000	0.0
71	0xc09fb7d2	-4.991189
72	0x80000004	-6e-45
73	0x00000000	0.0
74	0xc12a6e29	-10.651895
75	0xc0163ad8	-2.3473415
76	0xc145db6a	-12.366068
77	0xc1b90859	-23.129076
78	0x00000000	0.0
79	0xc124e413	-10.305682
80	0xbfe8cd18	-1.818759
81	0xc0d71438	-6.721218
82	0xc061e68b	-3.5296962
83	0xc182f1ba	-16.36803
84	0x00000000	0.0
85	0xc10de5a5	-8.868566
86	0x00000000	0.0
87	0xc0c97a3a	-6.29617
88	0xc0e87948	-7.264805
89	0x80000004	-6e-45
90	0x3efdfc66	0.49606627
91	0xc16a5e54	-14.648029
92	0xc1a12d7b	-20.147207
93	0xc17c6f39	-15.777154
94	0x00000000	0.0
95	0xc12dbc5a	-10.858484
96	0x00000000	0.0
97	0xc15d571e	-13.833769
98	0xc194fe94	-18.624306
99	0xc1961900	-18.762207
100	0xc17f3a76	-15.951773
101	0xc159e1bc	-13.617611
102	0xc17769a3	-15.46329
103	0xc12878f0	-10.529526
104	0x80000004	-6e-45
105	0xc0a49c60	-5.1440887
106	0xc14cd303	-12.801517
107	0xbfc5b535	-1.5445925
108	0xc108b0cb	-8.543162
109	0xc0b58089	-5.6719403
110	0x00000000	0.0
111	0xc1274a5f	-10.455657
112	0x00000000	0.0
113	0x00000000	0.0
114	0xc1554c76	-13.331167
115	0xc138af28	-11.542763
116	0xc087851c	-4.2349987
117	0xc1066322	-8.399202
118	0xc1372972	-11.4476185
119	0xc0f5f740	-7.686432
120	0xc11f0f0d	-9.9411745
121	0x00000000	0.0
122	0xc012b7f9	-2.2924788
123	0xc113d19c	-9.238674
124	0x00000000	0.0
125	0x00000000	0.0
126	0x00000000	0.0
127	0xc18755e6	-16.916943
128	0x00000000	0.0
129	0x00000000	0.0
130	0x00000000	0.0
131	0x00000000	0.0
132	0x00000000	0.0
133	0x00000000	0.0
134	0x00000000	0.0
135	0x00000000	0.0
136	0x00000000	0.0
137	0x00000000	0.0
138	0x00000000	0.0
139	0x00000000	0.0
140	0x00000000	0.0
141	0x00000000	0.0
142	0x00000000	0.0
143	0x00000000	0.0
144	0x00000000	0.0
145	0x00000000	0.0
146	0x00000000	0.0
147	0x00000000	0.0
148	0x00000000	0.0
149	0x00000000	0.0
150	0x00000000	0.0
151	0x00000000	0.0
152	0x00000000	0.0
153	0x00000000	0.0
154	0x00000000	0.0
155	0x00000000	0.0
156	0x00000000	0.0
157	0x00000000	0.0
158	0x00000000	0.0
159	0x00000000	0.0
160	0x00000000	0.0
161	0x00000000	0.0
162	0x00000000	0.0
163	0x00000000	0.0
164	0x00000000	0.0
165	0x00000000	0.0
166	0x00000000	0.0
167	0x00000000	0.0
168	0x00000000	0.0
169	0x00000000	0.0
170	0x00000000	0.0
171	0x00000000	0.0
172	0x00000000	0.0
173	0x00000000	0.0
174	0x00000000	0.0
175	0x00000000	0.0
176	0x00000000	0.0
177	0x00000000	0.0
178	0x00000000	0.0
179	0x00000000	0.0
180	0x00000000	0.0
181	0x00000000	0.0
182	0x00000000	0.0
183	0x00000000	0.0
184	0x00000000	0.0
185	0x00000000	0.0
186	0x00000000	0.0
187	0x00000000	0.0
188	0x00000000	0.0
189	0x00000000	0.0
190	0x00000000	0.0
191	0x00000000	0.0
192	0x00000000	0.0
193	0x00000000	0.0
194	0x00000000	0.0
195	0x00000000	0.0
196	0x00000000	0.0
197	0x00000000	0.0
198	0x00000000	0.0
199	0x00000000	0.0
200	0x00000000	0.0
201	0x00000000	0.0
202	0x00000000	0.0
203	0x00000000	0.0
204	0x00000000	0.0
205	0x00000000	0.0
206	0x00000000	0.0
207	0x00000000	0.0
208	0x00000000	0.0
209	0x00000000	0.0
210	0x00000000	0.0
211	0x00000000	0.0
212	0x00000000	0.0
213	0x00000000	0.0
214	0x00000000	0.0
215	0x00000000	0.0
216	0x00000000	0.0
217	0x00000000	0.0
218	0x00000000	0.0
219	0x00000000	0.0
220	0x00000000	0.0
221	0x00000000	0.0
222	0x00000000	0.0
223	0x00000000	0.0
224	0x00000000	0.0
225	0x00000000	0.0
226	0x00000000	0.0
227	0x00000000	0.0
228	0x00000000	0.0
229	0x00000000	0.0
230	0x00000000	0.0
231	0x00000000	0.0
232	0x00000000	0.0
233	0x00000000	0.0
234	0x00000000	0.0
235	0x00000000	0.0
236	0x00000000	0.0
237	0x00000000	0.0
238	0x00000000	0.0
239	0x00000000	0.0
240	0x00000000	0.0
241	0x00000000	0.0
242	0x00000000	0.0
243	0x00000000	0.0
244	0x00000000	0.0
245	0x00000000	0.0
246	0x00000000	0.0
247	0x00000000	0.0
248	0x00000000	0.0
249	0x00000000	0.0
250	0x00000000	0.0
251	0x00000000	0.0
252	0x00000000	0.0
253	0x00000000	0.0
254	0x00000000	0.0
255	0x00000000	0.0
