traffic_light_control/params/model_4.pth (torch_old, 172656 bytes, 24 tensors)

fc1.weight f4 [128, 28]
0.044175655 0.28815392 -0.086541414 -0.090959355 0.033337295 -0.14103693 -0.14656574 0.23062032
-0.076255135 0.0561848 0.10234991 0.1456139 -0.16332966 0.23009641 -0.000111058354 0.1357546
0.16938277 -0.110088386 -0.032097027 0.3399719 0.089855 -0.03801529 0.32606503 0.1346023
0.102268174 0.37550962 0.254658 0.10776824 0.024587497 0.4548928 -0.17525034 -0.06088543
0.29217443 0.119225845 0.022761837 -0.02983512 0.048173577 -0.081241 0.28002703 0.17986767
-0.08505467 0.27021763 0.00066044927 -0.18671952 0.099813096 0.031662956 0.16434191 0.28505492
0.08305396 -0.08697982 0.1080616 -0.14531022 0.2970337 0.15442088 0.07327889 0.12878126
0.10748617 -0.16492425 0.09734334 -0.04480526 -0.17459156 -0.11209556 0.018995836 -0.062282056
-0.06500482 -0.11967498 -0.18229741 -0.1568239 0.048261598 0.15346567 0.11741082 0.15917777
-0.14859658 0.084977165 0.098308995 0.18571748 0.05521795 0.12172015 -0.07990166 -0.0032980442
0.16194771 -0.124236874 0.18838094 -0.16046792 -0.13856342 0.59216475 -0.0990005 0.10026522
-0.05700393 -0.05220148 -0.035998613 0.21385993 -0.14911044 0.14030014 0.05933337 0.14427422
0.13900177 0.45060444 0.08561562 0.18723352 0.27231088 0.03654331 -0.17831247 0.29520217
0.1641743 0.18809943 0.30804086 -0.007628396 0.26699457 0.2383203 0.43653944 0.2605983
-0.13506868 0.3518296 -0.07207951 -0.044808656 0.28545338 0.12636118 0.15071045 0.015074267
0.13019158 0.18074308 0.2645522 -0.10220632 0.118925765 0.4040281 -0.13093664 -0.1421468
-0.007258312 0.15172447 0.10850413 0.61026573 0.035586253 0.05007279 0.27221012 0.11669518
0.06265249 0.26052874 0.4220961 0.09235671 0.14075331 0.35028338 -0.16436613 0.1160769
0.30029407 0.15679325 0.15727676 0.06575353 0.14600463 -0.076156706 -0.022773784 0.1529892
-0.11079911 0.24078852 0.03989467 -0.15626416 -0.014586592 -0.13775638 0.06090033 0.5901138
0.1028627 0.03760521 0.2899309 0.18258001 0.27278054 0.3235061 0.3402695 0.14354743
0.02089873 0.49217728 0.09411256 0.13532005 0.22506504 -0.099559635 -0.036953107 0.18369858
0.09950407 0.16261353 0.27346447 0.042988718 0.048033804 0.52818954 -0.15352736 0.1053115
0.17784284 0.15290414 -0.1395144 0.3256136 0.020493463 -0.06662121 0.13584818 -0.03912209
0.09142633 0.21699156 0.21772258 0.30641878 -0.13956109 0.60055846 -0.11306951 -0.04811558
0.04871194 0.061964944 -0.028738067 0.005442897 0.16547294 -0.17447859 0.28280544 0.092786446
0.14623438 0.40612778 0.11483671 -0.028519645 0.026247142 0.11122097 0.13136898 0.57513547
-0.17480369 -0.09289259 0.24330728 0.070745006 -0.020053659 0.29079688 0.43710628 0.29966882
0.016334087 0.5657184 -0.096058354 0.025126845 0.29487655 0.031664804 -0.028675526 0.1445176
0.16879179 -0.067892216 0.15549125 -0.12994234 -0.13697353 0.40311113 -0.09646281 0.03571552
0.23775885 -0.15259868 -0.096363366 0.33644238 0.1682464 -0.08598614 0.31875348 -0.09229277
-2.908126e-05 0.36265314 0.4137151 0.14994091 -0.17880003 0.3015324 -0.037765816 -0.09845256
00000000: 88f1 343d e988 933e a03c b1bd e648 babd
00000010: b08c 083d fc6b 10be 5415 16be bc27 6c3e
00000020: a72b 9cbd 0822 663d d49c d13d cf1b 153e
00000030: e43f 27be 659e 6b3e 00e8 e8b8 4103 0b3e
00000040: ad72 2d3e 0576 e1bd 2c78 03bd cc10 ae3e
00000050: e605 b83d ecb5 1bbd fff1 a63e 2fd5 093e
00000060: fa71 d13d cc42 c03e 8962 823e 98b5 dc3d
00000070: b86b c93c b6e7 e83e d374 33be 0063 79bd
00000080: e397 953e ae2c f43d 0877 ba3c c868 f4bc
00000090: a851 453d ae61 a6bd b45f 8f3e 3b2f 383e
000000a0: 2531 aebd f759 8a3e 0022 2d3a 6733 3fbe
000000b0: cf6a cc3d 04b1 013d 3f49 283e b8f2 913e
000000c0: 3218 aa3d 7a22 b2bd 664f dd3d 34cc 14be
000000d0: cd14 983e 8220 1e3e 3e13 963d 3cdf 033e
000000e0: b621 dc3d e7e1 28be f25b c73d b885 37bd
000000f0: 21c8 32be 5b92 e5bd 289d 9b3c 781b 7fbd
00000100: 3f21 85bd 2818 f5bd 2cac 3abe 7296 20be
00000110: f4ad 453d 1b26 1d3e 1675 f03d 7fff 223e
00000120: b429 18be 8208 ae3d 3a56 c93d b92c 3e3e
00000130: 382c 623d 6a48 f93d 7ba3 a3bd 0024 58bb
00000140: 9fd5 253e e76f febd efe6 403e b451 24be
00000150: 92e3 0dbe 1c98 173f c6c0 cabd da57 cd3d
00000160: f47c 69bd 38d1 55bd 4873 13bd 19fe 5a3e
00000170: 68b0 18be d7aa 0f3e 8c07 733d 9fbc 133e
00000180: 7b56 0e3e a0b5 e63e 3e57 af3d 25ba 3f3e
00000190: 556c 8b3e 70ae 153d 8b97 36be bd24 973e
000001a0: 4f1d 283e 239d 403e 88b7 9d3e a0f7 f9bb
000001b0: 83b3 883e 3d0a 743e 1982 df3e 246d 853e
000001c0: 724f 0abe 0223 b43e 6c9e 93bd 4889 37bd
000001d0: f226 923e d364 013e d753 1a3e 0ffa 763c
000001e0: f150 053e b714 393e 6373 873e 8c51 d1bd
000001f0: 5a8f f33d c5dc ce3e 4114 06be ee8e 11be
00000200: 22d7 edbb a95d 1b3e 6a37 de3d 603a 1c3f
00000210: e4c2 113d 2019 4d3d 205f 8b3e e2fd ee3d
00000220: f34f 803d 0664 853e fb1c d83e 8425 bd3d
00000230: a321 103e 5858 b33e 984f 28be bab9 ed3d
00000240: 25c0 993e 698e 203e 290d 213e c9a9 863d
00000250: 3d82 153e 0cf8 9bbd 1690 babc 33a9 1c3e
00000260: a5ea e2bd 4491 763e 9868 233d b603 20be
00000270: 9afc 6ebc 0210 0dbe a072 793d b311 173f
00000280: aea9 d23d ec07 1a3d d371 943e 41f6 3a3e
00000290: e4a9 8b3e 97a2 a53e ce37 ae3e 19fe 123e
000002a0: d033 ab3c a9fe fb3e 16be c03d 5791 0a3e
000002b0: 7377 663e ece5 cbbd 245c 17bd 7b1b 3c3e
000002c0: cac8 cb3d 2984 263e 8903 8c3e f014 303d
000002d0: 18bf 443d 6e37 073f 4736 1dbe 8ead d73d
000002e0: 6f1c 363e e792 1c3e dddc 0ebe d3b6 a63e
000002f0: e8e1 a73c b370 88bd c91b 0b3e 7c3e 20bd
00000300: ba3d bb3d 0933 5e3e abf2 5e3e ece2 9c3e
00000310: 1ae9 0ebe 33be 193f fd90 e7bd d814 45bd
00000320: 2c86 473d f4ce 7d3d 186c ebbc 545a b23b
00000330: bd71 293e 84aa 32be e0cb 903e d206 be3d
00000340: 77be 153e fbef cf3e 822f eb3d 08a2 e9bc
00000350: 3f04 d73c d2c7 e33d 9785 063e 143c 133f
00000360: bdff 32be 783e bebd 8b25 793e c2e2 903d
00000370: 9247 a4bc 54e3 943e 65cc df3e 316e 993e
00000380: 10cf 853c ecd2 103f 3eba c4bd d0d6 cd3c
00000390: 0ffa 963e f4b2 013d f0e8 eabc 6cfc 133e
000003a0: c1d7 2c3e 130b 8bbd 1939 1f3e 9b0f 05be
000003b0: ca42 0cbe 9564 ce3e 4b8e c5bd 704a 123d
000003c0: 0e77 733e d442 1cbe 285a c5bd 2d42 ac3e
000003d0: c948 2c3e 8019 b0bd a833 a33e fe03 bdbd
000003e0: 88f3 f3b7 acad b93e 77d2 d33e 1c8a 193e
000003f0: 5b17 37be 7462 9a3e 54b0 1abd 7fa1 c9bd

fc1.bias f4 [128]
0.099740796 0.19185649 -0.08363505 0.1565563 0.18497543 0.24824865 0.34410393 0.27877823
0.28701368 0.048998576 0.2996392 0.12448271 0.18645096 0.10856613 0.10188746 0.37024406
0.21804397 -0.009795159 0.08180894 0.08567337 0.16409007 0.32248583 0.044200834 0.22116478
0.17952856 0.37566185 0.34175736 0.35687983 0.12013051 0.40279585 0.38055503 0.36118758
-0.035501216 0.352108 -0.05225295 0.2227361 -0.047724694 0.37327304 0.16236332 0.21203011
0.40716144 0.31315407 0.3754495 0.18480767 0.06686159 0.33636418 0.05366727 0.24570881
0.18709813 0.20478562 0.10249329 0.22021325 0.06567384 0.04726556 0.38169694 0.056036517
0.27583277 -0.021650413 0.2742641 0.17511065 0.38060308 0.023684531 0.044288285 -0.08753061
0.35776287 0.155719 0.40038782 0.23924242 0.045607124 0.19406925 0.3259293 0.4087035
0.15141554 0.38492784 0.031430617 0.30275336 0.23189783 0.37298808 0.2952201 0.08199154
0.062065568 0.19331598 -0.13480875 0.22713621 0.082953975 0.34054792 0.19675608 0.30614308
0.110196605 0.16859908 0.26817402 0.30237934 0.13855961 0.22088723 0.3597922 0.27772537
-0.13210201 0.31867307 0.21552579 0.12381611 0.08055007 0.07777171 0.14387359 0.13182412
0.3128421 0.17315346 -0.15422389 0.32981652 0.18454278 0.12373206 0.38786066 0.27445433
-0.18187542 -0.053500623 0.30895156 0.027002566 0.4033771 0.101102725 0.16187578 -0.072566286
0.12548351 0.2697519 0.38607717 0.04001431 0.2860248 0.24185343 -0.00905323 0.08340795
00000000: e744 cc3d 0776 443e da48 abbd 4b50 203e
00000010: 336a 3d3e e534 7e3e 642e b03e 05bc 8e3e
00000020: 75f3 923e bbb2 483d 4f6a 993e cbf0 fe3d
00000030: 00ed 3e3e eb57 de3d 5faa d03d a190 bd3e
00000040: eb46 5f3e e07b 20bc 728b a73d 8575 af3d
00000050: 3a07 283e dd1c a53e ef0b 353d 0579 623e
00000060: 56d6 373e c056 c03e d2fa ae3e f4b8 b63e
00000070: fc06 f63d 423b ce3e 1cd8 c23e 94ed b83e
00000080: b969 11bd 8047 b43e 3007 56bd ef14 643e
00000090: f87a 43bd a51d bf3e 9242 263e 6c1e 593e
000000a0: 7777 d03e bb55 a03e eb3a c03e 393e 3d3e
000000b0: bbee 883d ed37 ac3e 36d2 5b3d 179b 7b3e
000000c0: a796 3f3e 52b3 513e 01e8 d13d 957f 613e
000000d0: 0280 863d 8899 413d c86d c33e 8c86 653d
000000e0: f439 8d3e 355c b1bc 586c 8c3e 3550 333e
000000f0: 68de c23e 1006 c23c a267 353d 4043 b3bd
00000100: b22c b73e cd74 1f3e a2ff cc3e f7fb 743e
00000110: 89ce 3a3d 17ba 463e 35e0 a63e 9641 d13e
00000120: ad0c 1b3e 4315 c53e 64bd 003d 7d02 9b3e
00000130: a076 6d3e 4bf8 be3e 1727 973e 2eeb a73d
00000140: 7738 7e3d a0f4 453e 4e0b 0abe 6596 683e
00000150: c6e3 a93d 4c5c ae3e 6d7a 493e c9be 9c3e
00000160: c2ae e13d 3da5 2c3e 1b4e 893e 77d1 9a3e
00000170: 92e2 0d3e 4330 623e af36 b83e 0532 8e3e
00000180: c045 07be 1e29 a33e cbb2 5c3e 4d93 fd3d
00000190: 6ff7 a43d c646 9f3d 9953 133e e7fc 063e
000001a0: d72c a03e 244f 313e deec 1dbe b6dd a83e
000001b0: c8f8 3c3e 3c67 fd3d ac95 c63e 4785 8c3e
000001c0: 8d3d 3abe 7823 5bbd e62e 9e3e 7c34 dd3c
000001d0: 7187 ce3e f20e cf3d c4c2 253e a29d 94bd
000001e0: c07e 003e ec1c 8a3e e8ab c53e 0ce6 233d
000001f0: d871 923e 6da8 773e 0054 14bc cad1 aa3d

fc2.weight f4 [64, 128]
0.21200548 0.07086821 -0.04983912 0.14669774 0.21429527 0.23572396 0.12593213 0.12036372
0.18389283 0.09555248 0.19886836 0.15336327 0.17280878 0.20207521 0.095761366 0.10180294
0.15681843 0.041817956 0.093894735 0.15093786 0.18821397 0.09281832 0.25575396 0.2792127
0.13185035 0.17165203 0.15447819 0.12439132 0.034854367 0.14714874 0.17285989 0.20834087
0.07716313 0.15388288 0.00052615255 0.22752124 -0.038895715 0.23824775 0.2163677 0.08275516
0.19265334 0.25134453 0.17190126 0.2833525 0.09841298 0.22161132 0.19802657 0.23925598
0.16731267 0.18626608 0.121341795 0.20304678 -0.021444865 0.19431192 0.20069428 -0.035296585
0.23617595 0.13847087 0.20043974 -0.037182983 0.123034276 -0.018862873 0.1674845 0.55056554
0.18019883 0.18974495 0.19918308 0.15770245 0.14331448 0.18138516 0.14671418 0.24634117
0.0046903864 0.23961298 -0.07895615 0.096963294 0.54551464 0.23454294 0.11594768 -0.05464012
0.019670172 0.19261053 0.08282665 0.21410127 0.022114627 0.19082828 0.11052009 0.22373226
0.13292268 0.20002127 0.16103977 0.22643627 0.20978019 0.16686024 0.23467933 0.10452115
0.017621621 0.14709383 0.087393366 0.21731572 0.06848666 -0.05088411 0.2032494 0.014614113
0.27666426 0.20699763 0.037569113 0.12556577 0.15690424 0.14123735 0.12834315 0.28704903
0.063841745 0.016964704 0.21895239 0.16659266 0.105067745 0.07096993 0.12297465 -0.038484603
0.21677671 0.23091438 0.2417639 0.12944213 0.13694504 0.23567124 -0.009408273 0.10099482
-0.070673764 -0.05573879 -0.07210294 -0.007277302 0.0072682826 0.012348068 0.026103085 0.06110856
-0.050133973 -1.4089802e-05 -0.09274054 0.046374004 0.036796585 0.05160397 -0.034173187 -0.018094305
0.00059761433 -0.048011784 0.06946433 0.015937494 0.007101702 -0.020368129 -0.090271786 0.05902153
-0.0024495393 -0.0076394402 0.03450212 -0.016533066 0.075431176 -0.044669896 -0.06996346 -0.05665389
0.04421503 0.054074105 0.07358668 -0.011552855 -0.018706687 0.02039175 -5.6664303e-05 -0.06182044
0.022950517 0.07312269 0.025730599 0.054432947 0.00065572845 -0.09454367 -0.029074227 -0.03999907
-0.04140748 -0.0789379 -0.00027823448 -0.013032049 -0.028786246 0.0730204 0.032091517 0.05142284
-0.07245288 -0.0878341 0.04964323 0.05875761 0.04589927 0.015302159 -0.037347425 0.026100747
-0.0186974 0.016945593 0.02169932 -0.009100377 0.021222763 -0.06645126 0.056762572 0.008659427
0.043386824 -0.025539976 0.088833064 0.037758764 0.00068663806 -0.03484687 -0.0847368 -0.08202944
-0.03946165 -0.04679302 0.04549616 0.03243984 0.0026034638 -0.041789006 -0.053180214 0.006534822
-0.03785803 0.07512082 0.00056454714 0.031301726 0.04835026 0.051784065 -0.03758145 -0.060741365
-0.02604635 0.02672946 -0.08116495 -0.038309574 -0.08474975 0.06451056 -0.08563293 -0.011547044
0.088151924 -0.05990519 0.049640037 0.05777392 -0.0014802829 0.017694121 -0.012045819 0.02981042
0.060114365 0.0768714 0.041886747 0.0066589853 0.050419617 -0.066989385 0.0353207 0.0034796745
-0.091252185 0.02985871 -0.05878581 0.06969579 0.03786666 0.073096335 0.021809287 0.050426017
00000000: f717 593e 5a23 913d 1b24 4cbd ef37 163e
00000010: 3870 5b3e 9f61 713e 5af4 003e 4181 f63d
00000020: 674e 3c3e 05b1 c33d 26a4 4b3e 430b 1d3e
00000030: c9f4 303e ceec 4e3e 891e c43d 0f7e d03d
00000040: 0395 203e 4e49 2b3d e24b c03d 748f 1a3e
00000050: 2abb 403e 8817 be3d 2ff2 823e f8f4 8e3e
00000060: c703 073e 8dc5 2f3e 882f 1e3e e0c0 fe3d
00000070: 74c3 0e3d 29ae 163e 2f02 313e 4f57 553e
00000080: b407 9e3d 7993 1d3e 80ed 093a 54fb 683e
00000090: 1d51 1fbd 38f7 733e 7f8f 5d3e 8a7b a93d
000000a0: eb46 453e 3bb0 803e e206 303e 9413 913e
000000b0: bf8c c93d 14ee 623e 7ac7 4a3e 85ff 743e
000000c0: 0354 2b3e 89bc 3e3e 0c82 f83d 7feb 4f3e
000000d0: 24ad afbc b4f9 463e cd82 4d3e 2793 10bd
000000e0: 1cd8 713e 4fcb 0d3e 1340 4d3e 2f4d 18bd
000000f0: 65f9 fb3d 5086 9abc 0f81 2b3e ddf1 0c3f
00000100: 0b86 383e 804c 423e a6f6 4b3e c07c 213e
00000110: 08c1 123e 08bd 393e 3e3c 163e dc40 7c3e
00000120: d0b1 993b 1b5d 753e c3b3 a1bd b194 c63d
00000130: d9a6 0b3f 062c 703e fa75 ed3d 52ce 5fbd
00000140: 5723 a13c b23b 453e 05a1 a93d 5d3d 5b3e
00000150: bc29 b53c 7d68 433e 5b58 e23d 121a 653e
00000160: e21c 083e 60d2 4c3e 9ce7 243e e9de 673e
00000170: 9ed0 563e 69dd 2a3e c74f 703e 2f0f d63d
00000180: 385b 903c c49f 163e 4bfb b23d 0388 5e3e
00000190: bc42 8c3d db6b 50bd 9c20 503e 0870 6f3c
000001a0: f0a6 8d3e 30f7 533e 12e2 193d 5094 003e
000001b0: 81ab 203e 86a0 103e 636c 033e 17f8 923e
000001c0: 76bf 823d 90f9 8a3c 0e35 603e 4497 2a3e
000001d0: c22d d73d af58 913d 22da fb3d 08a2 1dbd
000001e0: b7fa 5d3e d274 6c3e f590 773e 7a8c 043e
000001f0: 523b 0c3e cd53 713e 2825 1abc 5fd6 ce3d
00000200: 68bd 90bd 5c4e 64bd b5aa 93bd 6f76 eebb
00000210: c62a ee3b 8d4f 4a3c 23d6 d53c f84c 7a3d
00000220: 4859 4dbd 3d63 6cb7 c1ee bdbd abf2 3d3d
00000230: 04b8 163d af5e 533d 2ff9 0bbd 823a 94bc
00000240: 38a9 1c3a 01a8 44bd 5143 8e3d 598f 823c
00000250: 65b5 e83b 10db a6bc 6ae0 b8bd 8fc0 713d
00000260: 7388 20bb 4554 fabb 1852 0d3d 5a70 87bc
00000270: a97b 9a3d c8f7 36bd 0149 8fbd e90d 68bd
00000280: d21a 353d cf7c 5d3d 9db4 963d 3048 3dbc
00000290: c43e 99bc 990c a73c d5aa 6db8 6e37 7dbd
000002a0: b902 bc3c 59c1 953d fac8 d23c 15f5 5e3d
000002b0: 31e5 2b3a 1da0 c1bd 132d eebc 11d6 23bd
000002c0: e49a 29bd 32aa a1bd 00e0 91b9 6084 55bc
000002d0: 22d1 ebbc b88b 953d 6572 033d c2a0 523d
000002e0: 2d62 94bd 5de2 b3bd b356 4b3d d2ab 703d
000002f0: df00 3c3d e8b5 7a3c 9df9 18bd 3cd1 d53c
00000300: 4a2b 99bc 7cd1 8a3c c6c2 b13c bf19 15bc
00000310: 5cdb ad3c 9917 88bd df7f 683d 45e0 0d3c
00000320: 62b6 313d 3639 d1bc 1cee b53d efa8 1a3d
00000330: 80ff 333a 97bb 0ebd 7d8a adbd 0dff a7bd
00000340: 8aa2 21bd 0aaa 3fbd 2e5a 3a3d a3df 043d
00000350: e09e 2a3b f32a 2bbd 7fd3 59bd 0f22 d63b
00000360: 0611 1bbd f2d8 993d 1efe 133a 3d36 003d
00000370: ec0a 463d 871b 543d 02ef 19bd f0cb 78bd
00000380: 285f d5bc bef7 da3c cf39 a6bd 80ea 1cbd
00000390: 4791 adbd 1d1e 843d 5160 afbd d02f 3dbc
000003a0: ff88 b43d 255f 75bd 5a53 4b3d 59a4 6c3d
000003b0: 0d06 c2ba 43f3 903c d45b 45bc fb34 f43c
000003c0: 7b3a 763d c16e 9d3d 7091 2b3d 9e33 da3b
000003d0: cd84 4e3d bb31 89bd 70ac 103d 400b 643b
000003e0: 6de2 babd 419a f43c 64c9 70bd abbc 8e3d
000003f0: 121a 1b3d 88b3 953d 64a9 b23c 838b 4e3d

fc2.bias f4 [64]
0.19036667 -0.06423291 -0.05199259 0.105417855 -0.06998216 0.031770937 0.2670327 0.16525471
0.14733848 0.241845 0.13806924 -0.07077637 -0.08037427 0.2640736 -0.068203926 0.061343573
-0.0057366313 -0.0690195 0.18309438 0.18455806 0.044650443 -0.025270112 -0.056906484 -0.024705395
-0.07021575 0.20900093 0.028136276 -0.082532085 0.12831816 -0.040309094 0.25823957 0.26565897
0.24562372 -0.018158697 -0.055223413 0.21820925 0.20612995 0.2327631 -0.07531079 0.19075422
0.21485762 0.24091642 0.10365242 -0.056253947 0.08727186 0.23835465 0.05375182 0.02239182
-0.009307846 -0.015950574 0.245632 -0.03295784 0.010850045 0.25643587 0.16418497 0.23516133
0.17093062 0.2009127 0.1898036 0.18534884 0.10887808 0.21054728 0.18041171 0.10786078
00000000: 7bef 423e 8b8c 83bd 2ff6 54bd 51e5 d73d
00000010: cf52 8fbd 3e22 023d 83b8 883e 8838 293e
00000020: e6df 163e 37a6 773e 0662 0d3e 34f3 90bd
00000030: 449b a4bd a834 873e 80ae 8bbd 6643 7b3d
00000040: 5afa bbbb 185a 8dbd 187d 3b3e cafc 3c3e
00000050: 62e3 363d 4403 cfbc c616 69bd f862 cabc
00000060: 46cd 8fbd 5704 563e 0c7e e63c 9506 a9bd
00000070: d665 033e 261b 25bd fa37 843e 7404 883e
00000080: c984 7b3e 8cc1 94bc f231 62bd 3f72 5f3e
00000090: bb13 533e 7359 6e3e 8b3c 9abd 1355 433e
000000a0: a303 5c3e cbb2 763e b847 d43d 8a6a 66bd
000000b0: 97bb b23d 3e13 743e de2a 5c3d 0d6f b73c
000000c0: f07f 18bc c7aa 82bc f486 7b3e cdfe 06bd
000000d0: 63c4 313c 904b 833e 1b20 283e 22ce 703e
000000e0: 7008 2f3e 0fbc 4d3e e05b 423e 16cc 3d3e
000000f0: 79fb de3d b599 573e d9bd 383e 1de6 dc3d

fc3.weight f4 [32, 64]
0.093656644 -0.06427713 -0.05311057 0.30489403 -0.050831273 0.11073095 0.18472375 0.23878948
0.12187722 0.09219446 0.29993096 -0.112464935 -0.010698244 0.105885595 -0.07667751 -0.11374405
-0.060300525 -0.10844772 0.2958323 0.24580106 0.10134485 0.012688067 0.11620471 -0.11172953
-0.040362097 0.27990937 0.059198555 -0.019057348 0.12085601 0.09654559 0.22180757 0.09920646
0.17292055 0.022821248 -0.0655647 0.24282973 0.10556068 0.13567826 -0.03279501 0.25144747
0.1227303 0.27177688 0.2430295 0.050775513 -0.0019226372 0.14000948 0.055504218 -0.11535641
-0.092577875 -0.08239463 0.14505027 0.060069166 -0.035718717 0.26278108 0.24294956 0.105828024
0.16710263 0.26873845 0.1629201 0.07759694 0.24399915 0.22943218 0.19052595 0.041118104
0.2708683 -0.03540779 0.06747904 0.014780101 0.11235604 0.039873306 0.24606241 0.24681592
0.21263063 0.21398371 0.19238356 0.11156604 -0.0023944974 0.14363801 0.08147744 0.04795444
-0.10284381 -0.050585654 0.083603516 0.0664235 0.030545678 -0.032470416 0.08792433 -0.09944631
0.012541612 0.25795397 -0.04928682 -0.07265955 0.19502528 0.01973262 0.049287472 0.16419245
0.23962061 0.10620294 0.0145446295 0.17468527 0.10146131 0.24382962 0.110891916 0.06315007
0.20881401 0.13670398 0.14983739 -0.07614955 0.031100482 0.24955873 -0.06715976 0.08616335
0.08157726 0.112989016 0.29469654 -0.087287866 -0.11212857 0.105362885 0.21436644 0.21520105
0.28655997 0.05213289 0.25554696 0.132123 0.25913367 0.225226 0.06206613 0.13985118
0.16717261 0.01838111 -0.10160473 -0.04334792 -0.087846875 0.09124776 0.11992171 -0.019377153
0.16907282 -0.0007530505 0.057957813 -0.078489676 0.06468694 0.16498283 0.0850075 -0.057887077
-0.0004033656 -0.064888515 0.07756757 -0.08068215 -0.06173017 0.054128475 0.08940275 0.079691306
-0.047042668 0.059508637 -0.08085243 0.1019638 0.12834528 0.050605956 0.16225277 0.085161485
0.117338575 0.086643495 -0.07523292 0.10953131 0.034593217 0.118362956 -0.008650022 0.07576025
0.17643833 0.030896712 0.08427612 -0.10587938 -0.015202895 0.054577142 0.09489639 0.07997852
0.0078115165 -0.04266767 0.15530086 0.032986682 0.07056457 0.091597065 0.13567428 0.12005881
0.07039281 9.934997e-05 0.054642137 0.15491293 -0.08293465 0.049643937 0.13953756 0.15669663
0.19101982 -0.109158315 0.047830664 0.1462829 -0.035634816 0.10769262 0.17226355 0.24112938
0.2794137 0.10683363 0.25741544 -0.027279258 0.09721321 0.23809718 0.020002078 -0.11566615
-0.0455223 -0.005079161 0.1842959 0.15869102 -0.029284168 0.0021912213 -0.072861865 -0.016513333
0.08134228 0.23879685 -0.011057846 -0.10176098 0.06038598 -0.038518563 0.10986179 0.10902467
0.29763123 0.050094675 -0.057133697 0.052663434 0.15555644 0.12147418 0.1355999 0.2664957
0.27418056 0.22087042 0.20232934 -0.09817959 -0.004086986 0.06019254 -0.11852537 -0.027607827
0.112535894 0.120259985 0.11759569 0.023152137 -0.08054898 0.2550343 0.27022558 0.1265568
0.09366951 0.2531074 0.19391993 0.27051157 0.28768122 0.25536022 0.25317654 0.12962565
00000000: 0ecf bf3d baa3 83bd 788a 59bd 121b 9c3e
00000010: 7434 50bd e9c6 e23d 3928 3d3e 3b85 743e
00000020: c49a f93d 73d0 bc3d 8d90 993e 0454 e6bd
00000030: b047 2fbc 8cda d83d 1909 9dbd a4f2 e8bd
00000040: affd 76bd d719 debd 5577 973e 46b3 7b3e
00000050: e48d cf3d 9ce1 4f3c bcfc ed3d 74d2 e4bd
00000060: ba52 25bd 4850 8f3e 2f7a 723d 281e 9cbc
00000070: 5b83 f73d b2b9 c53d 8621 633e c22c cb3d
00000080: 1612 313e a0f3 ba3c c946 86bd 5ba8 783e
00000090: 3330 d83d 3eef 0a3e 0f54 06bd b9bd 803e
000000a0: 065a fb3d 5726 8b3e badc 783e fcf9 4f3d
000000b0: 0001 fcba a55e 0f3e 6458 633d fb3f ecbd
000000c0: 7899 bdbd 84be a8bd 0f88 143e 160b 763d
000000d0: ca4d 12bd 3e8b 863e c5c7 783e 5dbc d83d
000000e0: f41c 2b3e 1698 893e 87d4 263e 25eb 9e3d
000000f0: eada 793e 45f0 6a3e 3c19 433e 756b 283d
00000100: 40af 8a3e c207 11bd 7332 8a3d 3d28 723c
00000110: ec1a e63d 3152 233d c9f7 7b3e 50bd 7c3e
00000120: d8bb 593e 8c1e 5b3e 3200 453e bc7c e43d
00000130: 00ed 1cbb d815 133e a5dd a63d e06b 443d
00000140: c79f d2bd e732 4fbd 5238 ab3d 0b09 883d
00000150: ee3a fa3c b3ff 04bd ac11 b43d 82aa cbbd
00000160: 557b 4d3c 8b12 843e fae0 49bd 88ce 94bd
00000170: b5b4 473e 4ea6 a13c a9e1 493d 1122 283e
00000180: 1b5f 753e ed80 d93d 994c 6e3c b2e0 323e
00000190: f3ca cf3d 79ae 793e 4d1b e33d d354 813d
000001a0: 57d3 553e 21fc 0b3e f96e 193e 4cf4 9bbd
000001b0: 70c6 fe3c 538c 7f3e 0e8b 89bd 6976 b03d
000001c0: fa11 a73d c966 e73d 77e2 963e fbc3 b2bd
000001d0: aaa3 e5bd 7fc8 d73d e082 5b3e aa5d 5c3e
000001e0: fdb7 923e 4c89 553d 0dd7 823e 404b 073e
000001f0: 2bad 843e a5a1 663e 0e39 7e3d 2635 0f3e
00000200: 4c2f 2b3e fb93 963c 2416 d0bd 978d 31bd
00000210: 10e9 b3bd 1be0 ba3d 8399 f53d d6bc 9ebc
00000220: 6d21 2d3e 5d68 45ba 2c65 6d3d 32bf a0bd
00000230: 967a 843d 42f1 283e 6a18 ae3d 001b 6dbd
00000240: d07a d3b9 45e4 84bd bfdb 9e3d af3c a5bd
00000250: c6d8 7cbd d2b5 5d3d ca18 b73d 3235 a33d
00000260: d0af 40bd 54bf 733d f595 a5bd 66d2 d03d
00000270: f26c 033e 3148 4f3d 9725 263e 2569 ae3d
00000280: 354f f03d 2572 b13d b813 9abd f451 e03d
00000290: 9eb1 0d3d 4768 f23d d2b8 0dbc 3128 9b3d
000002a0: 40ac 343e 1a1b fd3c f598 ac3d 4ad7 d8bd
000002b0: 9015 79bc 488c 5f3d 0a59 c23d c7cb a33d
000002c0: c0f7 ff3b 4bc4 2ebd 3007 1f3e 0b1d 073d
000002d0: 2884 903d 3e97 bb3d 33ee 0a3e 65e1 f53d
000002e0: 1b2a 903d 1c5a d038 6fd0 5f3d 7fa1 1e3e
000002f0: a4d9 a9bd 7157 4b3d efe2 0e3e 1575 203e
00000300: b39a 433e 658e dfbd 16ea 433d 2fcb 153e
00000310: d0f5 11bd f38d dc3d db65 303e 9fea 763e
00000320: 500f 8f3e 97cb da3d f5cb 833e c078 dfbc
00000330: b817 c73d bfcf 733e 66db a33c 60e2 ecbd
00000340: 9775 3abd 176f a6bb 10b8 3c3e e67f 223e
00000350: 5ae5 efbc 989a 0f3b 9a38 95bd f846 87bc
00000360: c896 a63d 2987 743e f82b 35bc 1068 d0bd
00000370: 4a57 773d a4c5 1dbd 38ff e03d 5448 df3d
00000380: 1f63 983e 1330 4d3d 0605 6abd 9db5 573d
00000390: 304a 1f3e 74c7 f83d b3da 0a3e 2072 883e
000003a0: 6561 8c3e db2b 623e 6c2f 4f3e 6212 c9bd
000003b0: 20ec 85bb 748c 763d 6ebd f2bd cf29 e2bc
000003c0: 3879 e63d de4a f63d 02d6 f03d 8da9 bd3c
000003d0: ddf6 a4bd db93 823e 025b 8a3e 1b98 013e
000003e0: cdd5 bf3d 4b97 813e f292 463e 7e80 8a3e
000003f0: f44a 933e 93be 823e 5ba0 813e 96bc 043e

fc3.bias f4 [32]
0.15954207 0.23203738 0.03177315 0.15718895 0.06455626 0.22112593 0.18640567 0.21002549
-0.06034768 0.23493901 -0.055704266 -0.026325898 0.25015613 0.20365305 0.036444765 0.221797
0.11469806 -0.03896372 0.05746577 0.09034291 0.06759623 0.16463143 0.061816737 0.109257326
0.08192763 0.08187618 0.10284828 -0.119684294 0.11034473 0.16790052 0.00091439486 -0.05632994
00000000: ff5e 233e 359b 6d3e 9024 023d 24f6 203e
00000010: 1336 843d d66e 623e 21e1 3e3e ec10 573e
00000020: 212f 77bd da93 703e 282a 64bd 69a9 d7bc
00000030: 7714 803e 6d8a 503e 1b47 153d c11e 633e
00000040: d1e6 ea3d 6c98 1fbd 3a61 6b3d b405 b93d
00000050: e46f 8a3d 2495 283e 8c33 7d3d 4ec2 df3d
00000060: acc9 a73d b3ae a73d 1ea2 d23d 0a1d f5bd
00000070: 6bfc e13d 1dee 2b3e 00b4 6f3a 39ba 66bd

fc4.weight f4 [2, 32]
-0.02994362 -0.27904913 -0.30203977 -0.2808371 -0.018586129 -0.28261155 -0.29346088 -0.1159391
0.15772751 -0.15474492 -0.107830726 0.033075564 -0.26516843 -0.29083163 0.15233704 -0.2863759
0.013286948 0.14296071 0.12174937 -0.20316504 0.12410843 -0.17871492 -0.24443431 -0.22953433
-0.118769325 0.15328828 0.1264271 -0.15136094 -0.07545275 -0.22506918 -0.14867806 -0.1317073
-0.33769134 -0.06083975 0.013096159 -0.12045818 0.14848548 -0.24521497 -0.3504998 -0.23656988
0.11316742 -0.21521747 0.15447912 0.05669376 -0.21028972 -0.19386522 0.13853952 -0.12807822
0.059959535 0.008282557 0.08685984 -0.13955009 -0.0082540475 -0.21322513 -0.311098 -0.28631696
0.042748872 -0.05594329 -0.011383576 0.0264512 -0.2959417 -0.20013104 -0.10928088 0.019917088
00000000: 534c f5bc 87df 8ebe f5a4 9abe e1c9 8fbe
00000010: f041 98bc 76b2 90be 8140 96be 7b71 edbd
00000020: 5283 213e 7475 1ebe 5bd6 dcbd 3e7a 073d
00000030: 28c4 87be e2e7 94be 3efe 1b3e dd9f 92be
00000040: 80b1 593c 4b64 123e bc57 f93d 7f0a 50be
00000050: 902c fe3d 0b01 37be fd4c 7abe 0c0b 6bbe
00000060: 553d f3bd 9af7 1c3e 1b76 013e 5dfe 1abe
00000070: f986 9abd 8978 66be 103f 18be 47de 06be
00000080: e1e5 acbe 1a33 79bd 4691 563c c7b2 f6bd
00000090: 940c 183e a219 7bbe b674 b3be 603f 72be
000000a0: 52c4 e73d f861 5cbe c62f 1e3e b737 683d
000000b0: 3056 57be 9b84 46be 4edd 0d3e f026 03be
000000c0: 2198 753d 90b3 073c 92e3 b13d 38e6 0ebe
000000d0: fc3b 07bc b057 5abe 3d48 9fbe 2398 92be
000000e0: 7119 2f3d cb24 65bd 2e82 3abc 30b0 d83c
000000f0: ac85 97be 27ef 4cbe a7ce dfbd 2929 a33c

fc4.bias f4 [2]
0.09894386 -0.24376824
00000000: 14a3 ca3d 629e 79be

exp_avg f4 [128, 28]
0.0 -5.3811107 0.0 0.0 334.70456 0.0 0.0 22.606508
0.0 0.0 146.40622 0.0 0.0 16.968697 0.0 0.0
161.90314 0.0 0.0 -1.9552568 0.0 0.0 113.25878 0.0
-10.225167 19.85463 19.85463 -10.225167 0.0 -4.9914627 0.0 0.0
306.487 0.0 0.0 20.69647 0.0 0.0 133.97916 0.0
0.0 15.51772 0.0 0.0 148.22762 0.0 0.0 -1.777994
0.0 0.0 103.65526 0.0 -9.40597 18.218437 18.218437 -9.40597
0.0 0.0 0.0 0.0 0.0 0.0 0.0 0.0
0.0 0.0 0.0 0.0 0.0 0.0 0.0 0.0
0.0 0.0 0.0 0.0 0.0 0.0 0.0 0.0
0.0 0.0 0.0 0.0 0.0 -6.1955643 0.0 0.0
383.0171 0.0 0.0 25.975368 0.0 0.0 167.69853 0.0
0.0 19.366129 0.0 0.0 185.5647 0.0 0.0 -2.1594307
0.0 0.0 130.0625 0.0 -11.730836 22.78429 22.78429 -11.730836
0.0 -5.187203 0.0 0.0 316.3418 0.0 0.0 21.482252
0.0 0.0 138.4782 0.0 0.0 15.960059 0.0 0.0
153.32666 0.0 0.0 -1.7493271 0.0 0.0 107.50775 0.0
-9.735042 18.869427 18.869427 -9.735042 0.0 -6.003323 0.0 0.0
366.18048 0.0 0.0 24.801651 0.0 0.0 160.17136 0.0
0.0 18.499046 0.0 0.0 177.3024 0.0 0.0 -2.0639393
0.0 0.0 124.16262 0.0 -11.269529 21.822218 21.822218 -11.269529
0.0 -5.2698216 0.0 0.0 322.1477 0.0 0.0 21.856083
0.0 0.0 140.99492 0.0 0.0 16.264948 0.0 0.0
156.08478 0.0 0.0 -1.798354 0.0 0.0 109.39463 0.0
-9.90455 19.200304 19.200304 -9.90455 0.0 -6.46813 0.0 0.0
397.12048 0.0 0.0 26.919874 0.0 0.0 173.79912 0.0
0.0 20.068384 0.0 0.0 192.35721 0.0 0.0 -2.2334836
0.0 0.0 134.78018 0.0 -12.194272 23.648909 23.648909 -12.194272
0.0 -5.554546 0.0 0.0 339.98038 0.0 0.0 23.020693
0.0 0.0 148.72202 0.0 0.0 17.184454 0.0 0.0
164.601 0.0 0.0 -1.9271957 0.0 0.0 115.25639 0.0
-10.448213 20.244196 20.244196 -10.448213 0.0 -5.6010222 0.0 0.0
00000000: 0000 0000 0f32 acc0 0000 0000 0000 0000
00000010: 2f5a a743 0000 0000 0000 0000 21da b441
00000020: 0000 0000 0000 0000 fe67 1243 0000 0000
00000030: 0000 0000 e4bf 8741 0000 0000 0000 0000
00000040: 34e7 2143 0000 0000 0000 0000 db45 fabf
00000050: 0000 0000 0000 0000 7f84 e242 0000 0000
00000060: 499a 23c1 48d6 9e41 48d6 9e41 499a 23c1
00000070: 0000 0000 10ba 9fc0 0000 0000 0000 0000
00000080: 563e 9943 0000 0000 0000 0000 5f92 a541
00000090: 0000 0000 0000 0000 aafa 0543 0000 0000
000000a0: 0000 0000 9548 7841 0000 0000 0000 0000
000000b0: 453a 1443 0000 0000 0000 0000 4f95 e3bf
000000c0: 0000 0000 0000 0000 7e4f cf42 0000 0000
000000d0: da7e 16c1 5cbf 9141 5cbf 9141 da7e 16c1
000000e0: 0000 0000 0000 0000 0000 0000 0000 0000
000000f0: 0000 0000 0000 0000 0000 0000 0000 0000
00000100: 0000 0000 0000 0000 0000 0000 0000 0000
00000110: 0000 0000 0000 0000 0000 0000 0000 0000
00000120: 0000 0000 0000 0000 0000 0000 0000 0000
00000130: 0000 0000 0000 0000 0000 0000 0000 0000
00000140: 0000 0000 0000 0000 0000 0000 0000 0000
00000150: 0000 0000 1042 c6c0 0000 0000 0000 0000
00000160: 3082 bf43 0000 0000 0000 0000 8ecd cf41
00000170: 0000 0000 0000 0000 d3b2 2743 0000 0000
00000180: 0000 0000 d5ed 9a41 0000 0000 0000 0000
00000190: 9090 3943 0000 0000 0000 0000 1d34 0ac0
000001a0: 0000 0000 0000 0000 0010 0243 0000 0000
000001b0: 81b1 3bc1 3a46 b641 3a46 b641 81b1 3bc1
000001c0: 0000 0000 91fd a5c0 0000 0000 0000 0000
000001d0: c02b 9e43 0000 0000 0000 0000 a7db ab41
000001e0: 0000 0000 0000 0000 6b7a 0a43 0000 0000
000001f0: 0000 0000 675c 7f41 0000 0000 0000 0000
00000200: a053 1943 0000 0000 0000 0000 f3e9 dfbf
00000210: 0000 0000 0000 0000 f803 d742 0000 0000
00000220: bbc2 1bc1 96f4 9641 96f4 9641 bbc2 1bc1
00000230: 0000 0000 391b c0c0 0000 0000 0000 0000
00000240: 1a17 b743 0000 0000 0000 0000 c869 c641
00000250: 0000 0000 0000 0000 de2b 2043 0000 0000
00000260: 0000 0000 0cfe 9341 0000 0000 0000 0000
00000270: 6a4d 3143 0000 0000 0000 0000 9517 04c0
00000280: 0000 0000 0000 0000 4353 f842 0000 0000
00000290: fe4f 34c1 e793 ae41 e793 ae41 fe4f 34c1
000002a0: 0000 0000 61a2 a8c0 0000 0000 0000 0000
000002b0: e812 a143 0000 0000 0000 0000 42d9 ae41
000002c0: 0000 0000 0000 0000 b3fe 0c43 0000 0000
000002d0: 0000 0000 9d1e 8241 0000 0000 0000 0000
000002e0: b415 1c43 0000 0000 0000 0000 7730 e6bf
000002f0: 0000 0000 0000 0000 0dca da42 0000 0000
00000300: 0979 1ec1 399a 9941 399a 9941 0979 1ec1
00000310: 0000 0000 ecfa cec0 0000 0000 0000 0000
00000320: 6c8f c643 0000 0000 0000 0000 e75b d741
00000330: 0000 0000 0000 0000 93cc 2d43 0000 0000
00000340: 0000 0000 0d8c a041 0000 0000 0000 0000
00000350: 725b 4043 0000 0000 0000 0000 65f1 0ec0
00000360: 0000 0000 0000 0000 bac7 0643 0000 0000
00000370: bd1b 43c1 f730 bd41 f730 bd41 bd1b 43c1
00000380: 0000 0000 d7be b1c0 0000 0000 0000 0000
00000390: 7dfd a943 0000 0000 0000 0000 612a b841
000003a0: 0000 0000 0000 0000 d6b8 1443 0000 0000
000003b0: 0000 0000 c379 8941 0000 0000 0000 0000
000003c0: db99 2443 0000 0000 0000 0000 59ae f6bf
000003d0: 0000 0000 0000 0000 4683 e642 0000 0000
000003e0: e12b 27c1 1df4 a141 1df4 a141 e12b 27c1
000003f0: 0000 0000 933b b3c0 0000 0000 0000 0000

exp_avg_sq f4 [128, 28]
0.0 1148.66 0.0 0.0 258432.69 0.0 0.0 12429.803
0.0 0.0 157154.2 0.0 0.0 260.28027 0.0 0.0
195881.4 0.0 0.0 1260.1934 0.0 0.0 230900.08 0.0
574.14874 586.1286 586.1286 574.14874 0.0 1128.9949 0.0 0.0
248700.61 0.0 0.0 12052.951 0.0 0.0 151481.38 0.0
0.0 246.47086 0.0 0.0 188911.84 0.0 0.0 1247.21
0.0 0.0 223462.5 0.0 551.1327 562.8593 562.8593 551.1327
0.0 0.0 0.0 0.0 0.0 0.0 0.0 0.0
0.0 0.0 0.0 0.0 0.0 0.0 0.0 0.0
0.0 0.0 0.0 0.0 0.0 0.0 0.0 0.0
0.0 0.0 0.0 0.0 0.0 1425.8466 0.0 0.0
324110.78 0.0 0.0 15513.875 0.0 0.0 196790.83 0.0
0.0 326.94067 0.0 0.0 245307.53 0.0 0.0 1556.3918
0.0 0.0 288917.38 0.0 716.07605 736.4982 736.4982 716.07605
0.0 1088.7799 0.0 0.0 244879.23 0.0 0.0 11785.429
0.0 0.0 149000.17 0.0 0.0 243.97546 0.0 0.0
185869.55 0.0 0.0 1192.4624 0.0 0.0 219147.53 0.0
540.402 555.84467 555.84467 540.402 0.0 1426.1359 0.0 0.0
322175.5 0.0 0.0 15467.173 0.0 0.0 195829.97 0.0
0.0 321.96768 0.0 0.0 244194.53 0.0 0.0 1559.7045
0.0 0.0 287898.34 0.0 710.03796 730.6835 730.6835 710.03796
0.0 1184.1508 0.0 0.0 262861.47 0.0 0.0 12695.116
0.0 0.0 159944.0 0.0 0.0 260.9905 0.0 0.0
199509.75 0.0 0.0 1303.089 0.0 0.0 235778.89 0.0
580.28815 596.33966 596.33966 580.28815 0.0 1536.935 0.0 0.0
351976.53 0.0 0.0 16814.494 0.0 0.0 213724.81 0.0
0.0 354.4625 0.0 0.0 266417.34 0.0 0.0 1672.3445
0.0 0.0 313489.16 0.0 775.9855 798.9026 798.9026 775.9855
0.0 1296.7831 0.0 0.0 288711.12 0.0 0.0 13918.254
0.0 0.0 175529.95 0.0 0.0 287.13834 0.0 0.0
218877.98 0.0 0.0 1425.4528 0.0 0.0 258696.73 0.0
636.70056 654.32477 654.32477 636.70056 0.0 1305.1729 0.0 0.0
00000000: 0000 0000 1f95 8f44 0000 0000 0000 0000
00000010: 2c60 7c48 0000 0000 0000 0000 3637 4246
00000020: 0000 0000 0000 0000 8d78 1948 0000 0000
00000030: 0000 0000 e023 8243 0000 0000 0000 0000
00000040: 5a4a 3f48 0000 0000 0000 0000 3086 9d44
00000050: 0000 0000 0000 0000 057d 6148 0000 0000
00000060: 8589 0f44 3b88 1244 3b88 1244 8589 0f44
00000070: 0000 0000 d61f 8d44 0000 0000 0000 0000
00000080: 27df 7248 0000 0000 0000 0000 ce53 3c46
00000090: 0000 0000 0000 0000 58ee 1348 0000 0000
000000a0: 0000 0000 8a78 7643 0000 0000 0000 0000
000000b0: f67b 3848 0000 0000 0000 0000 b8e6 9b44
000000c0: 0000 0000 0000 0000 a039 5a48 0000 0000
000000d0: 7ec8 0944 ffb6 0c44 ffb6 0c44 7ec8 0944
000000e0: 0000 0000 0000 0000 0000 0000 0000 0000
000000f0: 0000 0000 0000 0000 0000 0000 0000 0000
00000100: 0000 0000 0000 0000 0000 0000 0000 0000
00000110: 0000 0000 0000 0000 0000 0000 0000 0000
00000120: 0000 0000 0000 0000 0000 0000 0000 0000
00000130: 0000 0000 0000 0000 0000 0000 0000 0000
00000140: 0000 0000 0000 0000 0000 0000 0000 0000
00000150: 0000 0000 173b b244 0000 0000 0000 0000
00000160: d941 9e48 0000 0000 0000 0000 8067 7246
00000170: 0000 0000 0000 0000 b52d 4048 0000 0000
00000180: 0000 0000 6878 a343 0000 0000 0000 0000
00000190: e28e 6f48 0000 0000 0000 0000 8a8c c244
000001a0: 0000 0000 0000 0000 ac12 8d48 0000 0000
000001b0: de04 3344 e31f 3844 e31f 3844 de04 3344
000001c0: 0000 0000 f518 8844 0000 0000 0000 0000
000001d0: cf23 6f48 0000 0000 0000 0000 b725 3846
000001e0: 0000 0000 0000 0000 0b82 1148 0000 0000
000001f0: 0000 0000 b8f9 7343 0000 0000 0000 0000
00000200: 6383 3548 0000 0000 0000 0000 cc0e 9544
00000210: 0000 0000 0000 0000 e202 5648 0000 0000
00000220: ba19 0744 0ff6 0a44 0ff6 0a44 ba19 0744
00000230: 0000 0000 5944 b244 0000 0000 0000 0000
00000240: f04f 9d48 0000 0000 0000 0000 b1ac 7146
00000250: 0000 0000 0000 0000 7e3d 3f48 0000 0000
00000260: 0000 0000 ddfb a043 0000 0000 0000 0000
00000270: a278 6e48 0000 0000 0000 0000 8bf6 c244
00000280: 0000 0000 0000 0000 4b93 8c48 0000 0000
00000290: 6e82 3144 beab 3644 beab 3644 6e82 3144
000002a0: 0000 0000 d304 9444 0000 0000 0000 0000
000002b0: af59 8048 0000 0000 0000 0000 775c 4646
000002c0: 0000 0000 0000 0000 0032 1c48 0000 0000
000002d0: 0000 0000 c97e 8243 0000 0000 0000 0000
000002e0: 70d5 4248 0000 0000 0000 0000 d9e2 a244
000002f0: 0000 0000 0000 0000 b940 6648 0000 0000
00000300: 7112 1144 bd15 1544 bd15 1544 7112 1144
00000310: 0000 0000 ec1d c044 0000 0000 0000 0000
00000320: 11dd ab48 0000 0000 0000 0000 fd5c 8346
00000330: 0000 0000 0000 0000 34b7 5048 0000 0000
00000340: 0000 0000 333b b143 0000 0000 0000 0000
00000350: 2b16 8248 0000 0000 0000 0000 060b d144
00000360: 0000 0000 0000 0000 2512 9948 0000 0000
00000370: 12ff 4144 c4b9 4744 c4b9 4744 12ff 4144
00000380: 0000 0000 0f19 a244 0000 0000 0000 0000
00000390: e4f8 8c48 0000 0000 0000 0000 0479 5946
000003a0: 0000 0000 0000 0000 7d6a 2b48 0000 0000
000003b0: 0000 0000 b591 8f43 0000 0000 0000 0000
000003c0: 7fbf 5548 0000 0000 0000 0000 7d2e b244
000003d0: 0000 0000 0000 0000 2fa2 7c48 0000 0000
000003e0: d62c 1f44 c994 2344 c994 2344 d62c 1f44
000003f0: 0000 0000 8825 a344 0000 0000 0000 0000

exp_avg f4 [128]
9.629471 8.812457 0.0 11.053449 9.134397 10.5526905 9.295752 11.454645
9.795979 9.793711 9.843639 9.838371 9.147347 9.744399 9.482656 10.221438
8.665007 0.0 8.725075 11.497513 9.826128 10.311257 11.437891 11.551943
9.231286 9.488937 10.613032 9.214643 4.375141e-39 10.152608 10.472106 9.722589
1.7e-44 12.02804 0.0 12.058637 0.0 11.817397 9.224504 9.949115
12.063228 11.744483 11.861324 12.869545 10.326996 9.692179 10.7641115 12.377364
10.819244 10.633933 13.492211 12.252665 0.0 10.251093 9.961133 0.0
11.10665 7.622038 11.276967 0.0 9.884838 0.0 10.321707 52.1069
12.089053 9.985814 11.018045 8.763051 10.457794 9.556703 9.359399 13.524095
0.0 9.136008 6e-45 10.382407 43.083607 10.926562 10.569091 0.0
4.194885 8.002805 0.0 12.601252 0.0 10.560222 10.140429 9.385382
10.542164 8.7362385 10.635227 8.854518 9.371168 10.409229 10.67136 10.705395
0.0 10.093291 9.15148 9.006683 8.767679 0.0 10.175362 0.0
13.277262 8.123399 0.0 10.510519 11.017904 10.065818 12.751142 11.817949
6e-45 0.0 10.597258 9.53868 9.827343 3.0940006e-38 10.55291 0.0
10.218235 11.309105 9.566505 9.209298 9.993467 10.781951 0.0 9.169671
00000000: 5012 1a41 d3ff 0c41 0000 0000 edda 3041
00000010: 7d26 1241 d2d7 2841 66bb 1441 3a46 3741
00000020: 54bc 1c41 0ab3 1c41 8c7f 1d41 f869 1d41
00000030: 895b 1241 0fe9 1b41 f5b8 1741 038b 2341
00000040: dea3 0a41 0000 0000 e899 0b41 d0f5 3741
00000050: d237 1d41 e9fa 2441 9a01 3741 c2d4 3841
00000060: 59b3 1341 b0d2 1741 fbce 2941 2d6f 1341
00000070: 1da4 2f00 1571 2241 bf8d 2741 b98f 1b41
00000080: 0c00 0000 da72 4041 0000 0000 2df0 4041
00000090: 0000 0000 0f14 3d41 9297 1341 932f 1f41
000000a0: fb02 4141 67e9 3b41 fcc7 3d41 a8e9 4d41
000000b0: 603b 2541 2a13 1b41 cd39 2c41 af09 4641
000000c0: a01b 2d41 9724 2a41 19e0 5741 ea0a 4441
000000d0: 0000 0000 7a04 2441 cd60 1f41 0000 0000
000000e0: d7b4 3141 bce7 f340 756e 3441 0000 0000
000000f0: 4c28 1e41 0000 0000 b625 2541 776d 5042
00000100: c36c 4141 e5c5 1f41 ea49 3041 7535 0c41
00000110: 2053 2741 41e8 1841 19c0 1541 b162 5841
00000120: 0000 0000 172d 1241 0400 0000 571e 2641
00000130: 9d55 2c42 33d3 2e41 ff1a 2941 0000 0000
00000140: 7f3c 8640 7d0b 0041 0000 0000 ba9e 4941
00000150: 0000 0000 abf6 2841 323f 2241 862a 1641
00000160: b4ac 2841 a2c7 0b41 e429 2a41 1bac 0d41
00000170: 4ef0 1541 348c 2641 e4bd 2a41 4c49 2b41
00000180: 0000 0000 1f7e 2141 766c 1241 601b 1041
00000190: 6a48 0c41 0000 0000 48ce 2241 0000 0000
000001a0: aa6f 5441 71f9 0141 0000 0000 162b 2841
000001b0: 5649 3041 970d 2141 ad04 4c41 5216 3d41
000001c0: 0400 0000 0000 0000 5e8e 2941 6f9e 1841
000001d0: cc3c 1d41 1374 2801 b8d8 2841 0000 0000
000001e0: e47d 2341 18f2 3441 6810 1941 4959 1341
000001f0: 3ee5 1f41 df82 2c41 0000 0000 f9b6 1241

exp_avg_sq f4 [128]
1328.4595 1288.1451 0.0 1661.7832 1260.6704 1656.6693 1358.4857 1802.0455
1491.0319 1507.1278 1474.1708 1499.9532 1224.951 1400.9803 1360.484 1498.4634
1043.4382 0.0 1201.6097 1738.2733 1442.018 1573.3584 1824.4493 1852.0308
1313.4779 1354.3146 1483.1865 1285.0413 5.7420634e-06 1523.5193 1645.2123 1409.3368
1.9720856e-09 2060.353 0.0 2053.2668 0.0 1909.6616 1415.8353 1336.5946
2008.8136 1909.8118 1957.0612 2225.1882 1688.9419 1443.6405 1668.544 2094.5896
1561.6118 1715.3862 465.64093 2048.0237 0.0 1560.7172 1338.7611 0.0
1771.9343 832.1091 1888.2201 0.0 1562.6869 0.0 1466.5269 9244.412
2048.839 1406.9806 1842.5072 1236.6119 1588.5874 1435.1019 1296.641 2393.4766
0.0 1306.4966 1.2304682e-09 1623.7673 7569.1777 1660.1936 1666.8005 0.0
347.2733 990.6218 0.0 2242.878 0.0 1721.7797 1499.8518 1349.3854
1622.2937 1212.6157 1693.3497 1225.8795 1428.5221 1609.8969 1611.4188 1622.5243
0.0 1476.174 1332.3235 1182.203 1179.5413 0.0 1602.4281 0.0
2325.307 888.9792 0.0 1487.4064 1790.672 1550.3082 2158.8618 1764.1301
1.9033732e-10 0.0 1680.7919 1286.5078 1420.7003 3.8555495e-06 1523.2377 0.0
1474.4463 1621.244 1379.231 1337.4329 1514.7039 1696.5322 0.0 1303.6626
00000000: b40e a644 a504 a144 0000 0000 10b9 cf44
00000010: 7495 9d44 6b15 cf44 8bcf a944 7541 e144
00000020: 0561 ba44 1764 bc44 7745 b844 817e bb44
00000030: 6f1e 9944 5f1f af44 7d0f aa44 d44e bb44
00000040: 066e 8244 0000 0000 8333 9644 bf48 d944
00000050: 9340 b444 78ab c444 610e e444 fc80 e744
00000060: 4b2f a444 114a a944 f865 b944 52a1 a044
00000070: f3ab c036 9e70 be44 cba6 cd44 c72a b044
00000080: 4c85 0731 a6c5 0045 0000 0000 4554 0045
00000090: 0000 0000 2cb5 ee44 bbfa b044 0713 a744
000000a0: 091a fb44 fab9 ee44 f5a1 f444 0313 0b45
000000b0: 241e d344 7f74 b444 6891 d044 6fe9 0245
000000c0: 9433 c344 5c6c d644 0ad2 e843 6100 0045
000000d0: 0000 0000 f316 c344 5b58 a744 0000 0000
000000e0: e67d dd44 fb06 5044 0b07 ec44 0000 0000
000000f0: fb55 c344 0000 0000 dc50 b744 a671 1046
00000100: 6d0d 0045 61df af44 3b50 e644 9593 9a44
00000110: cc92 c644 4363 b344 8314 a244 a097 1545
00000120: 0000 0000 e44f a344 401d a930 8ef8 ca44
00000130: 6c89 ec45 3286 cf44 9e59 d044 0000 0000
00000140: fba2 ad43 cca7 7744 0000 0000 0c2e 0c45
00000150: 0000 0000 f338 d744 427b bb44 55ac a844
00000160: 66c9 ca44 b493 9744 31ab d344 253c 9944
00000170: b590 b244 b33c c944 676d c944 c7d0 ca44
00000180: 0000 0000 9185 b844 5a8a a644 7fc6 9344
00000190: 5271 9344 0000 0000 b34d c844 0000 0000
000001a0: e954 1145 ab3e 5e44 0000 0000 01ed b944
000001b0: 81d5 df44 ddc9 c144 caed 0645 2a84 dc44
000001c0: 3147 512f 0000 0000 5719 d244 40d0 a044
000001d0: 6996 b144 eb5e 8136 9b67 be44 0000 0000
000001e0: 484e b844 cfa7 ca44 6467 ac44 da2d a744
000001f0: 8656 bd44 0811 d444 0000 0000 34f5 a244

exp_avg f4 [64, 128]
20.211952 30.69911 0.0 16.249275 33.06565 25.82179 32.132763 19.625507
39.867027 23.882223 29.381409 26.819202 26.46262 23.692066 33.758533 17.684387
15.750817 0.0 34.081062 16.780165 25.86811 17.828049 20.316397 16.265036
24.20108 20.726564 12.178249 32.212067 -1.013178e-39 27.20576 17.50205 29.820425
-6e-45 16.914515 0.0 17.172491 0.0 15.701513 24.885384 8.78983
14.003682 15.313549 18.892761 14.088666 22.316051 30.491184 16.400936 13.369982
12.789918 23.110773 -3.1959095 17.780745 0.0 19.13988 19.851416 0.0
18.989729 13.379019 18.170567 0.0 26.152018 0.0 17.619387 -2.9085348
15.990887 24.224411 22.7687 28.072474 23.173635 24.13097 29.974459 10.234307
0.0 26.21548 -6e-45 27.015495 -8.043185 15.528502 21.59437 0.0
14.856635 38.038727 0.0 17.674868 0.0 34.000217 24.711004 32.64148
24.314592 33.785442 19.713432 23.536488 31.446188 27.547369 13.743665 20.089539
0.0 24.49538 28.854868 28.109207 20.799694 0.0 21.031368 0.0
10.541926 12.66379 0.0 19.086329 25.178871 25.324535 12.563718 6.9897947
6e-45 0.0 30.78904 20.351011 24.614576 1.042006e-39 12.189343 0.0
21.199343 10.252001 28.765636 28.617798 27.58653 24.271717 0.0 24.265795
6e-45 6e-45 0.0 6e-45 6e-45 6e-45 6e-45 6e-45
6e-45 6e-45 6e-45 6e-45 6e-45 6e-45 6e-45 6e-45
6e-45 0.0 6e-45 6e-45 6e-45 0.0 6e-45 6e-45
6e-45 6e-45 6e-45 6e-45 6e-45 6e-45 6e-45 6e-45
0.0 6e-45 0.0 6e-45 0.0 6e-45 6e-45 -6e-45
6e-45 6e-45 6e-45 6e-45 6e-45 6e-45 6e-45 6e-45
-6e-45 6e-45 0.0 6e-45 0.0 6e-45 6e-45 0.0
6e-45 6e-45 6e-45 0.0 6e-45 0.0 6e-45 6e-45
6e-45 6e-45 6e-45 6e-45 6e-45 6e-45 6e-45 6e-45
0.0 6e-45 -6e-45 6e-45 0.0 6e-45 6e-45 0.0
6e-45 6e-45 0.0 6e-45 0.0 6e-45 6e-45 6e-45
6e-45 6e-45 6e-45 6e-45 6e-45 6e-45 6e-45 6e-45
0.0 6e-45 6e-45 6e-45 6e-45 0.0 6e-45 0.0
6e-45 6e-45 0.0 6e-45 6e-45 6e-45 6e-45 6e-45
6e-45 0.0 6e-45 6e-45 6e-45 6e-45 6e-45 0.0
6e-45 6e-45 6e-45 6e-45 6e-45 6e-45 0.0 6e-45
00000000: 14b2 a141 c797 f541 0000 0000 84fe 8141
00000010: 3a43 0442 0793 ce41 f387 0042 0a01 9d41
00000020: d677 1f42 cb0e bf41 200d eb41 ba8d d641
00000030: 72b3 d341 5a89 bd41 bd08 0742 a079 8d41
00000040: 5903 7c41 0000 0000 0253 0842 c73d 8641
00000050: e4f1 ce41 d89f 8e41 fb87 a241 cb1e 8241
00000060: d09b c141 01d0 a541 1cda 4241 28d9 0042
00000070: 5408 0b80 65a5 d941 3304 8c41 3b90 ee41
00000080: 0400 0080 ed50 8741 0000 0000 4361 8941
00000090: 0000 0000 6639 7b41 4415 c741 25a3 0c41
000000a0: 150f 6041 4c04 7541 6024 9741 2d6b 6141
000000b0: 4687 b241 f2ed f341 1e35 8341 72eb 5541
000000c0: 81a3 4c41 dde2 b841 c889 4cc0 f73e 8e41
000000d0: 0000 0000 791e 9941 b3cf 9e41 0000 0000
000000e0: f7ea 9741 7610 5641 525d 9141 0000 0000
000000f0: 5537 d141 0000 0000 81f4 8c41 6f25 3ac0
00000100: acda 7f41 98cb c141 4c26 b641 6d94 e041
00000110: 9b63 b941 3a0c c141 b1cb ef41 b9bf 2341
00000120: 0000 0000 4eb9 d141 0400 0080 bc1f d841
00000130: e3b0 00c1 bf74 7841 45c1 ac41 0000 0000
00000140: c7b4 6d41 a827 1842 0000 0000 2166 8d41
00000150: 0000 0000 3900 0842 23b0 c541 e090 0242
00000160: 4984 c241 4b24 0742 1cb5 9d41 ba4a bc41
00000170: cb91 fb41 0361 dc41 0de6 5b41 60b7 a041
00000180: 0000 0000 8af6 c341 c5d6 e641 a8df e041
00000190: c665 a641 0000 0000 3e40 a841 0000 0000
000001a0: bbab 2841 e29e 4a41 0000 0000 cdb0 9841
000001b0: 546e c941 a698 ca41 fd04 4941 66ac df40
000001c0: 0400 0000 0000 0000 f44f f641 dfce a241
000001d0: a7ea c441 b058 0b00 8d07 4341 0000 0000
000001e0: 4198 a941 3208 2441 0620 e641 40f1 e441
000001f0: 37b1 dc41 7a2c c241 0000 0000 5920 c241
00000200: 0400 0000 0400 0000 0000 0000 0400 0000
00000210: 0400 0000 0400 0000 0400 0000 0400 0000
00000220: 0400 0000 0400 0000 0400 0000 0400 0000
00000230: 0400 0000 0400 0000 0400 0000 0400 0000
00000240: 0400 0000 0000 0000 0400 0000 0400 0000
00000250: 0400 0000 0000 0000 0400 0000 0400 0000
00000260: 0400 0000 0400 0000 0400 0000 0400 0000
00000270: 0400 0000 0400 0000 0400 0000 0400 0000
00000280: 0000 0000 0400 0000 0000 0000 0400 0000
00000290: 0000 0000 0400 0000 0400 0000 0400 0080
000002a0: 0400 0000 0400 0000 0400 0000 0400 0000
000002b0: 0400 0000 0400 0000 0400 0000 0400 0000
000002c0: 0400 0080 0400 0000 0000 0000 0400 0000
000002d0: 0000 0000 0400 0000 0400 0000 0000 0000
000002e0: 0400 0000 0400 0000 0400 0000 0000 0000
000002f0: 0400 0000 0000 0000 0400 0000 0400 0000
00000300: 0400 0000 0400 0000 0400 0000 0400 0000
00000310: 0400 0000 0400 0000 0400 0000 0400 0000
00000320: 0000 0000 0400 0000 0400 0080 0400 0000
00000330: 0000 0000 0400 0000 0400 0000 0000 0000
00000340: 0400 0000 0400 0000 0000 0000 0400 0000
00000350: 0000 0000 0400 0000 0400 0000 0400 0000
00000360: 0400 0000 0400 0000 0400 0000 0400 0000
00000370: 0400 0000 0400 0000 0400 0000 0400 0000
00000380: 0000 0000 0400 0000 0400 0000 0400 0000
00000390: 0400 0000 0000 0000 0400 0000 0000 0000
000003a0: 0400 0000 0400 0000 0000 0000 0400 0000
000003b0: 0400 0000 0400 0000 0400 0000 0400 0000
000003c0: 0400 0000 0000 0000 0400 0000 0400 0000
000003d0: 0400 0000 0400 0000 0400 0000 0000 0000
000003e0: 0400 0000 0400 0000 0400 0000 0400 0000
000003f0: 0400 0000 0400 0000 0000 0000 0400 0000
