traffic_light_control/records/model_9.pth (torch_old, 172648 bytes, 24 tensors)

fc1.weight f4 [128, 28]
000000 11 68 a1 bd 86 6a 1c 3e 20 7d 83 3b 66 3b b8 bd
       -0.07881177 0.1527501 0.004012719 -0.08995704
000010 9c a7 ba 3d 13 cd 22 3e 73 77 ee bd ff 8d ed 3c
       0.09114 0.15898542 -0.11643877 0.028998373
000020 b2 2c 01 be 78 78 29 3d 6a 4e 26 3e e4 9e f4 bd
       -0.12614706 0.041374654 0.1624085 -0.119443685
000030 dc 91 bc bd 1a bb 42 be 6a 0e df 3d 30 f0 0a bd
       -0.09207508 -0.19016686 0.10891421 -0.033920467
000040 4b 57 40 be 26 66 bd 3d b5 00 13 3e 43 c4 38 3e
       -0.187833 0.09247999 0.14355738 0.18043618
000050 5b 00 38 3e be 02 c5 3d 1f 08 11 be 81 70 37 3e
       0.17968886 0.09619664 -0.14163254 0.1791401
000060 b0 ba c5 bd e8 0d 08 be b1 19 fb 3d d5 c3 f7 3d
       -0.096547484 -0.13286555 0.122607596 0.12097899
000070 df 08 ba bd b6 ff e2 3d 62 62 b2 3d 95 20 21 3e
       -0.09083723 0.11083929 0.08710171 0.15735085
000080 4b 6b 58 3e 08 49 27 bd f6 7a a6 3d 4a 73 2e 3e
       0.21134679 -0.040841132 0.08128922 0.17036167
000090 9f 87 15 3e 7e 5b ce bd a4 f4 b4 bd f2 1f fa 3d
       0.14602517 -0.100760445 -0.08835724 0.12213124
0000a0 48 14 18 bd 51 7d 08 bd b0 70 aa 3c 02 d2 8a 3d
       -0.037128717 -0.033322636 0.020805687 0.06778337
0000b0 40 1c 80 bd d5 e0 de bd b5 56 0a 3e 5f 30 c5 3d
       -0.06255388 -0.10882727 0.13509639 0.09628367
0000c0 e0 5a b6 3c f6 0d c5 bd 49 3b ef bd bf 0d 3c 3e
       0.02226013 -0.096218035 -0.116812296 0.18364619
0000d0 5c d5 1e 3d 52 00 3c 3e 00 e6 31 3e e9 04 c5 3d
       0.038777694 0.18359497 0.17372894 0.09620077
0000e0 43 e5 0d 3e a7 7d 33 bd a0 98 60 3c 6a 7a fe 3d
       0.13856988 -0.043821003 0.013708264 0.124256924
0000f0 64 6c c6 3d f6 c7 e7 3d ce c7 1a be d9 74 11 be
       0.096886426 0.113174364 -0.15115282 -0.1420473
000100 88 2b 46 bd 94 81 1b bd 65 51 32 3b bc cd f9 bd
       -0.04838136 -0.037965372 0.002720916 -0.12197444
000110 1e a0 8b 3d 62 cd 4d 3e d0 0a 3c bd 24 6a 09 be
       0.06817649 0.20097879 -0.04590875 -0.13419396
000120 29 50 b4 3d c7 f1 af bd d8 e3 d2 bd fb 77 bd bd
       0.08804352 -0.08591037 -0.10297364 -0.092514
000130 30 8f 16 3d 80 34 82 bb 8f e2 cf bd 04 79 72 bd
       0.036757648 -0.0039735436 -0.101506345 -0.05919744
000140 19 19 45 3d be db 03 3d 82 7d 02 3d 72 8d ca 3d
       0.048119638 0.032191984 0.031857975 0.0989026
000150 5b c7 25 3e 77 e3 19 3e f6 04 c6 bd cf 0c 27 be
       0.1618933 0.15028177 -0.09668915 -0.1631348
000160 38 dd 57 bd 32 5c d1 3d 8a c3 89 3d a0 64 30 3e
       -0.052701205 0.10222663 0.06726749 0.17225885
000170 02 37 f7 3d 85 e0 26 be 20 4f e6 3d 3e 01 9a 3d
       0.12071039 -0.16296585 0.11245561 0.07519768
000180 c0 e0 04 3b eb f4 b1 bd da 94 f9 3d 1a bc 33 be
       0.0020275563 -0.086892925 0.12186594 -0.17552224
000190 5d 15 a9 3d 00 1a f1 bb be 7c f0 3d 9d 20 25 be
       0.08256028 -0.007357836 0.11742543 -0.16125722
0001a0 d7 ab 35 3e 34 b1 07 be bf cb 96 3d 81 5a 3e be
       0.17741333 -0.13251191 0.0736308 -0.18589212
0001b0 fe 9e c0 bd c9 79 cb 3b d5 39 30 3e aa d2 39 3e
       -0.09405325 0.0062095863 0.17209561 0.18146768
0001c0 e0 f1 bd bc 32 cd 18 be be 35 d4 bd 72 6b c4 3d
       -0.023186624 -0.14922026 -0.10361813 0.09590806
0001d0 19 b4 c6 3d 6a bb ac 3d 10 c8 00 bd c6 94 28 3e
       0.0970232 0.08434184 -0.031440794 0.16463003
0001e0 42 2c d7 bd 80 16 e5 ba ac ca dd bd c0 51 2f 3b
       -0.105064884 -0.0017478019 -0.10829672 0.0026751608
0001f0 48 79 f9 3c 9e da 25 3e f0 c9 31 bd ee da e0 3d
       0.03045334 0.16196677 -0.043405473 0.109792575
000200 ae 95 13 3e c0 a2 2b 3c 02 8c d2 3d ac 54 57 bd
       0.14412567 0.010475814 0.102806106 -0.052570984
000210 6c 6b 25 be 0c 65 2b 3d 32 40 bf bb b0 08 28 3c
       -0.1615426 0.041844413 -0.00583651 0.0102559775
000220 97 e2 49 bd 3a 2d bb bc 34 c0 40 3d 2d 1d 51 3d
       -0.04928836 -0.022848714 0.0470583 0.051053215
000230 e4 ee 7c 3d ca 8b 88 3d c8 9b f4 bc a0 77 e2 3c
       0.06175126 0.06667288 -0.029859439 0.027644932
000240 6a 68 e4 bd 00 5d 86 bd b6 64 e3 3d 03 fe 19 3e
       -0.11152728 -0.06560707 0.111031935 0.15038304
000250 cf 61 0e 3e 40 24 0a bd 0f 85 36 be af 1b 17 3e
       0.13904499 -0.033725977 -0.17824195 0.14756654
000260 0f f6 2c 3e c9 88 91 bd 06 2a 98 3d c0 71 bb 3c
       0.16890739 -0.07106168 0.0742989 0.022881389
000270 80 5d bc 3c a5 f2 04 be fd 63 05 3e 0a b0 93 3d
       0.022993803 -0.12983187 0.13026424 0.07211311
000280 4d 10 1e 3e 2e 22 2a be 2a 4f a6 3d 8d b7 0f be
       0.15435906 -0.16614601 0.08120568 -0.14034863
000290 69 56 92 bd 3b 69 fb bd 1a 2d b8 3d f3 2f 28 3e
       -0.07145388 -0.122759305 0.089929774 0.16424541
0002a0 53 56 1a 3e 34 d7 91 bd d8 e2 30 3d ae 83 e9 3d
       0.15071993 -0.07121125 0.043185085 0.11402069
0002b0 a1 bc 6a bd 10 1a 6f 3d 87 34 19 be 1e 9a 70 3d
       -0.057308797 0.058374465 -0.14961444 0.058740728
0002c0 bf fc 1e 3e 70 6b 6c bc 6a 89 31 3e 9c 46 c1 bd
       0.15526102 -0.014429912 0.17337576 -0.09437296
0002d0 ba 1f ed bd 55 3a 5f 3e 0a af 04 be 2d 6d 2a be
       -0.11578317 0.21799596 -0.12957397 -0.1664321
0002e0 57 b6 80 bd 42 b6 d4 3d 25 4f 16 be bf 71 e8 bd
       -0.062847786 0.103863254 -0.14678629 -0.1134982
0002f0 fd 9f 27 be 42 7d 39 be a8 f6 15 3e 21 58 35 be
       -0.16369624 -0.18114188 0.14644873 -0.177094
000300 2a 86 a8 bc ab 06 97 bc 9d e3 d2 3c 39 57 17 3e
       -0.020571787 -0.018435797 0.0257433 0.14779367
000310 5e 49 99 3d 11 93 47 3b 46 16 e8 3d 4f 30 dc bd
       0.07484697 0.0030452649 0.11332373 -0.10751402
000320 02 8d 09 3e 63 ff 0b be e3 a4 d7 bd 95 93 2a be
       0.13432696 -0.13671641 -0.105294965 -0.1665786
000330 82 3c 3a be b4 02 69 bd af a1 d2 bd e1 63 f9 bd
       -0.18187144 -0.056887344 -0.10284745 -0.121772535
000340 4e 1d d8 bd ed f6 1f 3e 8d eb 23 3e fc e7 65 bd
       -0.105524644 0.15621538 0.16007824 -0.05612944
000350 bf 5c 0d bc fb 19 9d bd 37 de 17 3e 95 e1 8d 3b
       -0.008628069 -0.07670971 0.14830862 0.00432987
000360 e2 76 de bd 40 95 b7 3b 0f c3 3c 3e 82 d4 02 be
       -0.10862519 0.005602509 0.18433784 -0.12776378
000370 dd a9 19 be 66 1e 92 bd cc 1f 0d bd 2f a5 4f 3e
       -0.15006204 -0.07134704 -0.034454152 0.20277856
000380 ed 26 84 bd b8 99 28 3d 14 d0 2a bd 6f 02 1a 3e
       -0.06452737 0.041162223 -0.041702345 0.15039991
000390 68 f5 29 be 7c 05 3c 3d ed a9 8b bd 1d 58 e6 bd
       -0.16597521 0.045903668 -0.0681952 -0.11247275
0003a0 81 26 26 3e c0 2b 44 3b bd 29 23 be 6f 0a 32 3e
       0.16225626 0.0029933304 -0.1593389 0.17386793
0003b0 51 0a 1a 3e a2 40 eb bd 00 ff 98 ba 28 d6 e1 bc
       0.15042998 -0.11486937 -0.0011672676 -0.027567938
0003c0 36 e5 d5 3d 21 29 33 3e b6 d3 85 3d de 4c 9f bd
       0.10444109 0.17496158 0.06534521 -0.07778333
0003d0 89 6c 02 be 08 f2 3d be e4 fb d0 bd a0 cd 02 3d
       -0.12736715 -0.18549359 -0.10204294 0.03193438
0003e0 40 37 b6 bc b9 db 2d 3e 64 56 a7 bd fc c1 2e bd
       -0.022243142 0.16978349 -0.081707746 -0.042665467
0003f0 4e d4 cb 3d 90 12 4c bc 5b f1 ce bd 00 cd f3 3c
       0.09952603 -0.0124555975 -0.10104629 0.029760838

fc1.bias f4 [128]
000000 b2 34 23 3e da c4 83 3d 85 29 66 3d ef 6e 23 3d
       0.1593807 0.06434031 0.05619194 0.039900716
000010 1b f3 5b 3e 68 9f d0 bd 1d ea c9 3d 43 fb 13 3e
       0.21479456 -0.10186654 0.09859107 0.14451317
000020 7e d3 3a 3d 5c dd ee bd e6 89 00 be 40 66 34 3e
       0.04561185 -0.11663315 -0.12552604 0.1761713
000030 f7 11 1d bd c0 d4 4e bc 8f a4 57 3d d9 41 9a bd
       -0.03834721 -0.012623966 0.05264717 -0.07532091
000040 93 8f 7d 3d 71 8e 46 3e 22 ae 3c 3e a5 40 2a 3e
       0.0619045 0.19390275 0.18425801 0.16626222
000050 d6 c3 08 be fc d8 ba 3d e2 fb 2e 3e c1 7d 5d bd
       -0.13355955 0.09123418 0.17088273 -0.054075006
000060 5e 27 f5 bc 9b 68 56 3d 95 80 38 be 7d 64 f7 3d
       -0.029925998 0.052345853 -0.180178 0.120797135
000070 51 c0 12 3b 2e 34 7e 3d 88 05 9a 3c cc 33 54 bd
       0.0022392462 0.06206148 0.018801466 -0.05180721
000080 15 a9 4e 3e 4b c9 65 3d 16 e5 84 3d 8a 18 9e bd
       0.20181687 0.05610017 0.06489007 -0.07719524
000090 8e ac 93 bd 65 6b 23 3e ad d9 a4 3c 78 41 50 3e
       -0.072106466 0.15958937 0.020123327 0.20337474
0000a0 a8 1f a6 bc f5 a6 0b 3a 69 0d fb 3d e6 f0 3a 3e
       -0.020278767 0.0005327308 0.12258417 0.18255958
0000b0 e3 d4 bf bd 23 c6 8d bd aa 93 04 be 1b 10 ea bd
       -0.09366777 -0.06922557 -0.12946954 -0.11428853
0000c0 23 91 3d 3d f3 bd 6b 3d 3c 34 d4 bd 30 62 15 bd
       0.04628099 0.057554197 -0.103615254 -0.036470592
0000d0 08 b3 16 3e 86 e2 f5 3d 99 a3 49 3e 40 d2 b5 bd
       0.14716733 0.120060965 0.19691314 -0.08877993
0000e0 24 e0 15 3e 1e be 2f be 41 3b b3 3c cf a9 85 bd
       0.14636284 -0.17162368 0.02187884 -0.06526529
0000f0 84 2e 19 3e 4a 7f 38 be c4 d0 0e 3e 69 d0 0e be
       0.1495915 -0.18017307 0.13946825 -0.1394669
000100 bc f4 2a 3e b1 63 4e 3e 54 e7 00 bd 5b 40 e5 bd
       0.16694921 0.20155217 -0.03147061 -0.111939155
000110 43 3e d5 3b 9d b7 1f 3e 07 a2 00 3e 35 23 94 bd
       0.0065076663 0.15597387 0.12561809 -0.07233278
000120 b1 9c a2 3d 92 2b 81 bd b0 69 26 be 90 73 55 bc
       0.07940043 -0.063071385 -0.16251254 -0.0130280405
000130 90 07 dd 3c c0 ff 22 3e b4 9c 38 bd ee 34 15 be
       0.026981145 0.15917873 -0.04507132 -0.14570972
000140 77 f4 19 be 0e 6e b4 3a f0 a1 f9 bd d0 48 5e bd
       -0.15034662 0.0013765709 -0.1218909 -0.05426866
000150 40 7e 8b bb 0e 4a 38 be 22 64 64 bd e9 17 ff 3b
       -0.0042569935 -0.17997 -0.055759557 0.0077848327
000160 d6 85 40 3e e8 e2 7b bd 29 67 30 3d 79 04 06 3e
       0.18801054 -0.06149569 0.04306713 0.13087644
000170 65 48 0a 3e 22 f0 a1 bd 4e 73 1f bd 10 3c fa bd
       0.13504179 -0.0790713 -0.038928322 -0.12218487
000180 52 e0 8e 3d 7f 8f f5 bd 5f 85 30 bd 84 5d 17 3e
       0.069763795 -0.1199026 -0.043095943 0.14781767
000190 d2 50 15 be 5c 04 48 3d 5c 55 2b 3d 8d 3a d7 bd
       -0.14581612 0.048832282 0.041829452 -0.105092146
0001a0 3f ea de bd 3d a8 08 be 21 43 b6 3b 46 5f f5 bd
       -0.10884523 -0.13345428 0.0055622016 -0.119810626
0001b0 07 9d 90 bc 65 92 2a be 73 9c 8e bd 4a 5d 07 bd
       -0.017653001 -0.16657408 -0.06963434 -0.03304795
0001c0 93 9d 22 3e b8 53 e7 3d 21 78 48 3e f2 14 61 3d
       0.15880422 0.11295265 0.19577076 0.054951616
0001d0 f2 58 93 3d 3e 98 3e 3e c8 a0 94 bc 8b 62 0f 3e
       0.07194699 0.18612763 -0.018143073 0.14002435
0001e0 dd 56 da bd 46 42 b0 bb 1e c0 12 bc cd 80 94 bd
       -0.10661099 -0.005378994 -0.008956937 -0.07251129
0001f0 73 10 0e 3e 43 7b 48 3e f8 96 d7 bd e9 b9 a3 bd
       0.13873462 0.1957827 -0.10526842 -0.07994444

fc2.weight f4 [64, 128]
000000 fc 81 8f 3d 26 86 bc bd 8b 20 8b 3d c8 bb 8e 3d
       0.070072144 -0.09205274 0.067933165 0.0696941
000010 82 57 1d bc 60 90 4a 3b e3 92 19 bc 93 1c 92 3d
       -0.009603383 0.0030908808 -0.009373399 0.07134356
000020 bd e1 bc 3d 28 f6 10 bd 2b 5f b2 3d a1 6c 23 3d
       0.09222744 -0.035391003 0.08709558 0.03989852
000030 cc 49 8e 3d 10 9d c2 bc 7d 4b 1a 3d 76 c9 8d bd
       0.069476694 -0.023756534 0.037669647 -0.06923191
000040 de 4b 23 3d 92 ab ad bd 3c 23 f8 3b 30 a2 bb 3b
       0.039867274 -0.0847999 0.0075725596 0.0057261214
000050 f9 ac ad bd df e1 79 bd 2d 56 8c 3d 1f 9f 78 3c
       -0.084802575 -0.061006423 0.06852374 0.015174656
000060 c1 96 39 bd 81 8a 0d 3d 27 d8 95 3d 1a af 9f 3d
       -0.045309786 0.034555916 0.073166184 0.0779707
000070 53 85 0a bc bb d2 2e 3d 6f d9 93 3d 01 12 f9 bb
       -0.0084546385 0.042681437 0.072192065 -0.007601023
000080 bd 8a 6a bd ef a2 9b bd b4 b2 f2 bc 6f 53 af 3c
       -0.057261217 -0.075994365 -0.029626228 0.021402089
000090 15 b5 97 3d e8 1f 8b bd 12 d9 79 bd 69 5c 20 bd
       0.074075855 -0.06793195 -0.06099803 -0.03915063
0000a0 01 c3 b4 3d 09 89 6c 3d 80 b3 d0 bc 01 f5 fb 3c
       0.088262565 0.057747874 -0.025476217 0.030756475
0000b0 de f8 fb bb 82 c6 96 bb 1c c2 68 bd c5 92 16 bc
       -0.0076895794 -0.0046013007 -0.056825742 -0.009190266
0000c0 9c ee 6b 3d 45 78 5a 3d f2 97 04 bd 12 b5 22 3d
       0.057600603 0.053337354 -0.03237147 0.039723463
0000d0 b2 76 a0 bd 79 69 a6 3d e3 bf e4 bc b3 7a 45 3c
       -0.07835139 0.08125586 -0.02792353 0.01205318
0000e0 c0 e5 92 bc d0 39 46 3d 3b 64 e6 3b 38 46 a4 bd
       -0.017931819 0.048394978 0.0070309914 -0.08021206
0000f0 e4 cb 9f bd de 84 9b bd 64 eb a1 bd ee 44 9d bb
       -0.07802561 -0.07593702 -0.07906225 -0.004799477
000100 8b 08 0a 3d 81 cd 47 bd f4 ce 6f bd 2a c7 84 bd
       0.033699553 -0.04877997 -0.058546975 -0.064833
000110 b6 7d 21 3d 68 6e 78 bd c6 a2 34 3d 0c cb 84 3c
       0.039426528 -0.060652167 0.044100545 0.016210102
000120 63 33 6d 3d 0a ac 04 3d c4 d4 af 3c d7 a0 98 3d
       0.057910334 0.03239063 0.02146376 0.07452553
000130 ba 34 70 3d 18 2f a2 bd 53 83 0c bd 86 98 94 bd
       0.058644034 -0.07919139 -0.034304928 -0.07255654
000140 20 64 e6 bc 9c 5e 98 3c b8 ea 17 bd 3a a6 32 3d
       -0.028123915 0.0185998 -0.03708908 0.043615557
000150 e0 1b 2a bb 2c 52 40 3d 5f 67 8d bc e6 4f 08 bd
       -0.0025956556 0.046953365 -0.017261205 -0.033279322
000160 5d f0 78 3d 00 0b 1e bb c4 17 8f 3d ec 25 4b 3d
       0.060776103 -0.0024115443 0.06986955 0.049596712
000170 a3 02 b8 3d 4e 0a b4 bd 3c 1e 95 3c fb 81 90 3d
       0.08984878 -0.08791028 0.018202893 0.07056042
000180 01 51 37 3d 43 ca 8b 3d 9f 3c 30 3d a5 fb 64 bd
       0.044754986 0.06825688 0.043026563 -0.05590405
000190 34 16 87 3c e3 43 2a bd b2 30 70 3d b3 f6 42 bd
       0.01649008 -0.041568648 0.05864019 -0.047598552
0001a0 64 f5 20 3d e1 82 71 bd ed f3 d3 3c 84 a7 ac bd
       0.039296523 -0.058962706 0.025873149 -0.084303886
0001b0 1b f2 8c 3d 08 f6 1a bd 20 89 c0 bc 8b 5b c2 bd
       0.068821155 -0.03783229 -0.023502886 -0.09490117
0001c0 9c 47 96 3c 8d d4 9d bd 8d 3f 5f 3d db 27 44 bd
       0.018344693 -0.077065565 0.054503966 -0.04788957
0001d0 a6 25 ae bc b4 03 b3 bc f1 aa 93 3d fc f4 ab bd
       -0.021258187 -0.021852352 0.07210339 -0.083963364
0001e0 b0 58 e8 3b 77 ae 82 3d d6 f5 25 bd f8 be 1b 3c
       0.0070906505 0.06380933 -0.04051765 0.00950598
0001f0 e3 a9 bb 3d 55 92 54 bd 55 9b 99 3d 8a 11 6a 3d
       0.09163263 -0.051897366 0.0750033 0.057145633
000200 28 67 5f 3c 59 f6 33 bd 30 d9 8d bb b0 85 b3 3b
       0.013635434 -0.043936107 -0.0043288693 0.0054785833
000210 be 60 63 bd 8d eb 77 bd 3c 69 59 bd c7 bc 4c bd
       -0.055512182 -0.060527373 -0.053078875 -0.04998472
000220 8c 59 6a bd cc 8f a0 bd 16 36 30 bd 8e 34 1d 3d
       -0.057214305 -0.07839927 -0.04302033 0.0383802
000230 0e 39 6e bd f8 f2 2c 3c c3 8d aa bd d9 8a 9a 3d
       -0.05815988 0.010555975 -0.0832782 0.07546014
000240 79 fd 9b bd be ca a3 bd 03 76 9a 3d 95 d5 a3 3d
       -0.076167054 -0.079976544 0.0754204 0.07999722
000250 d0 91 86 bb 21 85 b2 bd da be 6b 3d 3a f7 2b 3d
       -0.0041067377 -0.087167986 0.057555057 0.04198382
000260 25 5c 90 3d ca ed 4f 3d e0 73 c9 bb 2a d3 9b bd
       0.07048825 0.050763883 -0.0061478466 -0.07608636
000270 30 b2 ce bb 10 7c ea 3c 7b 4a 02 bd f1 7e 71 bd
       -0.0063078627 0.02862361 -0.03180931 -0.05895895
000280 f6 4a e6 bc 1c 88 19 bd de 42 53 3d f8 45 d5 bc
       -0.028111916 -0.03748332 0.05157744 -0.02603434
000290 f6 bb 00 bd a0 0e 3c 3c cc 5e c1 3c 82 c9 90 bd
       -0.031429254 0.011478096 0.023604773 -0.070696846
0002a0 40 a5 6a bc 53 7c 2b bd 20 b7 37 3b 26 f8 0d bd
       -0.014321625 -0.04186661 0.0028032735 -0.03466048
0002b0 e9 f7 86 3d b8 30 55 3c 88 00 04 bc 6a 10 17 3d
       0.06590254 0.013012104 -0.008056767 0.036880888
0002c0 38 31 16 bd bc 0b 41 bd cb 62 29 bd 20 c4 25 bc
       -0.036668032 -0.04713033 -0.041353982 -0.010117561
0002d0 d2 6d 22 3d e1 f1 30 bd 36 69 6c bd 2d 12 52 bd
       0.039655514 -0.043199424 -0.057717524 -0.051286865
0002e0 e4 83 7c bd b2 da 3a 3d 20 04 38 bd 3e c3 6c 3d
       -0.06164922 0.04561872 -0.04492581 0.057803385
0002f0 fe 06 1e 3d 54 bc 82 3c 85 1f 22 bd 52 a7 56 3d
       0.038580887 0.015958942 -0.03958084 0.052405663
000300 3d 46 7e bd f8 94 27 bc 96 51 48 3d 7f b6 25 bd
       -0.062078703 -0.010228388 0.04890593 -0.040457245
000310 70 fe 86 bb 2f 43 a9 bd be ba 62 3d 53 ce 94 3d
       -0.004119687 -0.082647674 0.055353872 0.07265916
000320 12 38 2f 3d 32 b0 dc bc 58 87 23 3c 27 f6 43 bd
       0.042778082 -0.026939485 0.009980999 -0.04784217
000330 38 6f e7 3c c8 0d 23 bd b2 29 5e 3d 9d 5e 21 bd
       0.028251275 -0.039808065 0.054238982 -0.03939687
000340 88 bc 7b 3c f8 e7 99 bc 46 e8 3f 3d c0 04 e0 3b
       0.015364774 -0.01878737 0.046852373 0.0068365037
000350 a4 e3 9b bd 40 b3 09 3b 53 f8 85 bd cf 73 8e 3d
       -0.076117784 0.0021011382 -0.06541505 0.069556825
000360 de c5 23 3d 11 d0 a8 3d 7b 03 00 bd c7 6c aa 3d
       0.039983623 0.082428105 -0.03125332 0.08321529
000370 6a c9 9a bd 5e af 01 3d 60 fe b2 3c 78 b1 79 3c
       -0.07557948 0.031661384 0.021849811 0.015240066
000380 78 02 52 bc 9a d5 15 3d 74 29 b8 3c f0 aa b8 bb
       -0.012817971 0.03658066 0.022480704 -0.0056356117
000390 d5 e6 a6 3d 11 22 93 3d e7 85 af 3d 12 2c 46 3d
       0.081494965 0.07184232 0.08570462 0.048381872
0003a0 3b 65 87 bd 37 44 83 3d 1c b3 a0 bd f8 3c 90 bd
       -0.06611105 0.06409495 -0.078466624 -0.07042879
0003b0 60 7c 39 bc dc ba a6 bc 9a 32 5a 3d 75 4b 5e bd
       -0.011321157 -0.020352773 0.053270914 -0.05427118
0003c0 05 24 93 bd ba 53 72 bd 42 e9 52 3d 9b a8 10 bd
       -0.071846046 -0.05916188 0.051491983 -0.035317045
0003d0 30 47 d1 3c c2 6f 51 3d 00 8a 7e 3a c0 52 85 ba
       0.02554664 0.05113197 0.00097098947 -0.0010171756
0003e0 de ea ac bd 85 ee a2 3d 3a 99 42 3d 7f e1 95 3d
       -0.08443235 0.0795565 0.04750941 0.073184006
0003f0 cc 40 a2 3c cf 3c 85 3d 79 ba 83 3d 81 a9 8e 3d
       0.019806288 0.06505739 0.06432051 0.06965924

fc2.bias f4 [64]
000000 21 13 c5 bc 18 d9 96 bc a1 64 80 3d 80 fd 70 3d
       -0.024056973 -0.018414065 0.062691934 0.058835506
000010 ae f7 a6 bd 32 ab 94 bc 8a 36 1a 3d a2 fd 7c 3d
       -0.0815271 -0.018148039 0.03764967 0.06176532
000020 85 32 63 3d 80 e2 af bd fe a7 0f bd 89 48 95 bd
       0.0554681 -0.08588123 -0.03507232 -0.072892256
000030 c7 4f 29 3d 46 48 ae bd 2f 47 0c 3d 06 6d a0 3d
       0.041335847 -0.08509879 0.034247573 0.078332946
000040 53 96 bc 3d 84 a8 ba bc c6 e7 c8 bd 12 5b 3e 3d
       0.092083596 -0.022785433 -0.09809832 0.04647357
000050 7b 28 05 3d 3b f1 84 bd e5 99 a8 3d 2b a8 00 bd
       0.03250931 -0.064913236 0.08232478 -0.031410377
000060 0a 65 4c 3d 81 03 84 3d 6a 33 79 bd aa ec 7c 3d
       0.049901046 0.06445981 -0.060840048 0.061749138
000070 60 74 93 bb 71 1c 9e bd 20 86 c6 3c 6a 74 93 bd
       -0.004499957 -0.077202685 0.024233878 -0.071999386
000080 79 37 90 3c 60 f3 96 3b 92 1e 73 3d 51 51 63 3d
       0.017604576 0.0046066493 0.059355326 0.05549747
000090 9a af f2 3c bf fa 45 bc e8 ea 62 bd 61 5c a4 3d
       0.029624749 -0.012083708 -0.055399805 0.080254324
0000a0 4a cc 4f 3d 95 03 58 bc f3 5d 93 3d 53 ba f0 bc
       0.050731935 -0.013184448 0.07195654 -0.029385721
0000b0 f7 8b e0 3b 39 8e dc bc 30 b8 05 bb cc cc e8 bc
       0.0068526226 -0.026923286 -0.0020403974 -0.028417967
0000c0 40 79 83 ba eb d2 94 3d 17 bd 92 3c 53 ca 32 bd
       -0.0010030642 0.07266792 0.01791243 -0.043649983
0000d0 f7 50 a3 bd 89 67 04 3c 36 1b 18 bd 1a e4 73 bc
       -0.07974427 0.008081325 -0.037135325 -0.014885927
0000e0 cb 83 b6 bd 0f 90 c7 3d c8 18 0d 3d cd 97 a1 3d
       -0.08911856 0.09744274 0.03444746 0.07890282
0000f0 71 e5 88 3c 1a 14 5b 3d 67 4c ab 3c bc 10 bb bd
       0.016710969 0.053485967 0.020910455 -0.09134051

fc3.weight f4 [32, 64]
000000 b2 75 79 bd ea 0e b9 bd 2b 4f 9c 3d 3f 11 11 3d
       -0.06090326 -0.09036048 0.076322876 0.035416838
000010 92 c0 84 bd 5d 44 cc 3d 62 a9 de bd a1 bf 89 3d
       -0.06482042 0.09973977 -0.10872151 0.067260034
000020 33 2f 6f 3d bc 13 d7 3d d3 25 f7 bd 24 55 46 3d
       0.058394622 0.10501811 -0.12067761 0.04842104
000030 e4 3e f2 bd b4 27 c7 3d 49 08 57 bc 53 f5 0b bc
       -0.11828402 0.0972437 -0.013124534 -0.008542377
000040 ea 6e b7 bd c3 31 67 3d 7d e3 62 bc 20 eb 87 bd
       -0.08956702 0.05644394 -0.013848183 -0.066366434
000050 c6 81 74 3b f2 36 99 bd 42 b0 4d 3d 05 34 48 3c
       0.0037308796 -0.07481183 0.05021692 0.012219434
000060 06 af de bd cc a9 3b bc 73 7c 2e 3d 3e f2 1c 3d
       -0.10873227 -0.011454057 0.042599153 0.038316958
000070 ba a0 b8 bd 23 9a 74 3d 6c e6 a0 3d 66 03 24 3d
       -0.09015031 0.05971731 0.078564495 0.040042304
000080 11 49 04 be 34 98 12 3d 1b 35 bf 3d aa d4 f8 3d
       -0.12918498 0.035789683 0.09336301 0.121499375
000090 27 f3 3e bd a6 9d 09 3c 08 5f 81 bd d6 78 ec bd
       -0.046618607 0.008399403 -0.06316954 -0.11546485
0000a0 39 f3 e6 3d b4 7c a8 bd 2f 92 03 bd 54 07 e9 3c
       0.1127686 -0.0822691 -0.032121833 0.028445877
0000b0 53 45 8d 3d cb b7 ef 3d d1 ab 34 3d c5 45 dc 3c
       0.06897988 0.117049776 0.04410917 0.026888737
0000c0 34 41 b3 3d 67 f3 cd bd 4c 25 15 3d 80 99 b9 3d
       0.08752671 -0.10056191 0.036412522 0.09062481
0000d0 e6 05 40 3d e6 ae b4 bc bb 53 67 bc bf d0 99 bd
       0.046880625 -0.022056054 -0.014119084 -0.07510518
0000e0 db 68 de 3d 45 00 77 bd 56 f0 ce 3d 00 ca cc 39
       0.10859843 -0.06030299 0.10104434 0.00039060414
0000f0 78 c9 49 3d 94 47 e3 bd f3 be bb 3d 7e db 35 bb
       0.0492644 -0.11097637 0.0916728 -0.0027749236
000100 8b 33 bc bc 40 ef a9 3d cd 0d ef 3d e1 e1 bf bb
       -0.022973796 0.082975864 0.11672554 -0.0058557843
000110 0c 0f 48 bd 3e a9 bf bd 7d 3e b4 bc e3 29 cd 3c
       -0.048842475 -0.09358452 -0.022002453 0.025044387
000120 82 2c 78 bd 30 65 8f bc 50 a8 b4 3d 36 1a 9d bd
       -0.06058932 -0.017504305 0.088211656 -0.07671015
000130 bd 68 ef bd a4 7c d0 bc 4a 17 88 bc db 1a 43 bc
       -0.11689899 -0.025450058 -0.016612668 -0.011908258
000140 0c 36 bc 3d e5 ba ad bd 4a 15 76 bd 98 be ab bd
       0.09189996 -0.08482913 -0.060078897 -0.08385962
000150 7f c4 83 3a 9c 1d 94 3d 26 a3 4e 3d 20 f3 bf 3d
       0.0010053067 0.0723221 0.05044856 0.09372544
000160 d0 16 f1 bd ce b4 37 bd 2a 62 82 bd b3 6a 38 bd
       -0.11771929 -0.044850163 -0.063663796 -0.04502363
000170 60 5c f7 bb a9 21 91 ba 08 2c 1a bd 88 bf e0 3d
       -0.0075488538 -0.0011072654 -0.037639648 0.10974032
000180 97 09 df 3d e0 cf 54 3c ae 52 a8 3d b9 0a 1e bc
       0.10890501 0.012989014 0.08218895 -0.009646111
000190 d4 df 11 3d e3 18 16 3d e9 d7 2a 3d b0 b8 99 bd
       0.03561385 0.036644828 0.041709814 -0.075059295
0001a0 7e 3a 05 bd 85 d2 92 3d 8d bf c6 bd 9e f3 54 3d
       -0.032526486 0.0716906 -0.09704504 0.051990144
0001b0 8d 63 be 3d 24 c4 b2 3d e2 77 7d bc ad ce c4 bd
       0.092963316 0.08728817 -0.015470477 -0.09609733
0001c0 78 3f fa bd 1e 53 bb bd 85 2e e4 3c 24 94 6b bd
       -0.12219137 -0.09146713 0.027854213 -0.057514325
0001d0 b7 7d 2e 3d e7 1a d8 3d 33 ac e2 bd ad 7b 5f 3d
       0.04260036 0.10552006 -0.11068001 0.054561306
0001e0 e2 f2 80 3d dd 26 be bd 3d 56 9c 3d 4c 8b f4 3d
       0.06296326 -0.09284756 0.07633636 0.11940631
0001f0 b3 2e 98 3d d4 48 fb 3d 9a 8b 14 3c f6 bf 9b bd
       0.07430782 0.1226975 0.009066487 -0.07604973
000200 a2 e0 a6 bd 14 5d 5c bd 30 f9 28 bd ab b1 21 3b
       -0.08148314 -0.053799704 -0.04125327 0.0024672549
000210 1e 0c b3 3d e2 27 41 bd ba ed 52 3d 11 13 50 3d
       0.087425455 -0.047157176 0.051496245 0.050799433
000220 65 86 92 3b a8 4e 14 bd 89 e5 58 bd e0 8f 04 3c
       0.0044715875 -0.036207825 -0.052953277 0.008090943
000230 10 1c 8a bc 98 d0 90 bd 6b ea bc bc 0a d3 0a be
       -0.016859084 -0.07071036 -0.023060998 -0.13557068
000240 db 61 86 bd f3 2e 0d 3c 6a c3 d0 bd e6 45 f4 bd
       -0.06561633 0.008617151 -0.10193522 -0.119273946
000250 06 73 98 3d 82 e9 21 3c 0f 10 03 be f9 d3 b3 bd
       0.07443814 0.009882333 -0.12799095 -0.08780665
000260 58 4d 68 bd e2 27 eb 3d 4c 71 bc bd 67 a8 c1 bd
       -0.056714386 0.114822164 -0.09201297 -0.09455948
000270 68 7f 9a bc 85 30 c5 bd 3c d5 4f 3d 0f 63 87 3d
       -0.01885958 -0.09628395 0.050740466 0.06610691
000280 03 1b 08 3d 70 ce 81 bc b3 85 9d bd fd 46 c7 3d
       0.033228885 -0.015845507 -0.07691517 0.09730337
000290 de af 8f 3d e4 5f cc bd 6b 1c 26 3d 28 13 34 bd
       0.07015966 -0.09979227 0.040554445 -0.04396358
0002a0 6e 3e da bd 11 be f0 bd da f3 ca 3d 54 5b 84 3c
       -0.10656439 -0.11755002 0.09909792 0.01615683
0002b0 27 12 8b bd 8a 9c 01 be ca 1c 12 3d 40 75 a7 bb
       -0.06790572 -0.12657371 0.035671987 -0.005110413
0002c0 c4 15 54 bd ec af a7 3d 5a 73 c7 3d e0 f5 86 3c
       -0.05177857 0.08187851 0.097387984 0.016474664
0002d0 eb cc e7 3c 80 e5 a1 3d 2a fc 82 3d 35 a0 bc 3d
       0.028295955 0.07905102 0.06395753 0.092102446
0002e0 2e 31 ec bd 05 d2 1a 3d 45 1f 63 3d 9a 5c df bd
       -0.11532818 0.037797946 0.055449743 -0.10906334
0002f0 27 0f ad bd 88 f4 ab bd 61 fa aa 3d 0d 54 18 3c
       -0.08450156 -0.0839625 0.08348537 0.009297383
000300 ea 4a 52 3d a4 27 46 bd fb 47 da bc 01 09 01 be
       0.051340975 -0.048377648 -0.026645651 -0.12601091
000310 62 e7 bb 3d 08 34 ee 3d df 97 83 bd b8 03 35 bd
       0.09174992 0.11631018 -0.064254515 -0.044193
000320 c2 48 d0 bd a0 0b da 3d 7c 49 59 bb d0 2a 14 3c
       -0.101701275 0.106467485 -0.0033155372 0.00904341
000330 e9 b3 3c ba aa 4b ae 3d bc c7 b6 bd 19 40 c6 bd
       -0.00071984396 0.085105255 -0.08924815 -0.096801944
000340 8f 77 15 3d ea 69 f6 3d 91 b9 47 3d 8c 3e ee 3d
       0.036490973 0.1203192 0.048760954 0.116330236
000350 14 e7 80 bc 06 00 04 bd 08 93 05 be ef 56 93 3d
       -0.015735187 -0.032226585 -0.13044369 0.07194316
000360 08 38 ec bc 0f bd a7 bd ee a0 d1 3d 65 e7 f8 3c
       -0.028835312 -0.08190357 0.10235773 0.030383775
000370 0c be 42 3d b9 8b 8d 3d 44 69 33 bd 35 09 94 3c
       0.047544524 0.069114156 -0.04380156 0.018070797
000380 8f d6 9d 3c 50 ca 31 bd 89 6e ae bd 6b 24 b9 3d
       0.019267349 -0.04340583 -0.08517177 0.09040149
000390 bc a2 58 bd 2f f8 b6 3d 7b 10 ef bd f8 97 07 bd
       -0.05288957 0.08934056 -0.11673065 -0.033103913
0003a0 65 35 8c bd 2a 00 dd bc 80 5c 04 be b7 5a 14 3d
       -0.06846122 -0.026977617 -0.12925911 0.036219325
0003b0 e7 c6 81 3d 47 74 b4 3c fa a5 aa 3d 10 cf 6b 3d
       0.06336766 0.022028102 0.08332439 0.057570517
0003c0 c0 dd 62 3d fb a4 cb 3d 02 eb 84 bd 94 48 70 bd
       0.05538726 0.09943577 -0.06490137 -0.058662966
0003d0 31 69 b9 bc 48 d9 82 bc e9 05 41 bd 18 cb be bc
       -0.022633167 -0.015972748 -0.047124777 -0.023290202
0003e0 71 c5 c9 3d 58 b6 c2 3d a2 16 1b bc a4 c3 4f bd
       0.09852112 0.095074356 -0.009465845 -0.050723687
0003f0 46 be 61 3d 3c b4 e6 3d c4 3d da bd a7 23 58 3c
       0.0551131 0.11264846 -0.10656312 0.013192094

fc3.bias f4 [32]
000000 ab 06 b5 bd 2b 39 04 bd 36 10 f5 bd 60 dd 0f bd
       -0.088391624 -0.032281082 -0.119659826 -0.03512323
000010 34 4b 91 3c 22 c5 02 bd 32 bf f6 bd b8 07 0e 3c
       0.017736055 -0.03192628 -0.12048186 0.0086688325
000020 b8 a3 dd bc 93 4f ab 3c 90 d6 90 bc 2f 7d 81 bd
       -0.027055606 0.020911967 -0.017680436 -0.06322705
000030 81 73 c5 bd 34 61 e5 bd e0 f9 8d 3b 78 d8 56 bd
       -0.09641171 -0.11200181 0.004332766 -0.052452534
000040 7d 52 a6 bd 94 aa eb bd ee f2 e5 3c 48 70 ad bd
       -0.08121202 -0.115071446 0.02806994 -0.084686816
000050 9c b8 cb bd 82 bd 80 3d 08 f6 93 3d ab eb 0b 3e
       -0.09947321 0.06286146 0.07224661 0.13664119
000060 91 39 27 3d b2 6a f5 3d c4 84 cd bc 51 af d8 bc
       0.040826384 0.11983241 -0.025087722 -0.026450785
000070 c8 9d 83 3d c2 5c 54 3d b4 c7 c2 3d fc 0a 5e 3d
       0.06426579 0.051846273 0.095107466 0.054209694

fc4.weight f4 [2, 32]
000000 47 e0 1d 3e e0 6a 56 bd cf 7b 23 3c ae 4b 01 3e
       0.15417586 -0.052348018 0.009978249 0.12626526
000010 5a 3c a7 bd 5a 43 0e 3e ba cb 8a 3d ff 5a 15 be
       -0.08165808 0.1389288 0.06777139 -0.14585494
000020 70 21 9a bc 3e 64 9e bc f2 6f 96 3d f5 26 9d bb
       -0.018814772 -0.019334909 0.073455706 -0.004795904
000030 a2 f8 bf bd 91 df 26 be 91 c8 09 3e 50 83 22 3d
       -0.09373595 -0.16296221 0.13455416 0.03967601
000040 ee df fc bc e4 c1 94 3d 11 4f da bd c5 28 b5 bd
       -0.030868497 0.07263544 -0.10659612 -0.08845667
000050 e3 41 07 be ef 3f 0e be 31 be 1d 3e 92 60 20 bd
       -0.13208728 -0.13891576 0.15404584 -0.039154597
000060 b5 b8 42 bd b1 d1 53 bd 44 7b 1d 3e 18 77 b5 3d
       -0.04753943 -0.05171365 0.15379053 0.08860606
000070 dd 33 0c 3e a9 e2 03 3e 70 f0 72 3c 45 ce ab 3c
       0.1369166 0.12879433 0.014827833 0.02097238
000080 0a 03 03 3e 73 3c 29 3e f4 e2 0d 3e 2f 8d 21 3e
       0.12794128 0.16526966 0.13856107 0.15776514
000090 f3 e8 c0 bd d5 33 29 3e 91 ed 22 3e ca 35 28 bc
       -0.094194315 0.16523679 0.15910937 -0.010266731
0000a0 5b 6a 1b be 47 5f 4c be 51 b4 19 3e 14 9d 18 be
       -0.1517729 -0.1995822 0.15010192 -0.1490367
0000b0 44 63 04 3e 32 3f 94 bd 72 d0 dd 3d a8 cf af bd
       0.12928492 -0.07238616 0.108307734 -0.08584529
0000c0 e5 ae 01 3e 29 76 06 3e a9 6f 4b 3c 70 f1 90 bd
       0.12664373 0.13131012 0.012416759 -0.070773005
0000d0 72 73 27 be 26 20 27 be e4 ec 8d bc 40 ae 1a 3e
       -0.16352633 -0.16320857 -0.017324872 0.15105534
0000e0 b0 1d eb bd ea ed 2b be 4f 7a bf bd ef d3 26 be
       -0.11480272 -0.16789976 -0.093495004 -0.16291784
0000f0 86 b2 02 be 85 3d f1 3c f5 e6 37 be 7f 91 12 be
       -0.12763414 0.02944828 -0.17959197 -0.14313315

fc4.bias f4 [2]
000000 cd 74 ed 3d 2e 71 36 be
       0.115945436 -0.17816612

exp_avg f4 [128, 28]
000000 00 00 00 00 c4 4f ae bc 00 00 00 00 00 00 00 00
       0.0 -0.02127827 0.0 0.0
000010 bd 12 2c bf 00 00 00 00 00 00 00 00 83 79 64 bd
       -0.6721609 0.0 0.0 -0.055779945
000020 00 00 00 00 00 00 00 00 76 89 4d be 00 00 00 00
       0.0 0.0 -0.20071968 0.0
000030 00 00 00 00 fd 6b 6d bc 00 00 00 00 00 00 00 00
       0.0 -0.014491078 0.0 0.0
000040 03 c1 46 be 00 00 00 00 00 00 00 00 57 5b e7 bc
       -0.19409566 0.0 0.0 -0.028241796
000050 00 00 00 00 00 00 00 00 94 49 77 be 00 00 00 00
       0.0 0.0 -0.24149162 0.0
000060 ed 90 3f bc 10 99 20 bc 10 99 20 bc ed 90 3f bc
       -0.011692268 -0.009802118 -0.009802118 -0.011692268
000070 00 00 00 00 d2 16 90 bd 00 00 00 00 00 00 00 00
       0.0 -0.07035603 0.0 0.0
000080 b1 7c ff bf 00 00 00 00 00 00 00 00 c2 70 30 be
       -1.9959928 0.0 0.0 -0.17230514
000090 00 00 00 00 00 00 00 00 db 0b 0e bf 00 00 00 00
       0.0 0.0 -0.5548684 0.0
0000a0 00 00 00 00 28 e6 22 bd 00 00 00 00 00 00 00 00
       0.0 -0.039770275 0.0 0.0
0000b0 1a 84 1c bf 00 00 00 00 00 00 00 00 66 8d 99 bd
       -0.6113907 0.0 0.0 -0.07497673
0000c0 00 00 00 00 00 00 00 00 82 c3 3f bf 00 00 00 00
       0.0 0.0 -0.74907696 0.0
0000d0 8b dc 08 bd e5 ca 08 bd e5 ca 08 bd 8b dc 08 bd
       -0.03341345 -0.03339662 -0.03339662 -0.03341345
0000e0 00 00 00 00 2e e6 20 bd 00 00 00 00 00 00 00 00
       0.0 -0.039282016 0.0 0.0
0000f0 5d f8 86 bf 00 00 00 00 00 00 00 00 68 1c be bd
       -1.0544544 0.0 0.0 -0.09282762
000100 00 00 00 00 00 00 00 00 cc 79 96 be 00 00 00 00
       0.0 0.0 -0.293898 0.0
000110 00 00 00 00 f8 b5 a4 bc 00 00 00 00 00 00 00 00
       0.0 -0.0201063 0.0 0.0
000120 da fe a7 be 00 00 00 00 00 00 00 00 03 da 21 bd
       -0.32811624 0.0 0.0 -0.039514553
000130 00 00 00 00 00 00 00 00 81 13 cc be 00 00 00 00
       0.0 0.0 -0.3985863 0.0
000140 6f bb 94 bc fa 1d 89 bc fa 1d 89 bc 6f bb 94 bc
       -0.018155782 -0.016737927 -0.016737927 -0.018155782
000150 00 00 00 00 19 7d db bc 00 00 00 00 00 00 00 00
       0.0 -0.02679305 0.0 0.0
000160 a5 0a 39 bf 00 00 00 00 00 00 00 00 d5 6e 88 bd
       -0.7228187 0.0 0.0 -0.066617645
000170 00 00 00 00 00 00 00 00 6c ba 4d be 00 00 00 00
       0.0 0.0 -0.20090646 0.0
000180 00 00 00 00 19 80 1b bc 00 00 00 00 00 00 00 00
       0.0 -0.00949099 0.0 0.0
000190 a4 1e 6c be 00 00 00 00 00 00 00 00 4d 43 b6 bc
       -0.23058563 0.0 0.0 -0.022248888
0001a0 00 00 00 00 00 00 00 00 ef a2 8f be 00 00 00 00
       0.0 0.0 -0.28053996 0.0
0001b0 f6 e5 37 bc f4 54 57 bc f4 54 57 bc f6 e5 37 bc
       -0.011224261 -0.013142813 -0.013142813 -0.011224261
0001c0 00 00 00 00 db de 7d bd 00 00 00 00 00 00 00 00
       0.0 -0.06198011 0.0 0.0
0001d0 27 70 d8 bf 00 00 00 00 00 00 00 00 99 5a 18 be
       -1.6909226 0.0 0.0 -0.1487831
0001e0 00 00 00 00 00 00 00 00 27 b4 f1 be 00 00 00 00
       0.0 0.0 -0.47207758 0.0
0001f0 00 00 00 00 14 92 04 bd 00 00 00 00 00 00 00 00
       0.0 -0.032365873 0.0 0.0
000200 d6 8b 06 bf 00 00 00 00 00 00 00 00 6a fb 81 bd
       -0.5255712 0.0 0.0 -0.063467816
000210 00 00 00 00 00 00 00 00 f9 b5 23 bf 00 00 00 00
       0.0 0.0 -0.63949543 0.0
000220 3c 95 f0 bc 6e f2 d9 bc 6e f2 d9 bc 3c 95 f0 bc
       -0.029368035 -0.026604857 -0.026604857 -0.029368035
000230 00 00 00 00 00 00 00 00 00 00 00 00 00 00 00 00
       0.0 0.0 0.0 0.0
000240 00 00 00 00 00 00 00 00 00 00 00 00 00 00 00 00
       0.0 0.0 0.0 0.0
000250 00 00 00 00 00 00 00 00 00 00 00 00 00 00 00 00
       0.0 0.0 0.0 0.0
000260 00 00 00 00 00 00 00 00 00 00 00 00 00 00 00 00
       0.0 0.0 0.0 0.0
000270 00 00 00 00 00 00 00 00 00 00 00 00 00 00 00 00
       0.0 0.0 0.0 0.0
000280 00 00 00 00 00 00 00 00 00 00 00 00 00 00 00 00
       0.0 0.0 0.0 0.0
000290 00 00 00 00 00 00 00 00 00 00 00 00 00 00 00 00
       0.0 0.0 0.0 0.0
0002a0 00 00 00 00 0c fd 1e bd 00 00 00 00 00 00 00 00
       0.0 -0.038815543 0.0 0.0
0002b0 df 89 a9 bf 00 00 00 00 00 00 00 00 78 df e4 bd
       -1.32452 0.0 0.0 -0.11175436
0002c0 00 00 00 00 00 00 00 00 e9 48 c4 be 00 00 00 00
       0.0 0.0 -0.38336876 0.0
0002d0 00 00 00 00 36 b2 e0 bc 00 00 00 00 00 00 00 00
       0.0 -0.027428728 0.0 0.0
0002e0 a9 90 cc be 00 00 00 00 00 00 00 00 6a 5d 4f bd
       -0.39954117 0.0 0.0 -0.050626196
0002f0 00 00 00 00 00 00 00 00 68 16 fd be 00 00 00 00
       0.0 0.0 -0.49431157 0.0
000300 d2 e0 bc bc a6 db aa bc a6 db aa bc d2 e0 bc bc
       -0.023056421 -0.02085669 -0.02085669 -0.023056421
000310 00 00 00 00 ec 73 84 bd 00 00 00 00 00 00 00 00
       0.0 -0.06467423 0.0 0.0
000320 d9 95 e4 bf 00 00 00 00 00 00 00 00 91 c7 20 be
       -1.785823 0.0 0.0 -0.15701129
000330 00 00 00 00 00 00 00 00 93 e6 ff be 00 00 00 00
       0.0 0.0 -0.49980602 0.0
000340 00 00 00 00 60 1f 0c bd 00 00 00 00 00 00 00 00
       0.0 -0.03420961 0.0 0.0
000350 3c 68 0e bf 00 00 00 00 00 00 00 00 2d bf 89 bd
       -0.556278 0.0 0.0 -0.06725917
000360 00 00 00 00 00 00 00 00 b4 b8 2c bf 00 00 00 00
       0.0 0.0 -0.67469335 0.0
000370 64 5e 00 bd cb e5 e2 bc cb e5 e2 bc 64 5e 00 bd
       -0.031340018 -0.027697464 -0.027697464 -0.031340018
000380 00 00 00 00 00 00 00 00 00 00 00 00 00 00 00 00
       0.0 0.0 0.0 0.0
000390 32 34 e1 35 00 00 00 00 00 00 00 00 00 00 00 00
       1.6778997e-06 0.0 0.0 0.0
0003a0 00 00 00 00 00 00 00 00 00 00 00 00 00 00 00 00
       0.0 0.0 0.0 0.0
0003b0 00 00 00 00 00 00 00 00 00 00 00 00 00 00 00 00
       0.0 0.0 0.0 0.0
0003c0 32 34 e1 35 00 00 00 00 00 00 00 00 00 00 00 00
       1.6778997e-06 0.0 0.0 0.0
0003d0 00 00 00 00 00 00 00 00 32 34 e1 35 00 00 00 00
       0.0 0.0 1.6778997e-06 0.0
0003e0 00 00 00 00 32 34 e1 35 32 34 e1 35 00 00 00 00
       0.0 1.6778997e-06 1.6778997e-06 0.0
0003f0 00 00 00 00 00 00 00 00 00 00 00 00 00 00 00 00
       0.0 0.0 0.0 0.0

exp_avg_sq f4 [128, 28]
000000 00 00 00 00 40 78 81 37 00 00 00 00 00 00 00 00
       0.0 1.5433994e-05 0.0 0.0
000010 17 fb 65 3c 00 00 00 00 00 00 00 00 f6 0d c6 38
       0.014036915 0.0 0.0 9.443976e-05
000020 00 00 00 00 00 00 00 00 7a 2f a0 3a 00 00 00 00
       0.0 0.0 0.001222118 0.0
000030 00 00 00 00 8f cb da 36 00 00 00 00 00 00 00 00
       0.0 6.5206036e-06 0.0 0.0
000040 6c fe 9a 3a 00 00 00 00 00 00 00 00 c7 06 c6 37
       0.0011825091 0.0 0.0 2.3606595e-05
000050 00 00 00 00 00 00 00 00 21 c9 eb 3a 00 00 00 00
       0.0 0.0 0.0017989018 0.0
000060 25 1a 83 36 a9 4f 5a 36 a9 4f 5a 36 25 1a 83 36
       3.907148e-06 3.25309e-06 3.25309e-06 3.907148e-06
000070 00 00 00 00 7b cf 0c 39 00 00 00 00 00 00 00 00
       0.0 0.00013428733 0.0 0.0
000080 fe c2 db 3d 00 00 00 00 00 00 00 00 ca d0 49 3a
       0.10730551 0.0 0.0 0.00076986535
000090 00 00 00 00 00 00 00 00 e2 ee 08 3c 00 00 00 00
       0.0 0.0 0.008357735 0.0
0000a0 00 00 00 00 7a 5b 41 38 00 00 00 00 00 00 00 00
       0.0 4.609998e-05 0.0 0.0
0000b0 cd 75 21 3c 00 00 00 00 00 00 00 00 8e 79 25 39
       0.009854746 0.0 0.0 0.00015780909
0000c0 00 00 00 00 00 00 00 00 c0 1d 72 3c 00 00 00 00
       0.0 0.0 0.014777601 0.0
0000d0 d8 81 f5 37 4a 61 fa 37 4a 61 fa 37 d8 81 f5 37
       2.926674e-05 2.9847626e-05 2.9847626e-05 2.926674e-05
0000e0 00 00 00 00 54 29 66 38 00 00 00 00 00 00 00 00
       0.0 5.4874763e-05 0.0 0.0
0000f0 62 bd 15 3d 00 00 00 00 00 00 00 00 6c 47 8b 39
       0.036557563 0.0 0.0 0.0002656536
000100 00 00 00 00 00 00 00 00 56 cc 37 3b 00 00 00 00
       0.0 0.0 0.0028045378 0.0
000110 00 00 00 00 fb 5d 4d 37 00 00 00 00 00 00 00 00
       0.0 1.2240834e-05 0.0 0.0
000120 e9 2c 63 3b 00 00 00 00 00 00 00 00 7c 16 5d 38
       0.003466422 0.0 0.0 5.2711446e-05
000130 00 00 00 00 00 00 00 00 15 cd a2 3b 00 00 00 00
       0.0 0.0 0.0049682953 0.0
000140 de 0f 1a 37 0d 6a 21 37 0d 6a 21 37 de 0f 1a 37
       9.18281e-06 9.62104e-06 9.62104e-06 9.18281e-06
000150 00 00 00 00 dc fa 0a 38 00 00 00 00 00 00 00 00
       0.0 3.3135395e-05 0.0 0.0
000160 f4 cd ab 3c 00 00 00 00 00 00 00 00 1d 41 39 39
       0.02097223 0.0 0.0 0.00017667231
000170 00 00 00 00 00 00 00 00 62 2a d1 3a 00 00 00 00
       0.0 0.0 0.0015958066 0.0
000180 00 00 00 00 37 94 3b 36 00 00 00 00 00 00 00 00
       0.0 2.7951444e-06 0.0 0.0
000190 57 7a 09 3b 00 00 00 00 00 00 00 00 7a 8f ab 37
       0.0020977461 0.0 0.0 2.04516e-05
0001a0 00 00 00 00 00 00 00 00 dd 16 46 3b 00 00 00 00
       0.0 0.0 0.003022603 0.0
0001b0 ab 42 ae 36 81 c1 c9 36 81 c1 c9 36 ab 42 ae 36
       5.1933653e-06 6.0127936e-06 6.0127936e-06 5.1933653e-06
0001c0 00 00 00 00 4d 6b df 38 00 00 00 00 00 00 00 00
       0.0 0.00010653455 0.0 0.0
0001d0 4e 69 9a 3d 00 00 00 00 00 00 00 00 5b 8f 15 3a
       0.075396165 0.0 0.0 0.00057052606
0001e0 00 00 00 00 00 00 00 00 94 7e c0 3b 00 00 00 00
       0.0 0.0 0.0058744643 0.0
0001f0 00 00 00 00 98 00 e2 37 00 00 00 00 00 00 00 00
       0.0 2.6941576e-05 0.0 0.0
000200 04 95 ec 3b 00 00 00 00 00 00 00 00 96 65 e0 38
       0.0072199125 0.0 0.0 0.00010700074
000210 00 00 00 00 00 00 00 00 7a 12 2d 3c 00 00 00 00
       0.0 0.0 0.010563487 0.0
000220 2a c4 b4 37 7b 0a 9c 37 7b 0a 9c 37 2a c4 b4 37
       2.1549018e-05 1.860153e-05 1.860153e-05 2.1549018e-05
000230 00 00 00 00 00 00 00 00 00 00 00 00 00 00 00 00
       0.0 0.0 0.0 0.0
000240 00 00 00 00 00 00 00 00 00 00 00 00 00 00 00 00
       0.0 0.0 0.0 0.0
000250 00 00 00 00 00 00 00 00 00 00 00 00 00 00 00 00
       0.0 0.0 0.0 0.0
000260 00 00 00 00 00 00 00 00 00 00 00 00 00 00 00 00
       0.0 0.0 0.0 0.0
000270 00 00 00 00 00 00 00 00 00 00 00 00 00 00 00 00
       0.0 0.0 0.0 0.0
000280 00 00 00 00 00 00 00 00 00 00 00 00 00 00 00 00
       0.0 0.0 0.0 0.0
000290 00 00 00 00 00 00 00 00 00 00 00 00 00 00 00 00
       0.0 0.0 0.0 0.0
0002a0 00 00 00 00 5a 7c f7 37 00 00 00 00 00 00 00 00
       0.0 2.95026e-05 0.0 0.0
0002b0 b7 94 12 3d 00 00 00 00 00 00 00 00 c1 c0 83 39
       0.035786357 0.0 0.0 0.0002512988
0002c0 00 00 00 00 00 00 00 00 20 76 48 3b 00 00 00 00
       0.0 0.0 0.0030587986 0.0
0002d0 00 00 00 00 cf 16 88 37 00 00 00 00 00 00 00 00
       0.0 1.6223084e-05 0.0 0.0
0002e0 3f 1c 53 3b 00 00 00 00 00 00 00 00 f9 2c 5f 38
       0.003221288 0.0 0.0 5.3209227e-05
0002f0 00 00 00 00 00 00 00 00 a7 02 a2 3b 00 00 00 00
       0.0 0.0 0.004944164 0.0
000300 ee 03 38 37 4b 97 11 37 4b 97 11 37 ee 03 38 37
       1.096817e-05 8.677899e-06 8.677899e-06 1.096817e-05
000310 00 00 00 00 ca d1 16 39 00 00 00 00 00 00 00 00
       0.0 0.00014383267 0.0 0.0
000320 6a 7c dd 3d 00 00 00 00 00 00 00 00 81 11 50 3a
       0.10814746 0.0 0.0 0.00079371786
000330 00 00 00 00 00 00 00 00 3e e7 0a 3c 00 00 00 00
       0.0 0.0 0.008477984 0.0
000340 00 00 00 00 b7 b0 22 38 00 00 00 00 00 00 00 00
       0.0 3.878839e-05 0.0 0.0
000350 90 1c 28 3c 00 00 00 00 00 00 00 00 da 58 25 39
       0.010260716 0.0 0.0 0.00015768726
000360 00 00 00 00 00 00 00 00 08 97 72 3c 00 00 00 00
       0.0 0.0 0.0148065165 0.0
000370 07 06 f9 37 d2 e4 e1 37 d2 e4 e1 37 07 06 f9 37
       2.968592e-05 2.6928643e-05 2.6928643e-05 2.968592e-05
000380 00 00 00 00 00 00 00 00 00 00 00 00 00 00 00 00
       0.0 0.0 0.0 0.0
000390 62 68 a0 2d 00 00 00 00 00 00 00 00 00 00 00 00
       1.823625e-11 0.0 0.0 0.0
0003a0 00 00 00 00 00 00 00 00 00 00 00 00 00 00 00 00
       0.0 0.0 0.0 0.0
0003b0 00 00 00 00 00 00 00 00 00 00 00 00 00 00 00 00
       0.0 0.0 0.0 0.0
0003c0 62 68 a0 2d 00 00 00 00 00 00 00 00 00 00 00 00
       1.823625e-11 0.0 0.0 0.0
0003d0 00 00 00 00 00 00 00 00 62 68 a0 2d 00 00 00 00
       0.0 0.0 1.823625e-11 0.0
0003e0 00 00 00 00 62 68 a0 2d 62 68 a0 2d 00 00 00 00
       0.0 1.823625e-11 1.823625e-11 0.0
0003f0 00 00 00 00 00 00 00 00 00 00 00 00 00 00 00 00
       0.0 0.0 0.0 0.0

exp_avg f4 [128]
000000 fe 14 b0 bc b7 d3 88 bd b5 ec 0e bd 74 9d c7 bc
       -0.021494385 -0.066810064 -0.03489371 -0.024367072
000010 d4 43 65 bd 00 00 00 00 3c de 33 bd 47 d1 71 bd
       -0.05597289 0.0 -0.04391311 -0.059037473
000020 32 34 e1 35 00 00 00 00 10 34 b4 b8 e7 05 88 bc
       1.6778997e-06 0.0 -8.592766e-05 -0.016604377
000030 11 f6 0e bd 00 00 00 00 f1 6f 68 bc 8d 06 37 bd
       -0.034902636 0.0 -0.014186845 -0.04468398
000040 59 2d 69 bd 64 f8 94 bd f8 2b 47 b9 7e a1 78 bc
       -0.056928013 -0.07273939 -0.00018994499 -0.0151752215
000050 71 2b 5d bd f4 7f 8b 3a 11 91 78 bd 65 09 bf bd
       -0.053996507 0.0010642991 -0.06068522 -0.09327964
000060 9d 9c 64 bd dc ef 9b 35 00 00 00 00 9b 88 53 b9
       -0.05581342 1.1618208e-06 0.0 -0.00020173418
000070 64 aa 0a bd c3 71 b8 bc 00 00 00 00 5d 00 07 bd
       -0.033853903 -0.022515183 0.0 -0.03295933
000080 e3 21 2b bd 5e 86 86 bd d7 6f a8 bd 6f 27 05 bd
       -0.041780364 -0.06568597 -0.08224457 -0.03250831
000090 a1 13 64 bd 50 3e 91 bc 7e 3c 86 bd 50 ec 9a bd
       -0.055682782 -0.017729908 -0.06554507 -0.07564604
0000a0 00 00 00 00 d6 b0 4b bd 5c bb 9b bd 31 2e bb bd
       0.0 -0.04972919 -0.07604095 -0.0913967
0000b0 fd a8 1d bd 43 62 89 bc 84 81 8f bd d4 5f 80 bd
       -0.038491238 -0.016770488 -0.07007125 -0.06268278
0000c0 3e 59 1f b9 32 86 03 bd d2 42 41 bd 00 00 00 00
       -0.00015196667 -0.0321104 -0.047182865 0.0
0000d0 45 74 3b bd 00 00 00 00 d8 a4 88 bd 71 57 66 bd
       -0.04576518 0.0 -0.066720665 -0.056235734
0000e0 19 1f e8 ba 20 44 7b 33 7c 92 00 bd 00 00 00 00
       -0.0017709463 5.850245e-08 -0.0313897 0.0
0000f0 cc 17 9b bd 17 ce 0f bc 26 55 14 bd 2e f0 c2 bd
       -0.07572898 -0.008777163 -0.036214016 -0.09518467
000100 15 93 10 bd f5 cb ff bc a2 04 bf bd 9a 51 ac bd
       -0.03529652 -0.031225184 -0.093270555 -0.08414002
000110 54 4a 81 bd 03 00 f5 b9 a3 18 0a bd 00 00 00 00
       -0.06313005 -0.0004673005 -0.0337149 0.0
000120 78 f9 1d bd 00 00 00 00 00 00 00 00 00 00 00 00
       -0.03856799 0.0 0.0 0.0
000130 00 00 00 00 d7 c8 4b bc 83 fe b1 b9 00 00 00 00
       0.0 -0.012438021 -0.00033949697 0.0
000140 73 e6 f3 bc d3 c1 4a bc 00 00 00 00 00 00 00 00
       -0.029772973 -0.012375313 0.0 0.0
000150 00 00 00 00 dc 5d 1b bd ab c1 a1 bd b8 38 2d bd
       0.0 -0.03793131 -0.07898267 -0.04229042
000160 71 ed 90 bd 00 00 00 00 62 f4 0e 39 a5 99 b2 bd
       -0.07076538 0.0 0.00013633215 -0.087207116
000170 77 b1 37 b8 ee ac 9c bd 79 a7 b4 bd c0 d0 a3 bd
       -4.3795877e-05 -0.07650171 -0.088210054 -0.079988
000180 a9 81 46 bd 4b b0 1e bc e9 d2 20 bd 83 18 09 bd
       -0.048463497 -0.009685586 -0.03926364 -0.03347064
000190 64 bf e1 b8 11 e0 16 bd 00 00 00 00 00 00 00 00
       -0.00010764485 -0.03683478 0.0 0.0
0001a0 2f 96 84 bd 77 5e 3c b9 ba a2 1d bd 53 4a 52 bd
       -0.06473958 -0.00017964268 -0.038485266 -0.051340412
0001b0 87 88 c4 bc 7e 22 d9 3a 00 00 00 00 72 01 05 bd
       -0.023990883 0.0016566066 0.0 -0.03247208
0001c0 00 00 00 00 a5 fc 2b 34 a8 b0 97 bd f6 43 2e bd
       0.0 1.6017528e-07 -0.074067414 -0.04254528
0001d0 a4 f0 b3 bb 79 08 9d bc 00 00 00 00 f8 d1 23 bd
       -0.005491333 -0.01916908 0.0 -0.039995164
0001e0 00 00 00 00 9f 46 41 bc f8 75 40 bd 00 00 00 00
       0.0 -0.011796623 -0.046987504 0.0
0001f0 44 39 07 ba 44 16 bf bc f8 51 67 39 00 00 00 00
       -0.00051583746 -0.023326047 0.00022060412 0.0

exp_avg_sq f4 [128]
000000 bf ca 6c 37 f0 23 f7 38 c5 a0 1b 38 4a bf ba 37
       1.4113902e-05 0.00011784572 3.7104608e-05 2.2262004e-05
000010 30 78 a7 38 00 00 00 00 a6 54 23 38 0c 00 ec 38
       7.985567e-05 0.0 3.8941063e-05 0.00011253366
000020 62 68 a0 2d 00 00 00 00 b1 fb d0 2f 34 4f b2 36
       1.823625e-11 0.0 3.8013817e-10 5.314034e-06
000030 7f 5f 0c 38 00 00 00 00 c6 ac 83 36 a6 a7 58 38
       3.346754e-05 0.0 3.9242177e-06 5.1654548e-05
000040 0b ea b9 38 d4 4f 1e 39 f3 24 7c 30 dd 56 b8 36
       8.865081e-05 0.00015097792 9.1729574e-10 5.4937395e-06
000050 96 a8 70 38 e4 9c 4b 37 49 57 d0 38 b7 b5 87 39
       5.7377467e-05 1.2136272e-05 9.934471e-05 0.00025884595
000060 e9 63 f9 38 62 2d f6 2c 00 00 00 00 f3 09 7d 30
       0.00011891855 6.996779e-12 0.0 9.2055e-10
000070 a5 37 d7 37 c3 8d 42 37 00 00 00 00 1a ca af 37
       2.5655909e-05 1.1596308e-05 0.0 2.0955737e-05
000080 64 b7 32 38 c1 3f 3e 39 a2 de 51 39 44 af c4 37
       4.2609303e-05 0.00018143562 0.0002001473 2.3446635e-05
000090 89 7f ae 38 c6 9b d0 36 38 f8 00 39 ec 87 2f 39
       8.320722e-05 6.2170175e-06 0.000122995 0.00016739935
0000a0 00 00 00 00 7d 2a 8b 38 2a ca 1e 39 bc 75 93 39
       0.0 6.6359506e-05 0.00015143366 0.00028125744
0000b0 81 24 09 38 99 ba 58 37 c0 2c e5 38 a8 91 e9 38
       3.2697342e-05 1.2918049e-05 0.00010927906 0.000111374364
0000c0 02 61 64 30 85 3c 31 38 3f 9c 7c 38 00 00 00 00
       8.3083773e-10 4.225645e-05 6.0226997e-05 0.0
0000d0 7d 9d 4b 38 00 00 00 00 f9 d2 f3 38 35 c6 d0 38
       4.8545644e-05 0.0 0.0001162644 9.955132e-05
0000e0 46 fc 1e 36 3a 23 55 2c ea fc 9d 37 00 00 00 00
       2.3690677e-06 3.0288675e-12 1.883363e-05 0.0
0000f0 47 6b 46 39 ff 85 3c 36 5e dd 01 38 34 aa 8f 39
       0.00018922715 2.809218e-06 3.096216e-05 0.00027401897
000100 1f 8d 1b 38 09 84 ca 37 d6 a1 aa 39 fc 9c 86 39
       3.708631e-05 2.414176e-05 0.00032545504 0.00025675434
000110 6f 62 ef 38 a7 bf b4 31 61 f8 d5 37 00 00 00 00
       0.00011414743 5.260478e-09 2.550724e-05 0.0
000120 b2 a3 23 38 00 00 00 00 00 00 00 00 00 00 00 00
       3.901468e-05 0.0 0.0 0.0
000130 00 00 00 00 82 44 8e 36 2c f9 33 32 00 00 00 00
       0.0 4.239905e-06 1.0475826e-08 0.0
000140 ee 55 a2 37 d2 10 5e 36 00 00 00 00 00 00 00 00
       1.9351919e-05 3.3090369e-06 0.0 0.0
000150 00 00 00 00 76 ab 38 38 b4 66 45 39 cd fc 39 38
       0.0 4.4028704e-05 0.00018825644 4.4342876e-05
000160 3f d9 19 39 00 00 00 00 fd 75 7b 31 d0 20 73 39
       0.00014672148 0.0 3.6592376e-09 0.0002318651
000170 35 be 76 2f d8 e0 4b 39 74 99 7b 39 ef 09 5b 39
       2.2441145e-10 0.0001944335 0.00023994391 0.00020889168
000180 c5 8e 44 38 75 b6 91 36 16 3f 1d 38 4c f9 b9 37
       4.6863006e-05 4.3425775e-06 3.749047e-05 2.2169806e-05
000190 48 1d 21 36 95 f0 2b 38 00 00 00 00 00 00 00 00
       2.4007913e-06 4.0993637e-05 0.0 0.0
0001a0 27 51 c3 38 14 f5 fa 30 4e 96 17 38 a8 12 a6 38
       9.3134404e-05 1.8259549e-09 3.6141188e-05 7.918972e-05
0001b0 a6 92 38 37 92 fe 05 36 00 00 00 00 f4 27 ee 37
       1.1001399e-05 1.9966724e-06 0.0 2.8390416e-05
0001c0 00 00 00 00 f7 53 32 2e f5 10 01 39 60 00 40 38
       0.0 4.054709e-11 0.00012308716 4.5776716e-05
0001d0 ca b9 ef 36 74 7b f3 36 00 00 00 00 10 30 28 38
       7.1443837e-06 7.256336e-06 0.0 4.0099083e-05
0001e0 00 00 00 00 d1 25 54 37 c6 e8 7d 38 00 00 00 00
       0.0 1.26449895e-05 6.0536688e-05 0.0
0001f0 12 eb 0e 32 35 e4 4d 37 7a 02 03 36 00 00 00 00
       8.318937e-09 1.2272086e-05 1.9521963e-06 0.0
