traffic_light_control/records/model_9.pth (torch_old, 172648 bytes, 24 tensors)

fc1.weight f4 [128, 28]
-0.11724202 -0.1542931 0.10663383 0.038474306 0.036370855 0.17018466 -0.03159356 0.019641714
-0.13403742 -0.018038705 0.13922347 -0.1497164 0.025894478 0.048990887 0.08145569 -0.038220108
0.1786253 0.0023445636 0.010279998 0.18049523 0.13853072 -0.100655735 -0.074779 -0.10853133
0.11893276 0.16324972 0.03017318 0.04430233 -0.061222315 -0.009797445 -0.12403667 -0.18816224
-0.034006402 -0.12485418 0.15985982 0.1924754 0.094157115 0.16503902 -0.030787736 -0.11301418
0.081370905 -0.031768847 0.03609304 0.18376867 0.1387465 0.16199814 0.16490377 0.1257182
0.026049614 -0.065754384 -0.012324637 0.016825661 -0.007838082 0.10203474 -0.15251182 0.09612674
-0.08643743 0.123161785 0.019487351 -0.18609978 0.03417915 -0.06993451 -0.097872294 0.04027362
-0.18603864 0.07100369 -0.03424924 0.07315405 -0.002397731 -0.07261527 0.1645524 -0.07214735
0.1615559 0.13335963 0.06784956 0.07076245 -0.014470279 0.059889242 0.05490171 0.14791645
-0.14886203 0.009121985 -0.13923323 -0.07198247 -0.008257806 0.0010038491 0.1338502 0.09312017
-0.16801496 0.035992175 -0.05327201 0.05883267 -0.045003846 -0.05860485 0.085335985 0.07615666
-0.11253989 -0.074190944 -0.15717554 0.14255507 0.15896297 -0.00048093498 -0.18368363 0.09820407
-0.1171242 0.11391772 -0.00803382 -0.1607813 -0.010373594 0.1285132 -0.10685689 0.14035344
0.16340898 0.006922154 -0.08545514 0.13627185 0.024229527 -0.03475505 0.044131428 0.13347958
-0.16145205 -0.17125417 0.017341843 -0.11251612 -0.1840819 -0.10858392 0.04904461 0.117036715
-0.0804922 -0.10571307 -0.074183196 -0.14035195 -0.15202437 0.16538711 -0.1547353 -0.0066351444
-0.03540261 0.15181282 -0.122153774 -0.049031004 -0.12491969 -0.059567854 0.10471152 -0.03451535
-0.055246245 0.017831638 -0.1813104 -0.14807577 -0.039035603 0.14533176 -0.02943343 -0.16700092
-0.027286172 -0.06867136 0.16599397 0.04723847 0.18862668 -0.07936917 -0.019580364 0.06913109
-0.103763305 -0.09737444 -0.10183013 -0.0040723085 0.16585135 0.19105728 0.006886526 -0.12530585
-0.17711236 -0.029485976 0.12471767 -0.08426611 0.12967846 0.11268477 0.18787815 0.16767702
0.051290095 0.117583945 0.17119837 0.10915463 0.06528993 0.06603305 0.097107604 0.15597709
-0.04715902 -0.10386581 -0.11738326 0.06535564 0.16578679 0.022068009 0.1042902 0.04316269
0.11413294 -0.06005077 0.021500168 -0.12527426 -0.004520133 0.061723534 0.10862489 0.04285015
-0.035947222 0.005462274 -0.0987644 0.09567807 -0.011353448 -0.11933811 0.16594084 0.10592891
-0.17185816 -0.07102443 0.10282557 -0.13522203 0.0681263 0.18316944 0.1838005 -0.05141772
-0.1793833 0.10363047 0.026556293 0.16212247 -0.009360153 -0.065874994 -0.12874192 0.009342817
-0.15188979 0.07944132 0.14861386 0.10995673 0.017211853 -0.14547119 0.14095704 -0.12512484
-0.11382815 0.04934138 0.042598598 -0.122215606 0.024417043 0.0502178 0.13977586 0.015752465
0.11174988 -0.1405172 0.08712833 0.12337211 -0.16453516 0.10738738 0.18547685 0.095424935
0.14858511 0.10830379 -0.15509284 -0.022162093 0.15007333 -0.0094167935 -0.13214718 -0.00010444224
00000000: 961c f0bd 03ff 1dbe d662 da3d 3c97 1d3d
00000010: 9bf9 143d e344 2e3e 4068 01bd a9e7 a03c
00000020: 1b41 09be e8c5 93bc 9990 0e3e 424f 19be
00000030: a820 d43c abaa 483d 3ed2 a63d b08c 1cbd
00000040: 8de9 363e 40a7 193b 706d 283c bed3 383e
00000050: ffda 0d3e 9824 cebd bb25 99bd ad45 debd
00000060: 0593 f33d ef2a 273e bf2d f73c 5c76 353d
00000070: 40c4 7abd 7685 20bc f006 febd 9aad 40be
00000080: 4c4a 0bbd 8cb3 ffbd 4bb2 233e 4518 453e
00000090: 72d5 c03d fdff 283e 9036 fcbc fa73 e7bd
000000a0: caa5 a63d 0d20 02bd 4cd6 133d db2d 3c3e
000000b0: 9013 0e3e d7e2 253e 89dc 283e 46bc 003e
000000c0: 0066 d53c 3caa 86bd 46ed 49bc f8d5 893c
000000d0: 4c6b 00bc 97f7 d03d 0f2c 1cbe 19de c43d
000000e0: 1b06 b1bd 3f3c fc3d f0a3 9f3c f190 3ebe
000000f0: 70ff 0b3d d339 8fbd 4571 c8bd f4f5 243d
00000100: ea80 3ebe 626a 913d ee48 0cbd cad1 953d
00000110: 4023 1dbb 51b7 94bd 6d80 283e fdc1 93bd
00000120: e96e 253e 6d8f 083e b6f4 8a3d e7eb 903d
00000130: c014 6dbc 6c4e 753d 9ee0 603d 6977 173e
00000140: 4a6f 18be 6174 153c 2893 0ebe 8c6b 93bd
00000150: c04b 07bc 9693 833a 0710 093e cab5 be3d
00000160: 1d0c 2cbe 886c 133d c033 5abd 87fa 703d
00000170: f455 38bd a40b 70bd a2c4 ae3d 06f8 9b3d
00000180: 507b e6bd 6cf1 97bd a0f2 20be f5f9 113e
00000190: 30c7 223e 0026 fcb9 9017 3cbe 371f c93d
000001a0: d0de efbd b24d e93d 49a0 03bc daa3 24be
000001b0: 02f6 29bc f798 033e c9d7 dabd d0b8 0f3e
000001c0: af54 273e 3dd3 e23b 1b03 afbd d98a 0b3e
000001d0: 007d c63c 505b 0ebd 28c3 343d dfae 083e
000001e0: b053 25be 415d 2fbe 7b10 8e3c da6e e6bd
000001f0: f77f 3cbe 3f61 debd 00e3 483d f2b0 ef3d
00000200: 18d9 a4bd 1880 d8bd 5ced 97bd 6cb8 0fbe
00000210: 47ac 1bbe 3d5b 293e ee72 1ebe a06b d9bb
00000220: 5402 11bd d274 1b3e c22b fabd bcd4 48bd
00000230: e5d5 ffbd 6cfd 73bd fe72 d63d f85f 0dbd
00000240: e349 62bd a813 923c 6fa9 39be 2da1 17be
00000250: cce3 1fbd d9d1 143e 601e f1bc 4a02 2bbe
00000260: 4087 dfbc 92a3 8cbd 53fa 293e 207d 413d
00000270: 5a27 413e 4e8c a2bd 0067 a0bc 9a94 8d3d
00000280: db81 d4bd 406c c7bd 518c d0bd 0071 85bb
00000290: f0d4 293e 85a4 433e 5ea8 e13b 2d50 00be
000002a0: f15c 35be 938c f1bc fa6b ff3d b693 acbd
000002b0: 6eca 043e 46c7 e63d 2163 403e 86b3 2b3e
000002c0: 9015 523d dacf f03d a04e 2f3e 768c df3d
000002d0: bab6 853d 563c 873d 5ae0 c63d 75b8 1f3e
000002e0: d129 41bd 99b7 d4bd a266 f0bd 2ed9 853d
000002f0: 03c4 293e f8c7 b43c 1a96 d53d 5ccb 303d
00000300: 88be e93d ccf7 75bd 1f21 b03c e547 00be
00000310: a01d 94bb d1d1 7c3d ba76 de3d a483 2f3d
00000320: 653d 13bd e0fc b23b fd44 cabd ddf2 c33d
00000330: d003 3abc 8a67 f4bd 65ec 293e 42f1 d83d
00000340: 96fb 2fbe 4275 91bd 3696 d23d a577 0abe
00000350: cd85 8b3d c590 3b3e 3336 3c3e 639b 52bd
00000360: 41b0 37be 363c d43d 958c d93c 6f03 263e
00000370: 545b 19bc 78e9 86bd ecd4 03be 9d12 193c
00000380: ff88 1bbe 21b2 a23d 3b2e 183e fe30 e13d
00000390: dfff 8c3c 66f6 14be 0b57 103e ba20 00be
000003a0: bc1e e9bd 301a 4a3d de7b 2e3d 2d4c fabd
000003b0: 4006 c83c 2eb1 4d3d 6721 0f3e 500b 813c
000003c0: 1fdd e43d bee3 0fbe 5670 b23d 84aa fc3d
000003d0: e87b 28be eaed db3d a5ed 3d3e 266e c33d
000003e0: b226 183e 61ce dd3d a8d0 1ebe 478d b5bc
000003f0: d3ac 193e e548 1abc 9751 07be 0008 dbb8

fc1.bias f4 [128]
0.08412719 0.06532948 0.12943986 0.03455273 0.1407795 0.039867073 0.20455746 0.048670735
0.03807853 -0.027122619 0.17838664 0.15099902 -0.14192915 0.20184657 -0.09952539 0.20739917
0.0030469946 0.015001453 0.02129516 0.09534912 -0.027298244 -0.103725575 -0.14284745 -0.011918794
0.16897069 -0.086346015 0.2176424 0.0033248998 -0.14143124 0.05019203 0.18584295 0.07301815
-0.13781464 -0.02323859 -0.17446366 0.109121 0.15191357 0.16642655 -0.018403478 0.05887465
0.063570954 -0.18256943 0.13678496 0.10430753 -0.047626913 0.15463896 0.059130933 0.05694113
0.19530006 0.061422724 0.047971025 0.0497592 -0.109245755 0.17476971 0.0016780153 0.006450123
-0.12019286 0.16777655 0.05559057 0.21046516 0.18321344 -0.09559198 0.01960627 -0.00519821
0.12622488 0.040814027 -0.1328545 0.14689283 -0.13711014 -0.08961223 -0.0366973 -0.04177018
-0.15555623 0.017755747 -0.06766955 0.10196647 0.21812424 0.024024103 0.07756843 0.11489348
0.09279039 0.030711055 0.19539414 0.13197389 0.06573251 0.1684182 0.0943408 0.07762763
-0.07207204 0.1242906 -0.13694082 0.16316712 -0.16783774 -0.14544354 -0.070446506 0.16543783
-0.026769802 -0.11282131 0.14548267 0.037925564 0.16184233 -0.08669265 0.01603295 0.040795892
-0.13222697 -0.08638016 0.16972192 -0.18034564 -0.12637222 -0.066482864 -0.1507242 0.08096004
0.096192956 0.12037882 -0.06493288 -0.05720015 0.21700235 -0.05848153 -0.06323648 0.19635925
0.1944504 0.18364818 -0.06658579 -0.13440372 0.17191355 -0.09738073 -0.09111555 0.018463895
00000000: e04a ac3d 76cb 853d e28b 043e 2a87 0d3d
00000010: 8028 103e a84b 233d 8377 513e f75a 473d
00000020: 3cf8 1b3d 4130 debc fdaa 363e 7d9f 1a3e
00000030: e055 11be deb0 4e3e f8d3 cbbd 7360 543e
00000040: 16b0 473b a8c8 753c 3073 ae3c 6646 c33d
00000050: 91a0 dfbc 136e d4bd 9a46 12be 0c47 43bc
00000060: a706 2d3e 2ed6 b0bd a6dd 5e3e 90e6 593b
00000070: 5ad3 10be 2896 4d3d 9d4d 3e3e 8a8a 953d
00000080: 481f 0dbe db5e bebc 9aa6 32be d57a df3d
00000090: 3b8f 1b3e b96b 2a3e e4c2 96bc 8c26 713d
000000a0: 7d31 823d 7bf3 3abe 5b11 0c3e 309f d53d
000000b0: 7014 43bd ad59 1e3e 4733 723d 1a3b 693d
000000c0: bdfc 473e 6596 7b3d 447d 443d 4ed0 4b3d
000000d0: 3dbc dfbd d5f6 323e daf0 db3a 8e5b d33b
000000e0: ad27 f6bd 9ecd 2b3e f0b2 633d 2e84 573e
000000f0: 4e9c 3b3e bac5 c3bd 549d a03c bf55 aabb
00000100: 1841 013e 9c2c 273d 030b 08be 136b 163e
00000110: 9a66 0cbe 9e86 b7bd e84f 16bd 3517 2bbd
00000120: 224a 1fbe 8074 913c 5596 8abd ccd3 d03d
00000130: f65b 5f3e 32ce c43c 32dc 9e3d 464d eb3d
00000140: e308 be3d c095 fb3c 6715 483e 2a24 073e
00000150: c49e 863d d275 2c3e c035 c13d 3cfb 9e3d
00000160: 819a 93bd 128c fe3d 373a 0cbe 4815 273e
00000170: a8dd 2bbe 27ef 14be 4246 90bd 8968 293e
00000180: 584c dbbc dc0e e7bd 69f9 143e d657 1b3d
00000190: ffb9 253e eb8b b1bd 8857 833c 9819 273d
000001a0: 8266 07be 15e8 b0bd 95cb 2d3e 87ac 38be
000001b0: b867 01be 2b28 88bd 7257 1abe 61ce a53d
000001c0: d000 c53d 2c89 f63d 88fb 84bd b44a 6abd
000001d0: dd35 5e3e 548a 6fbd 2182 81bd 6612 493e
000001e0: 011e 473e 450e 3c3e 215e 88bd 21a1 09be
000001f0: 1b0a 303e 8c6f c7bd ca9a babd 9841 973c

fc2.weight f4 [64, 128]
-0.037253838 -0.0047120205 0.08417686 -0.04325766 -0.07815057 -0.09210435 0.025947623 0.09387836
0.082732804 -0.025625305 0.052624695 0.059365906 0.058615886 0.04337733 -0.029105444 0.04998927
0.09928626 0.09199738 0.058268286 0.041106474 0.07642217 -0.034664858 -0.064226806 0.016306572
-0.06126191 0.103606865 0.101262115 0.051669285 0.054687403 -0.030114662 -0.056626126 -0.0001236811
0.06934138 0.10409998 -0.068888724 0.05533707 0.049355812 0.05131999 0.072123185 0.0637341
0.04038011 0.03702259 -0.015713625 -0.0013571191 0.004477702 0.07878622 -0.038040735 -0.020589888
-0.033938542 0.007513701 -0.031147026 0.0068695447 -0.03033847 0.0130283525 0.027478185 -0.051779862
0.08825998 -0.021209972 0.06878557 0.06662953 -0.038091093 0.01110838 0.0008805031 -0.058981787
0.08328042 -0.0030786172 0.08663538 0.07343782 0.09361816 -0.06450007 -0.063019514 0.06518009
0.08590936 -0.017344251 -0.083044626 0.062010728 -0.06867372 0.07293339 0.0019115175 0.10487652
-0.05209061 -0.066440836 0.065764 -0.039520167 0.038914267 0.02119893 -0.0040100664 0.058084812
-0.043655813 0.03677293 -0.007100038 0.09041058 0.07421977 -0.06793657 0.029383905 -0.028356284
0.09344908 0.029486306 -0.06237082 -0.024319716 -0.04273826 -0.026102629 0.00853768 0.0028982735
0.05997246 0.052851908 -0.019427394 0.026176743 -0.0042290627 0.044187926 0.07496095 0.01722196
-0.10727566 0.0072819786 0.038359277 0.0016880035 0.066285916 0.029140614 -0.06568246 -0.044607308
0.09701517 -0.09166674 0.014023664 0.0799061 -0.03641293 -0.02782967 -0.039073512 -0.003467202
0.04470345 0.0069199423 0.047565293 0.04239809 -0.0066241683 0.072875194 -0.02363054 0.019768381
-0.047362387 0.06888856 0.031402618 -0.066854134 -0.035679433 0.06591143 -0.06690514 0.05916518
-0.05157038 -0.00495511 0.04446902 0.018738717 0.038552877 0.052221127 -0.03668502 -0.076920725
-0.023733957 -0.07952732 -0.04985423 0.07756886 0.02843816 0.067969866 0.026066111 -0.0313804
-0.048375163 -0.023275591 0.030189268 0.046954546 0.06514155 -0.0069241025 -0.019733472 -0.043432496
0.03173285 -0.003446968 0.04662132 0.044637434 -0.004245788 -0.0864114 -0.0071296273 0.02951272
0.07205583 -0.024117209 0.044382684 -0.04688138 0.07770543 0.02586565 -0.08408713 0.008889502
-0.048819862 -0.042878546 0.00758148 0.0037343903 -0.011241473 0.077854626 0.03190373 0.027923439
-0.0217596 -0.00076396024 0.04553092 -0.08669593 -0.042551618 -0.0018374529 -0.038205095 0.061389912
0.08826894 0.04438611 -0.08080029 0.07721343 -0.047953848 -0.06012261 -0.019319514 0.09026469
0.004062005 0.011713845 -0.09377424 -0.025346331 -0.034701996 0.008255278 -0.06513024 -0.07523611
-0.02042161 -0.026689447 0.047136717 -0.000727062 -0.005715154 0.022459708 0.07594472 -0.06887017
0.011789199 -0.08184003 -0.022089899 0.03938629 0.06225898 -0.078360155 0.05764716 0.04680853
0.061083693 -0.028657813 0.031334624 0.08738219 0.0677531 0.08299423 0.00914902 -0.0433434
0.07090379 -0.06677899 0.026202925 -0.058331236 0.098767735 0.079898246 -0.054826718 -0.050394114
0.055753905 -0.0135498075 -0.09079254 -0.09272962 -0.025650337 0.07736898 0.0076246434 -0.013250892
00000000: 7b97 18bd 4b67 9abb eb64 ac3d f22e 31bd
00000010: 680d a0bd 35a1 bcbd 1c90 d43c 4c43 c03d
00000020: d16f a93d 29ec d1bc fe8c 573d aa29 733d
00000030: 3617 703d 6dac 313d 8a6e eebc 8cc1 4c3d
00000040: 9856 cb3d 1f69 bc3d baaa 6e3d 435f 283d
00000050: 3a83 9c3d bdfc 0dbd 5889 83bd 5c95 853c
00000060: c5ed 7abd d62f d43d 8362 cf3d 2ca3 533d
00000070: e6ff 5f3d 06b3 f6bc ccf0 67bd 64b0 01b9
00000080: da02 8e3d 5f32 d53d 8815 8dbd 20a9 623d
00000090: 5229 4a3d e934 523d 52b5 933d 0687 823d
000000a0: 9d65 253d 00a5 173d dcb9 80bc 5ce1 b1ba
000000b0: b0b9 923b ab5a a13d 9ad0 1bbd 20ac a8bc
000000c0: 2403 0bbd 7e35 f63b 0c28 ffbc eb19 e13b
000000d0: 6288 f8bc df74 553c ee19 e13c 1f17 54bd
000000e0: a6c1 b43d 89c0 adbc 73df 8c3d 1075 883d
000000f0: 6805 1cbd ecff 353c 90d1 663a e396 71bd
00000100: ed8e aa3d a0c2 49bb e46d b13d 9166 963d
00000110: e1ba bf3d 9d18 84bd 6010 81bd 247d 853d
00000120: 3ff1 af3d 8815 8ebc 4d13 aabd f6fe 7d3d
00000130: cfa4 8cbd 1a5e 953d e28b fa3a 80c9 d63d
00000140: f75c 55bd 2212 88bd 47af 863d e6df 21bd
00000150: 9164 1f3d 61a9 ad3c e066 83bb 57ea 6d3d
00000160: 70d0 32bd 369f 163d 70a7 e8bb 2f29 b93d
00000170: 8900 983d 5422 8bbd 84b6 f03c 704b e8bc
00000180: 3b62 bf3d 448d f13c 8c78 7fbd 243a c7bc
00000190: 500e 2fbd 2ed5 d5bc a0e1 0b3c f6f0 3d3b
000001a0: afa5 753d 3e7b 583d 3326 9fbc 9c70 d63c
000001b0: f393 8abb 66fe 343d 2085 993d 1115 8d3c
000001c0: 57b3 dbbd aa9d ee3b 9e1e 1d3d 0040 dd3a
000001d0: e9c0 873d 4cb8 ee3c 8784 86bd 27b6 36bd
000001e0: e4af c63d c6bb bbbd 83c3 653c cfa5 a33d
000001f0: b925 15bd 0cfb e3bc 8c0b 20bd ff39 63bb
00000200: f71a 373d afc0 e23b d3d3 423d 9fa9 2d3d
00000210: 8d0f d9bb 973f 953d d694 c1bc 4df1 a13c
00000220: 10ff 41bd 7215 8d3d 08a0 003d d2ea 88bd
00000230: 9924 12bd 92fc 863d 9005 89bd 3057 723d
00000240: 763b 53bd 7a5e a2bb 2625 363d f081 993c
00000250: 9fe9 1d3d d2e5 553d 0843 16bd 9d88 9dbd
00000260: b76d c2bc 38df a2bd f333 4cbd 6cdc 9e3d
00000270: 25f7 e83c c933 8b3d 9988 d53c bc88 00bd
00000280: 0925 46bd 74ac bebc 7c4f f73c 6953 403d
00000290: ef68 853d 95e3 e2bb 17a8 a1bc 46e6 31bd
000002a0: 4efa 013d 87e6 61bb fff5 3e3d bed5 363d
000002b0: 4020 8bbb 76f8 b0bd a69f e9bb a9c4 f13c
000002c0: 0292 933d 7491 c5bc 9eca 353d b106 40bd
000002d0: 0624 9f3d 33e4 d33c e035 acbd 46a5 113c
000002e0: 56f7 47bd 6aa1 2fbd 106e f83b acbc 743b
000002f0: 282e 38bc 3f72 9f3d 7cad 023d b2bf e43c
00000300: 3041 b2bc 8144 48ba a17e 3a3d a38d b1bd
00000310: 9b4a 2ebd b0d6 f0ba f27c 1cbd fd73 7b3d
00000320: 59c6 b43d 36ce 353d 9f7a a5bd 1322 9e3d
00000330: 416b 44bd 2043 76bd f543 9ebc b2dc b83d
00000340: 911a 853b 6deb 3f3c b50c c0bd 1ca3 cfbc
00000350: ae23 0ebd 2541 073c 0163 85bd 6415 9abd
00000360: 384b a7bc d4a3 dabc 6e12 413d 4e98 3eba
00000370: 3046 bbbb 6cfd b73c e888 9b3d ce0b 8dbd
00000380: 7c27 413c bf9b a7bd e0f5 b4bc 8553 213d
00000390: 4603 7f3d 4a7b a0bd 6e1f 6c3d 4dba 3f3d
000003a0: e532 7a3d cac3 eabc bc58 003d 6ff5 b23d
000003b0: 23c2 8a3d e1f8 a93d c5e5 153c d988 31bd
000003c0: 0236 913d 6cc3 88bd 84a7 d63c bcec 6ebd
000003d0: bd46 ca3d b1a1 a33d fb91 60bd 0f6a 4ebd
000003e0: 355e 643d 0300 5ebc 70f1 b9bd 07e9 bdbd
000003f0: a820 d2bc a173 9e3d 25d8 f93b 451a 59bc

fc2.bias f4 [64]
0.08835227 0.03935386 -0.07903094 -0.00030447321 -0.06946269 -0.094001055 0.07110376 0.066952795
-0.04402186 0.038557164 0.039871484 0.019356368 0.08561196 0.07684035 -0.018850505 0.071820535
0.040930685 -0.036890723 0.026631927 -0.0804661 -0.0026886985 -0.032452103 -0.050707918 0.005975008
0.062277712 0.00040822552 0.030468037 0.02925016 0.07798579 -0.06523398 -0.034831002 0.0671354
-0.021607988 0.053336248 0.073501654 0.038433813 0.119076684 0.011239629 0.041794654 -0.0040710494
-0.06697953 0.035081808 0.020865265 0.08074677 -0.07495105 0.03976399 -0.047361765 -0.08609893
0.031518746 0.101417206 -0.009426498 0.004004673 0.017616948 -0.03016965 0.097863995 0.020424379
0.058935627 0.10862559 0.10452761 0.04180734 -0.096851416 -0.033396054 -0.07597971 -0.084792785
00000000: 09f2 b43d 8331 213d f9da a1bd b4a1 9fb9
00000010: 7442 8ebd a083 c0bd d99e 913d 8c1e 893d
00000020: 4450 34bd 1eee 1d3d 4850 233d 3f91 9e3c
00000030: 5355 af3d 795e 9d3d 606c 9abc a516 933d
00000040: efa6 273d ba1a 17bd 332b da3c 69cb a4bd
00000050: e034 30bb 7fec 04bd 1bb3 4fbd 00ca c33b
00000060: ea16 7f3d 1a07 d639 1b98 f93c 089e ef3c
00000070: 04b7 9f3d 6599 85bd f4aa 0ebd 497e 893d
00000080: 3c03 b1bc 1c77 5a3d 0988 963d c66c 1d3d
00000090: 7ade f33d 6c26 383c df30 2b3d 7066 85bb
000000a0: 902c 89bd f1b1 0f3d a2ed aa3c 905e a53d
000000b0: f07f 99bd 91df 223d 69fe 41bd a354 b0bd
000000c0: cd19 013d d3b3 cf3d 9971 1abc a239 833b
000000d0: 6b51 903c 5826 f7bc eb6c c83d 0751 a73c
000000e0: 7c66 713d 1877 de3d 9212 d63d 2c3e 2b3d
000000f0: 095a c6bd 4dca 08bd 409b 9bbd d7a7 adbd

fc3.weight f4 [32, 64]
-0.017811516 -0.07888411 0.06962732 -0.12639761 -0.020830467 0.03278053 0.018959068 -0.10417405
0.024800427 -0.088971525 -0.040373594 0.053281613 -0.08639551 0.0061037242 -0.03896922 0.073009126
-0.10307175 0.02056951 0.05152091 -0.045344934 0.09976527 -0.061171025 0.09876857 0.09071212
-0.086813904 -0.094004214 -0.08200328 0.05015344 0.10827394 -0.11718464 0.12397838 -0.02854383
0.05970602 0.073119454 -0.12895648 0.053791836 -0.05234089 0.10140847 -0.102667205 0.055282682
0.036689967 0.023925558 -0.11828638 0.102941 -0.1093084 0.06190391 -0.0319805 -0.055991486
0.10735594 -0.08423498 0.0064795613 -0.07133679 0.003882973 -0.057011172 -0.11894497 0.036599934
-0.050296426 0.108613126 0.014947817 -0.10151337 -0.05670694 0.070521906 -0.104510926 0.065387584
-0.01080159 0.03394958 -0.01790785 0.10464573 -0.03350978 -0.116412364 0.09969808 -0.083946206
-0.09047666 0.117498375 0.14706036 -0.03129836 -0.089018404 -0.005035326 0.10691446 0.13916108
0.13364695 0.12816754 -0.09514818 -0.0057718195 0.019154266 -0.0837633 0.10508361 0.05829945
-0.01732675 0.13712543 -0.006974748 0.10305251 -0.0219977 0.10724299 0.09531547 0.02637054
-0.03757893 -0.023453195 0.130938 -0.04830788 0.06842713 -0.09494781 0.0078134 0.016055748
0.060106575 0.068447 0.09702942 0.08183154 -0.004398025 0.05368516 0.005090832 -0.10633209
-0.06875722 0.13038744 -0.010404338 -0.019383898 0.117096886 0.103729665 -0.08701997 -0.005324446
0.03916574 0.04769315 -0.0687545 -0.008985977 -0.06528706 -0.02442312 0.030146997 -0.04394026
-0.08767721 0.045692235 -0.1097066 -0.09330609 -0.06783795 0.042277608 0.1252917 -0.09468208
0.0024882704 -0.08568451 0.0045368434 0.09553951 -0.060011234 0.028569609 0.11198178 -0.013378478
-0.04517211 -0.087814376 -0.11642927 -0.03340152 0.037218496 -0.011541292 -0.083874874 0.086192675
-0.10521349 0.05070708 0.05445353 0.03712114 -0.08026709 0.0661625 0.008308545 -0.061028242
0.031695243 0.08137528 -0.11457973 0.10831608 -0.048963886 0.027841333 -0.11483549 0.07463141
0.0049996525 0.048065346 0.08281018 -0.005464548 -0.092261836 0.08258989 0.07475985 0.09579682
0.052299295 0.03398162 -0.0024387985 0.08627915 -0.009013341 -0.107575804 -0.029339928 0.106820196
0.064237475 -0.05782737 -0.014305388 -0.043093294 -0.020193279 0.04157445 -0.022965616 -0.06014153
0.007912743 -0.13030452 0.03690961 0.02185976 0.11300589 -0.062014256 0.046997745 0.08328589
0.03566382 0.06852402 -0.0997769 0.08735841 0.017698055 0.102740705 0.03688936 0.041125562
0.041784056 -0.08392582 -0.104741335 -0.10874906 0.08938153 0.043226212 -0.13026677 0.0937688
-0.040208537 0.075336725 0.11809502 -0.039968 -0.045334205 0.06928931 0.10117955 0.12481852
-0.12657443 0.09052304 -0.022602523 0.04176478 0.11072338 -0.020406267 0.016668862 0.10291937
-0.05690621 0.08441216 0.016411658 -0.017515222 0.045911632 -0.07449104 -0.06193307 -0.09698297
0.0029342875 -0.06137294 -0.093994394 -0.051871996 0.10869248 0.068430126 -0.076840304 0.09856495
0.038217377 -0.032274324 0.03260148 0.094748534 0.102088496 -0.07424069 -0.13059479 -0.10784716
00000000: 75e9 91bc fe8d a1bd c598 8e3d 606e 01be
00000010: a8a4 aabc e144 063d 0c50 9b3c 3459 d5bd
00000020: 442a cb3c b436 b6bd c85e 25bd d23d 5a3d
00000030: 21f0 b0bd c001 c83b 309e 1fbd cf85 953d
00000040: 4817 d3bd 6481 a83c 9707 533d 9cbb 39bd
00000050: bc51 cc3d 788e 7abd 2d47 ca3d 47c7 b93d
00000060: 7dcb b1bd 4885 c0bd 56f1 a7bd b26d 4d3d
00000070: babe dd3d 80fe efbd 60e8 fd3d c0d4 e9bc
00000080: 4d8e 743d a7bf 953d 2b0d 04be d454 5c3d
00000090: 6763 56bd 3eaf cf3d 2f43 d2bd 1870 623d
000000a0: 3848 163d 88ff c33c 2140 f2bd bbd2 d23d
000000b0: 15dd dfbd f48e 7d3d fcfd 02bd 5457 65bd
000000c0: 6edd db3d 6483 acbd 8052 d43b 0619 92bd
000000d0: 7a79 7e3b 8c84 69bd 6c99 f3bd d0e9 153d
000000e0: a003 4ebd 8f70 de3d b0e7 743c 3ee6 cfbd
000000f0: 8945 68bd ca6d 903d d309 d6bd ede9 853d
00000100: 27f9 30bc b70e 0b3d 7cb3 92bc 8050 d63d
00000110: 8d41 09bd 9b69 eebd 822e cc3d fdeb abbd
00000120: d44b b9bd fda2 f03d fe96 163e b632 00bd
00000130: 484f b6bd 60ff a4bb f8f5 da3d 3e80 0e3e
00000140: bfda 083e 5a3e 033e 0ddd c2bd 8821 bdbb
00000150: 68e9 9c3c 188c abbd 1336 d73d 67cb 6e3d
00000160: d4f0 8dbc 9c6a 0c3e 6d8c e4bb 320d d33d
00000170: 8534 b4bc 36a2 db3d c234 c33d 0807 d83c
00000180: 5dec 19bd ea20 c0bc 9c14 063e 7cde 45bd
00000190: 8623 8c3d ff73 c2bd c603 003c 5887 833c
000001a0: 5032 763d f12d 8c3d 5cb7 c63d 4b97 a73d
000001b0: 4f1d 90bb f8e4 5b3d fed0 a63b a4c4 d9bd
000001c0: 96d0 8cbd 4984 053e f576 2abc fbca 9ebc
000001d0: 7ed0 ef3d 3870 d43d 8737 b2bd b178 aebb
000001e0: 416c 203d e459 433d 29cf 8cbd eb39 13bc
000001f0: 39b5 85bd ff12 c8bc d6f6 f63c b4fa 33bd
00000200: 1c90 b3bd c827 3b3d dbad e0bd 4317 bfbd
00000210: a0ee 8abd 492b 2d3d 784c 003e aee8 c1bd
00000220: 4012 233b 5c7b afbd cda9 943b 38aa c33d
00000230: 57ce 75bd d00a ea3c b456 e53d 6731 5bbc
00000240: 6406 39bd 06d8 b3bd 7872 eebd 08d0 08bd
00000250: 6c72 183d b017 3dbc 97c6 abbd c985 b03d
00000260: 2c7a d7bd 3ab2 4f3d aa0a 5f3d 560c 183d
00000270: 1263 a4bd 3480 873d 9020 083c c0f8 79bd
00000280: dfd2 013d 15a8 a63d c7a8 eabd d2d4 dd3d
00000290: 5b8e 48bd 8213 e43c df2e ebbd 5ad8 983d
000002a0: 20d4 a33b 2be0 443d 6298 a93d f30f b3bb
000002b0: c6f3 bcbd e324 a93d b11b 993d 2031 c43d
000002c0: c937 563d 5030 0b3d 40d4 1fbb 1fb3 b03d
000002d0: b1ac 13bc b450 dcbd 4a5a f0bc 8cc4 da3d
000002e0: f08e 833d 64dc 6cbd 2561 6abc 9882 30bd
000002f0: 606c a5bc f849 2a3d 6322 bcbc f756 76bd
00000300: 73a4 013c 8c6e 05be 882e 173d 3d13 b33c
00000310: a26f e73d a902 7ebd b580 403d cb91 aa3d
00000320: 3a14 123d 5256 8c3d d557 ccbd f7e8 b23d
00000330: 83fb 903c b869 d23d 4c19 173d 4773 283d
00000340: c225 2b3d 4de1 abbd a082 d6bd d4b7 debd
00000350: aa0d b73d f80d 313d a764 05be db09 c03d
00000360: b5b1 24bd 244a 9a3d cddb f13d 7cb5 23bd
00000370: 5cb0 39bd 8ee7 8d3d 3937 cf3d daa0 ff3d
00000380: ba9c 01be 2564 b93d ed28 b9bc 8c11 2b3d
00000390: f1c2 e23d 0b2b a7bc 238d 883c 64c7 d23d
000003a0: 7c16 69bd 48e0 ac3d be71 863c 157c 8fbc
000003b0: d60d 3c3d c28e 98bd 88ad 7dbd 029f c6bd
000003c0: 2d4d 403b 3162 7bbd 2280 c0bd bb77 54bd
000003d0: 2a9a de3d 1825 8c3d 735e 9dbd 6cdc c93d
000003e0: d389 1c3d 1532 04bd 2189 053d 850b c23d
000003f0: c613 d13d 810b 98bd a4ba 05be f9de dcbd

fc3.bias f4 [32]
-0.038223807 0.021655077 0.07340345 0.052646153 0.062611565 0.044532176 0.087231584 0.08569496
-0.06803321 0.011107089 -0.04056537 0.06499044 -0.09112371 -0.018892925 -0.07013641 -0.008163242
-0.061893724 -0.04089828 -0.06521736 0.060115874 0.05633223 -0.009567748 0.115712814 0.054663904
-0.027692482 -0.086440295 0.09329513 0.014586106 0.012847584 0.14371425 0.113381326 -0.094082795
00000000: 9190 1cbd fd65 b13c 8c54 963d 7ea3 573d
00000010: 7e3a 803d 5f67 363d 79a6 b23d d780 af3d
00000020: ff54 8bbd 82fa 353c e027 26bd b519 853d
00000030: 119f babd 56c5 9abc aea3 8fbd 1ebf 05bc
00000040: 4684 7dbd f484 27bd ae90 85bd 103c 763d
00000050: a0bc 663d 0bc2 1cbc d7fa ec3d 42e7 5f3d
00000060: 58db e2bc 9c07 b1bd 8411 bf3d 90fa 6e3c
00000070: ac7e 523c d429 133e 7834 e83d 7bae c0bd

fc4.weight f4 [2, 32]
0.07114637 0.004540689 0.077810384 0.06265872 -0.100998886 -0.1921102 0.06884189 0.075716935
0.13485858 0.06386786 -0.077340625 0.057694852 0.054515086 0.13520572 -0.14612067 -0.15931122
-0.030844338 0.15119837 0.06111971 0.038419653 -0.12482395 -0.15025502 -0.058461167 0.03028035
-0.10103868 0.12409939 0.089907065 0.030535877 -0.18055744 0.036563355 -0.1703226 0.103571564
0.15025802 -0.05789192 0.0124027105 0.16374393 -0.10856017 -0.076163724 -0.008524843 -0.088712275
0.022158418 -0.0083355475 0.15661056 -0.11867251 -0.12774245 -0.17928708 0.112900674 0.121582896
-0.041446064 0.17519452 0.0018667737 -0.13807373 -0.084042594 -0.11835086 0.13897744 -0.16081916
0.15246989 -0.14240238 0.04671959 0.064874426 0.02988477 -0.103048116 0.051475354 0.13070041
00000000: 30b5 913d 0fca 943b 0d5b 9f3d 3753 803d
00000010: 81d8 cebd 89b8 44be fafc 8c3d 7b11 9b3d
00000020: 5e18 0a3e 27cd 823d c364 9ebd 7051 6c3d
00000030: 364b 5f3d 5e73 0a3e a8a0 15be 7b22 23be
00000040: 44ad fcbc bfd3 1a3e a958 7a3d ed5d 1d3d
00000050: b3a3 ffbd 74dc 19be fa74 6fbd 7f0e f83c
00000060: 5eed cebd d227 fe3d 3221 b83d 6026 fa3c
00000070: 0de4 38be 75c3 153d 0c69 2ebe 541d d43d
00000080: 3ddd 193e 1420 6dbd bd34 4b3c 7dac 273e
00000090: cb54 debd bafb 9bbd c8ab 0bbc c8ae b5bd
000000a0: 9285 b53c d291 08bc 855e 203e 930a f3bd
000000b0: ebce 02be 0897 37be 7838 e73d 7400 f93d
000000c0: 59c3 29bd 3166 333e 88ae f43a 3363 0dbe
000000d0: 861e acbd f061 f2bd 1a50 0e3e c7ad 24be
000000e0: 1121 1c3e eed1 11be 0a5d 3f3d e2dc 843d
000000f0: e8d0 f43c e40a d3bd d2d7 523d 54d6 053e

fc4.bias f4 [2]
-0.08367008 0.07368706
00000000: 385b abbd 3ee9 963d

exp_avg f4 [128, 28]
0.0 -0.01963448 0.0 0.0 -0.5682185 0.0 0.0 -0.053905547
0.0 0.0 -0.16351193 0.0 0.0 -0.006333797 0.0 0.0
-0.19334577 0.0 0.0 -0.014467511 0.0 0.0 -0.2295244 0.0
-0.009478456 -0.010343583 -0.010343583 -0.009478456 0.0 -0.013418242 0.0 0.0
-0.40299854 0.0 0.0 -0.0475123 0.0 0.0 -0.11677585 0.0
0.0 -0.0026221855 0.0 0.0 -0.1567986 0.0 0.0 -0.0077318056
0.0 0.0 -0.17685026 0.0 -0.0071913907 -0.008096462 -0.008096462 -0.0071913907
0.0 -0.029376924 0.0 0.0 -0.85250944 0.0 0.0 -0.08107699
0.0 0.0 -0.24505933 0.0 0.0 -0.009238106 0.0 0.0
-0.29010284 0.0 0.0 -0.022046596 0.0 0.0 -0.34461153 0.0
-0.014077384 -0.015575724 -0.015575724 -0.014077384 0.0 -6.6864914e-07 0.0 0.0
8.3662155e-05 0.0 0.0 -2.5856566e-06 0.0 0.0 1.2448655e-06 0.0
0.0 0.0 0.0 0.0 7.962785e-05 0.0 0.0 2.2410596e-07
0.0 0.0 7.9023754e-05 0.0 -2.4138378e-06 8.221225e-05 8.221225e-05 -2.4138378e-06
0.0 1.8999819e-07 0.0 0.0 1.4734856e-06 0.0 0.0 2.1672e-07
0.0 0.0 2.1672e-07 0.0 0.0 0.0 0.0 0.0
3.4338552e-07 0.0 0.0 0.0 0.0 0.0 4.0671821e-07 0.0
0.0 6.3332735e-08 6.3332735e-08 0.0 0.0 0.0 0.0 0.0
-0.0024417718 0.0 0.0 0.0 0.0 0.0 0.0 0.0
0.0 0.0 0.0 0.0 -0.0012065754 0.0 0.0 0.0
0.0 0.0 -0.0012065754 0.0 -7.540578e-06 -0.0005828053 -0.0005828053 -7.540578e-06
0.0 -0.03424985 0.0 0.0 -1.0166787 0.0 0.0 -0.09644642
0.0 0.0 -0.29211837 0.0 0.0 -0.010258689 0.0 0.0
-0.34496635 0.0 0.0 -0.026746545 0.0 0.0 -0.41040397 0.0
-0.016364459 -0.01872171 -0.01872171 -0.016364459 0.0 -0.02893237 0.0 0.0
-0.8424866 0.0 0.0 -0.08281457 0.0 0.0 -0.2429877 0.0
0.0 -0.0059632324 0.0 0.0 -0.2889875 0.0 0.0 -0.020810632
0.0 0.0 -0.3444655 0.0 -0.013477421 -0.014950449 -0.014950449 -0.013477421
0.0 -0.024744872 0.0 0.0 -0.72132 0.0 0.0 -0.068710774
0.0 0.0 -0.20730013 0.0 0.0 -0.007450211 0.0 0.0
-0.24522255 0.0 0.0 -0.018820448 0.0 0.0 -0.29183075 0.0
-0.011811141 -0.013205798 -0.013205798 -0.011811141 0.0 0.0010957181 0.0 0.0
00000000: 0000 0000 7dd8 a0bc 0000 0000 0000 0000
00000010: c576 11bf 0000 0000 0000 0000 10cc 5cbd
00000020: 0000 0000 0000 0000 ac6f 27be 0000 0000
00000030: 0000 0000 bd8b cfbb 0000 0000 0000 0000
00000040: 6ffc 45be 0000 0000 0000 0000 2409 6dbc
00000050: 0000 0000 0000 0000 7208 6bbe 0000 0000
00000060: 874b 1bbc 2278 29bc 2278 29bc 874b 1bbc
00000070: 0000 0000 30d8 5bbc 0000 0000 0000 0000
00000080: d355 cebe 0000 0000 0000 0000 429c 42bd
00000090: 0000 0000 0000 0000 2d28 efbd 0000 0000
000000a0: 0000 0000 f9d8 2bbb 0000 0000 0000 0000
000000b0: d08f 20be 0000 0000 0000 0000 165b fdbb
000000c0: 0000 0000 0000 0000 3c18 35be 0000 0000
000000d0: c2a5 ebbb 06a7 04bc 06a7 04bc c2a5 ebbb
000000e0: 0000 0000 e0a7 f0bc 0000 0000 0000 0000
000000f0: 0f3e 5abf 0000 0000 0000 0000 b10b a6bd
00000100: 0000 0000 0000 0000 d5f0 7abe 0000 0000
00000110: 0000 0000 6d5b 17bc 0000 0000 0000 0000
00000120: 5c88 94be 0000 0000 0000 0000 109b b4bc
00000130: 0000 0000 0000 0000 ec70 b0be 0000 0000
00000140: d4a4 66bc 5231 7fbc 5231 7fbc d4a4 66bc
00000150: 0000 0000 387d 33b5 0000 0000 0000 0000
00000160: c773 af38 0000 0000 0000 0000 3e85 2db6
00000170: 0000 0000 0000 0000 4115 a735 0000 0000
00000180: 0000 0000 0000 0000 0000 0000 0000 0000
00000190: e0fd a638 0000 0000 0000 0000 c7a1 7034
000001a0: 0000 0000 0000 0000 8eb9 a538 0000 0000
000001b0: 6bfd 21b6 5e69 ac38 5e69 ac38 6bfd 21b6
000001c0: 0000 0000 4e02 4c34 0000 0000 0000 0000
000001d0: 94c4 c535 0000 0000 0000 0000 8ab3 6834
000001e0: 0000 0000 0000 0000 8ab3 6834 0000 0000
000001f0: 0000 0000 0000 0000 0000 0000 0000 0000
00000200: 8c5a b834 0000 0000 0000 0000 0000 0000
00000210: 0000 0000 0000 0000 ed5a da34 0000 0000
00000220: 0000 0000 8a01 8833 8a01 8833 0000 0000
00000230: 0000 0000 0000 0000 0000 0000 0000 0000
00000240: 2206 20bb 0000 0000 0000 0000 0000 0000
00000250: 0000 0000 0000 0000 0000 0000 0000 0000
00000260: 0000 0000 0000 0000 0000 0000 0000 0000
00000270: f425 9eba 0000 0000 0000 0000 0000 0000
00000280: 0000 0000 0000 0000 f425 9eba 0000 0000
00000290: 1205 fdb6 67c7 18ba 67c7 18ba 1205 fdb6
000002a0: 0000 0000 9249 0cbd 0000 0000 0000 0000
000002b0: 8722 82bf 0000 0000 0000 0000 b385 c5bd
000002c0: 0000 0000 0000 0000 8a90 95be 0000 0000
000002d0: 0000 0000 0f14 28bc 0000 0000 0000 0000
000002e0: 6e9f b0be 0000 0000 0000 0000 921b dbbc
000002f0: 0000 0000 0000 0000 7820 d2be 0000 0000
00000300: c20e 86bc 465e 99bc 465e 99bc c20e 86bc
00000310: 0000 0000 9403 edbc 0000 0000 0000 0000
00000320: 34ad 57bf 0000 0000 0000 0000 af9a a9bd
00000330: 0000 0000 0000 0000 c5d1 78be 0000 0000
00000340: 0000 0000 3867 c3bb 0000 0000 0000 0000
00000350: 2bf6 93be 0000 0000 0000 0000 0f7b aabc
00000360: 0000 0000 0000 0000 c85d b0be 0000 0000
00000370: 67d0 5cbc baf2 74bc baf2 74bc 67d0 5cbc
00000380: 0000 0000 c2b5 cabc 0000 0000 0000 0000
00000390: 6da8 38bf 0000 0000 0000 0000 3cb8 8cbd
000003a0: 0000 0000 0000 0000 7c46 54be 0000 0000
000003b0: 0000 0000 e620 f4bb 0000 0000 0000 0000
000003c0: 9f1b 7bbe 0000 0000 0000 0000 572d 9abc
000003d0: 0000 0000 0000 0000 d76a 95be 0000 0000
000003e0: 8483 41bc 225d 58bc 225d 58bc 8483 41bc
000003f0: 0000 0000 339e 8f3a 0000 0000 0000 0000

exp_avg_sq f4 [128, 28]
0.0 8.213909e-06 0.0 0.0 0.0072960802 0.0 0.0 6.26815e-05
0.0 0.0 0.00061140826 0.0 0.0 9.935536e-07 0.0 0.0
0.00083385885 0.0 0.0 5.3043555e-06 0.0 0.0 0.0011672263 0.0
1.8792e-06 2.4746657e-06 2.4746657e-06 1.8792e-06 0.0 3.5489707e-06 0.0 0.0
0.0032568607 0.0 0.0 4.445663e-05 0.0 0.0 0.0002758517 0.0
0.0 1.5677199e-07 0.0 0.0 0.00049082265 0.0 0.0 1.3693983e-06
0.0 0.0 0.0006205312 0.0 1.0300671e-06 1.3206879e-06 1.3206879e-06 1.0300671e-06
0.0 1.9198027e-05 0.0 0.0 0.017173972 0.0 0.0 0.00014737726
0.0 0.0 0.0014375022 0.0 0.0 2.2845875e-06 0.0 0.0
0.0019614296 0.0 0.0 1.2805251e-05 0.0 0.0 0.0027439916 0.0
4.2547013e-06 5.8729092e-06 5.8729092e-06 4.2547013e-06 0.0 3.5115388e-10 0.0 0.0
5.9330244e-08 0.0 0.0 5.182909e-09 0.0 0.0 5.184192e-09 0.0
0.0 0.0 0.0 0.0 2.5726944e-08 0.0 0.0 3.458357e-11
0.0 0.0 3.376977e-08 0.0 1.3059734e-11 9.062006e-10 9.062006e-10 1.3059734e-11
0.0 1.3670307e-10 0.0 0.0 8.223405e-09 0.0 0.0 1.7793471e-10
0.0 0.0 1.7793471e-10 0.0 0.0 0.0 0.0 0.0
4.4664092e-10 0.0 0.0 0.0 0.0 0.0 6.265618e-10 0.0
0.0 1.5189221e-11 1.5189221e-11 0.0 0.0 0.0 0.0 0.0
1.17995384e-07 0.0 0.0 0.0 0.0 0.0 0.0 0.0
0.0 0.0 0.0 0.0 2.8425479e-08 0.0 0.0 0.0
0.0 0.0 2.8425479e-08 0.0 1.7462623e-11 6.6529457e-09 6.6529457e-09 1.7462623e-11
0.0 2.7843143e-05 0.0 0.0 0.026703482 0.0 0.0 0.00022459979
0.0 0.0 0.0022371188 0.0 0.0 3.1999316e-06 0.0 0.0
0.003016539 0.0 0.0 2.0973173e-05 0.0 0.0 0.0042242096 0.0
6.087218e-06 9.30572e-06 9.30572e-06 6.087218e-06 0.0 1.7897057e-05 0.0 0.0
0.015801407 0.0 0.0 0.00014718642 0.0 0.0 0.0013352059 0.0
0.0 1.0188484e-06 0.0 0.0 0.0018450003 0.0 0.0 1.0027693e-05
0.0 0.0 0.002592524 0.0 3.7892241e-06 5.0154395e-06 5.0154395e-06 3.7892241e-06
0.0 1.3642628e-05 0.0 0.0 0.01230714 0.0 0.0 0.00010610152
0.0 0.0 0.0010312687 0.0 0.0 1.5563745e-06 0.0 0.0
0.0014059012 0.0 0.0 9.242723e-06 0.0 0.0 0.001968738 0.0
3.0087776e-06 4.2321817e-06 4.2321817e-06 3.0087776e-06 0.0 1.098107e-06 0.0 0.0
00000000: 0000 0000 78ce 0937 0000 0000 0000 0000
00000010: f513 ef3b 0000 0000 0000 0000 e073 8338
00000020: 0000 0000 0000 0000 ea46 203a 0000 0000
00000030: 0000 0000 3e5a 8535 0000 0000 0000 0000
00000040: 5297 5a3a 0000 0000 0000 0000 11fc b136
00000050: 0000 0000 0000 0000 9efd 983a 0000 0000
00000060: d238 fc35 6f12 2636 6f12 2636 d238 fc35
00000070: 0000 0000 da2a 6e36 0000 0000 0000 0000
00000080: 0e71 553b 0000 0000 0000 0000 f176 3a38
00000090: 0000 0000 0000 0000 30a0 9039 0000 0000
000000a0: 0000 0000 2855 2834 0000 0000 0000 0000
000000b0: 8daa 003a 0000 0000 0000 0000 2bcc b735
000000c0: 0000 0000 0000 0000 25ab 223a 0000 0000
000000d0: d640 8a35 7e42 b135 7e42 b135 d640 8a35
000000e0: 0000 0000 730b a137 0000 0000 0000 0000
000000f0: 6eb0 8c3c 0000 0000 0000 0000 4889 1a39
00000100: 0000 0000 0000 0000 926a bc3a 0000 0000
00000110: 0000 0000 ea50 1936 0000 0000 0000 0000
00000120: 548b 003b 0000 0000 0000 0000 22d6 5637
00000130: 0000 0000 0000 0000 8ad4 333b 0000 0000
00000140: 9bc3 8e36 e80f c536 e80f c536 9bc3 8e36
00000150: 0000 0000 840c c12f 0000 0000 0000 0000
00000160: 4bd2 7e33 0000 0000 0000 0000 5a15 b231
00000170: 0000 0000 0000 0000 a320 b231 0000 0000
00000180: 0000 0000 0000 0000 0000 0000 0000 0000
00000190: 26fe dc32 0000 0000 0000 0000 a319 182e
000001a0: 0000 0000 0000 0000 410a 1133 0000 0000
000001b0: d0bf 652d 3318 7930 3318 7930 d0bf 652d
000001c0: 0000 0000 7e4e 162f 0000 0000 0000 0000
000001d0: eb46 0d32 0000 0000 0000 0000 2ba4 432f
000001e0: 0000 0000 0000 0000 2ba4 432f 0000 0000
000001f0: 0000 0000 0000 0000 0000 0000 0000 0000
00000200: 1f8b f52f 0000 0000 0000 0000 0000 0000
00000210: 0000 0000 0000 0000 5e3a 2c30 0000 0000
00000220: 0000 0000 169b 852d 169b 852d 0000 0000
00000230: 0000 0000 0000 0000 0000 0000 0000 0000
00000240: a664 fd33 0000 0000 0000 0000 0000 0000
00000250: 0000 0000 0000 0000 0000 0000 0000 0000
00000260: 0000 0000 0000 0000 0000 0000 0000 0000
00000270: 4a2c f432 0000 0000 0000 0000 0000 0000
00000280: 0000 0000 0000 0000 4a2c f432 0000 0000
00000290: 559a 992d ee97 e431 ee97 e431 559a 992d
000002a0: 0000 0000 b290 e937 0000 0000 0000 0000
000002b0: 43c1 da3c 0000 0000 0000 0000 8c82 6b39
000002c0: 0000 0000 0000 0000 a09c 123b 0000 0000
000002d0: 0000 0000 68be 5636 0000 0000 0000 0000
000002e0: 20b1 453b 0000 0000 0000 0000 8cef af37
000002f0: 0000 0000 0000 0000 3d6b 8a3b 0000 0000
00000300: ce40 cc36 c31f 1c37 c31f 1c37 ce40 cc36
00000310: 0000 0000 a321 9637 0000 0000 0000 0000
00000320: f471 813c 0000 0000 0000 0000 0e56 1a39
00000330: 0000 0000 0000 0000 1302 af3a 0000 0000
00000340: 0000 0000 5dbf 8835 0000 0000 0000 0000
00000350: f0d3 f13a 0000 0000 0000 0000 9d3c 2837
00000360: 0000 0000 0000 0000 56e7 293b 0000 0000
00000370: 604a 7e36 4c4a a836 4c4a a836 604a 7e36
00000380: 0000 0000 a4e2 6437 0000 0000 0000 0000
00000390: e3a3 493c 0000 0000 0000 0000 d282 de38
000003a0: 0000 0000 0000 0000 a32b 873a 0000 0000
000003b0: 0000 0000 9fe4 d035 0000 0000 0000 0000
000003c0: 3746 b83a 0000 0000 0000 0000 3111 1b37
000003d0: 0000 0000 0000 0000 f105 013b 0000 0000
000003e0: 68ea 4936 2a02 8e36 2a02 8e36 68ea 4936
000003f0: 0000 0000 ab62 9335 0000 0000 0000 0000

exp_avg f4 [128]
-0.019822042 -0.015287852 -0.029653108 7.979842e-05 6.3332735e-08 -0.00059034594 -0.035086177 -0.02842787
-0.02501694 0.0015775069 0.0 0.0 0.0 -0.031360652 0.0 -0.02922918
-0.024645297 -0.030942725 0.0 -0.038278863 -0.02378341 -0.012904274 0.0010122914 -0.0037140998
-0.004975696 -0.018350348 -0.03802753 -0.03390387 -0.052763868 -0.0069157286 -0.04226612 -0.012523449
-0.0071078357 -0.0032497244 -0.00564373 -0.023283726 0.0 0.00059862825 -0.03668148 -0.007827998
-0.027932893 -0.008606652 -0.015896138 -2.8746017e-05 0.0 -0.015642282 -4.5713887e-06 -0.031922966
-0.028464207 -0.02080097 0.0 -1.9763698e-05 -0.028354589 -0.030456632 -0.021502549 -0.016080746
-0.040277593 8.405123e-07 0.0 -0.019466322 -0.029395193 -0.040348683 -0.03352918 -0.023696035
-0.022942347 -0.002927614 -0.022550551 0.0 -0.04526927 -0.02900831 0.0 -0.03765008
0.0 0.0 -1.8906123e-06 -0.04289334 -0.00069653546 -0.0016054111 -1.4866731e-06 -0.0019163395
-0.013426495 -0.000213293 -0.033846617 1.11502695e-05 0.0037643865 -0.02687382 -0.025736364 -0.00010068513
-0.024298327 0.0 0.0 -0.03229886 0.0 0.0 3.267806e-07 0.0
-0.011329121 0.0 0.0 -0.03440316 -0.0067754295 0.0 0.0 -0.0335567
-0.03152006 0.0 -0.0071246293 0.0 -0.033370737 0.0 -0.01574983 -0.025813082
0.00010461505 -0.015805421 -0.020547781 0.0 -0.0054114135 0.0 7.475228e-07 -0.030854307
-0.030662218 -0.00090271607 -0.017741002 -0.033850458 -0.005223288 0.0 0.003927491 -0.008492726
00000000: d661 a2bc e679 7abc 13eb f2bc 7359 a738
00000010: 8a01 8833 72c1 1aba 86b6 0fbd 90e1 e8bc
00000020: 53f0 ccbc 59c4 ce3a 0000 0000 0000 0000
00000030: 0000 0000 0774 00bd 0000 0000 0972 efbc
00000040: efe4 c9bc 997b fdbc 0000 0000 4cca 1cbd
00000050: 6dd5 c2bc 736c 53bc ddae 843a 4168 73bb
00000060: 2a0b a3bb 7853 96bc c1c2 1bbd c9de 0abd
00000070: ed1e 58bd 569d e2bb 3d1f 2dbd 272f 4dbc
00000080: d9e8 e8bb 54f9 54bb 0aef b8bb 83bd bebc
00000090: 0000 0000 43ed 1c3a 523f 16bd 0141 00bc
000000a0: 86d3 e4bc ea02 0dbc 9e38 82bc 9a23 f1b7
000000b0: 0000 0000 3e24 80bc ee63 99b6 a8c1 02bd
000000c0: c52d e9bc cc66 aabc 0000 0000 38ca a5b7
000000d0: e247 e8bc 3080 f9bc 1d26 b0bc c5bb 83bc
000000e0: 1efa 24bd 919f 6135 0000 0000 d677 9fbc
000000f0: 30ce f0bc a944 25bd e555 09bd 301e c2bc
00000100: 97f1 bbbc 36dd 3fbb efbb b8bc 0000 0000
00000110: 456c 39bd d6a2 edbc 0000 0000 f836 1abd
00000120: 0000 0000 0000 0000 f2c0 fdb5 edb0 2fbd
00000130: b497 36ba a86c d2ba b389 c7b5 af2d fbba
00000140: cdfa 5bbc 67a7 5fb9 c0a2 0abd 0b12 3b37
00000150: edb3 763b 7c26 dcbc 11d5 d2bc eb26 d3b8
00000160: 490d c7bc 0000 0000 0000 0000 cf4b 04bd
00000170: 0000 0000 0000 0000 6270 af34 0000 0000
00000180: c79d 39bc 0000 0000 0000 0000 54ea 0cbd
00000190: 6c04 debb 0000 0000 0000 0000 c072 09bd
000001a0: 2e1b 01bd 0000 0000 b975 e9bb 0000 0000
000001b0: c1af 08bd 0000 0000 ca05 81bc f575 d3bc
000001c0: c764 db38 5f7a 81bc d253 a8bc 0000 0000
000001d0: 3a52 b1bb 0000 0000 60a9 4835 2cc2 fcbc
000001e0: 552f fbbc 40a4 6cba 9455 91bc c7a6 0abd
000001f0: 1e28 abbb 0000 0000 2fb2 803b 1325 0bbc

exp_avg_sq f4 [128]
8.568185e-06 4.6001032e-06 1.9936313e-05 1.0639273e-09 1.5189221e-11 6.7586834e-09 3.0171088e-05 1.7420214e-05
1.4212591e-05 1.7181314e-06 0.0 0.0 0.0 2.4082527e-05 0.0 2.3378543e-05
1.4156463e-05 1.9323435e-05 0.0 3.7335132e-05 1.1892039e-05 3.7641469e-06 2.6640116e-06 2.839221e-07
8.685911e-07 7.84077e-06 3.550211e-05 2.9543051e-05 7.185713e-05 9.249233e-07 4.8965132e-05 3.7077557e-06
2.0517346e-06 2.0854442e-07 9.2326496e-07 1.3092444e-05 0.0 4.3629107e-06 3.2134034e-05 1.4452266e-06
1.7239e-05 1.9983459e-06 5.1726392e-06 3.0899817e-11 0.0 5.1073025e-06 2.8249115e-11 2.30638e-05
1.7050395e-05 9.234609e-06 0.0 5.3630815e-11 1.8670984e-05 2.1630562e-05 1.0297318e-05 5.4794955e-06
3.963658e-05 2.995959e-11 0.0 7.299238e-06 2.0614054e-05 4.2414908e-05 2.500907e-05 1.3166747e-05
1.1863491e-05 1.7420071e-07 1.1477826e-05 0.0 4.840273e-05 2.1833626e-05 0.0 3.0943564e-05
0.0 0.0 9.675205e-12 4.6339588e-05 9.306944e-09 5.138059e-08 8.2197015e-13 7.286712e-08
4.094798e-06 9.748888e-10 2.8678449e-05 1.706751e-08 3.5638252e-06 1.7639086e-05 1.5797263e-05 2.1981406e-10
1.365423e-05 0.0 0.0 2.2601751e-05 0.0 0.0 1.8559201e-11 0.0
2.8725035e-06 0.0 0.0 2.7654167e-05 1.8136033e-06 0.0 0.0 2.790438e-05
2.3640298e-05 0.0 1.7824843e-06 0.0 2.9977267e-05 0.0 5.113081e-06 1.7452741e-05
4.6869877e-09 5.7868083e-06 9.628991e-06 0.0 5.8702074e-07 0.0 1.4724676e-10 2.4414261e-05
2.1274625e-05 1.6609633e-08 6.971234e-06 2.6631094e-05 2.2713325e-06 0.0 3.79258e-06 1.7724356e-06
00000000: 13c0 0f37 965a 9a36 e83c a737 9d39 9230
00000010: 169b 852d 023a e831 eb17 fd37 a021 9237
00000020: 9d72 6e37 8c9a e635 0000 0000 0000 0000
00000030: 0000 0000 d504 ca37 0000 0000 0a1d c437
00000040: 8c81 6d37 c318 a237 0000 0000 4b98 1c38
00000050: eb83 4737 8d9b 7c36 5fc7 3236 f56d 9834
00000060: 2029 6935 da8b 0337 1ae8 1438 38d3 f737
00000070: 01b2 9638 3f48 7835 e95f 4d38 c2d2 7836
00000080: 88b0 0936 41ec 5f34 49d6 7735 9ea7 5b37
00000090: 0000 0000 1e65 9236 a8c7 0638 9cf9 c135
000000a0: 789c 9037 521b 0636 a290 ad36 1ae6 072e
000000b0: 0000 0000 655f ab36 5a7b f82d 2279 c137
000000c0: 7207 8f37 58ee 1a37 0000 0000 eede 6b2e
000000d0: a29f 9c37 4773 b537 a5c2 2c37 82dc b736
000000e0: 743f 2638 80c3 032e 0000 0000 faeb f436
000000f0: 58ec ac37 a9e6 3138 92ca d137 bfe6 5c37
00000100: 4e09 4737 ed0b 3b34 e390 4037 0000 0000
00000110: 0904 4b38 5b27 b737 0000 0000 66c9 0138
00000120: 0000 0000 0000 0000 4035 2a2d c15c 4238
00000130: 5fe4 1f32 8ead 5c33 315d 672b 1f7b 9c33
00000140: 0c66 8936 dafc 8530 8092 f037 da9b 9232
00000150: 0d2a 6f36 a6f7 9337 5d84 8437 28b0 712f
00000160: 7914 6537 0000 0000 0000 0000 e498 bd37
00000170: 0000 0000 0000 0000 9b3f a32d 0000 0000
00000180: 3cc5 4036 0000 0000 0000 0000 dffa e737
00000190: ef6a f335 0000 0000 0000 0000 3314 ea37
000001a0: 274f c637 0000 0000 b23d ef35 0000 0000
000001b0: b177 fb37 0000 0000 0891 ab36 7a67 9237
000001c0: 2e0b a131 4e2c c236 348c 2137 0000 0000
000001d0: c293 1d35 0000 0000 47e6 212f 3acd cc37
000001e0: e976 b237 f8ac 8e32 72ea e936 d765 df37
000001f0: 326d 1836 0000 0000 0784 7e36 6ce4 ed35

exp_avg f4 [64, 128]
-0.09868623 -0.013740644 -0.08812328 -7.405635e-05 3.98843e-09 -3.1347143e-05 -0.20202036 -0.039904613
-0.11903821 -0.0021227621 0.0 0.0 0.0 -0.1468887 0.0 -0.13968822
-0.12001742 -0.027139978 0.0 -0.1315109 -0.19926096 -0.16443898 -0.045830436 -0.0039118514
-0.13975345 -0.14516024 -0.32001942 -0.14630786 -0.1496607 -0.011750095 -0.1666371 -0.05418181
-0.13935523 -0.001500501 -0.0030261907 -0.1998031 0.0 -0.029302696 -0.27184626 -0.012216239
-0.080151856 -0.050410338 -0.13031799 -8.64846e-06 0.0 -0.037852705 9.5424375e-06 -0.03664865
-0.051406886 -0.1483871 0.0 6.046104e-06 -0.081748314 -0.14053714 -0.22294565 -0.17663679
-0.25860026 3.9042365e-09 0.0 -0.012514542 -0.08437919 -0.2527237 -0.22220401 -0.1321792
-0.12928873 -0.0013341199 -0.123356976 0.0 -0.06516756 -0.19714971 0.0 -0.039201
0.0 0.0 6.621647e-07 -0.13585754 -0.00030729096 -0.0012435706 3.927454e-06 -0.0010819735
-0.17321138 -5.7955458e-05 -0.19209562 -0.0004372301 -0.04722273 -0.07854862 -0.27249357 -5.83488e-06
-0.0579083 0.0 0.0 -0.086190745 0.0 0.0 0.0 0.0
-0.1010006 0.0 0.0 -0.21215571 -0.016068613 0.0 0.0 -0.11231342
-0.08565803 0.0 -0.12373607 0.0 -0.21356858 0.0 -0.117903255 -0.13093944
2.2789893e-06 -0.14921056 -0.19568986 0.0 -0.0025429577 0.0 -3.9607727e-07 -0.15748526
-0.05773467 -0.00018823869 -0.13793735 -0.1398823 -0.14632387 0.0 -0.0029419102 -0.16898385
-0.0062882337 -0.0021495624 -0.0073960517 -4.732046e-06 4.882986e-09 -4.847263e-05 -0.011902306 -0.0026230942
-0.00832765 0.00021347667 0.0 0.0 0.0 -0.010138992 0.0 -0.007661196
-0.0061101476 -0.0021351443 0.0 -0.008875034 -0.01129141 -0.009240726 -0.0024290904 -0.00033991868
-0.008721204 -0.009157272 -0.01993041 -0.008231026 -0.008176295 -0.0015922948 -0.009808386 -0.00374001
-0.008199119 -0.00035474487 -0.00019899459 -0.011457847 0.0 0.0002881814 -0.018942757 -0.0009024405
-0.00392744 -0.0014644446 -0.007885676 -2.4018464e-05 0.0 -0.0027257444 -2.9182604e-06 -0.00303991
-0.00529399 -0.00897196 0.0 -2.9576265e-07 -0.007873722 -0.008936525 -0.013417616 -0.009863984
-0.015509204 1.2791733e-08 0.0 -0.0016790157 -0.007649216 -0.017572975 -0.01571455 -0.008684876
-0.00831949 -0.00022467315 -0.007968006 0.0 -0.0041055353 -0.012421177 0.0 -0.0033277597
0.0 0.0 -6.471428e-07 -0.01069451 -0.00018142462 -0.00010989333 -1.8034018e-07 -0.00022634729
-0.013511354 -1.7875394e-05 -0.014443768 -4.8860187e-05 -0.0007926791 -0.006174251 -0.016126893 -1.617076e-05
-0.0041001774 0.0 0.0 -0.0070208292 0.0 0.0 5.3460645e-09 0.0
-0.0039817113 0.0 0.0 -0.014223649 -0.0032706487 0.0 0.0 -0.006962605
-0.0066835424 0.0 -0.0067268214 0.0 -0.01287165 0.0 -0.005325745 -0.009936117
-2.8287895e-05 -0.010453616 -0.012079094 0.0 -0.0006139777 0.0 6.1729395e-08 -0.0107110115
-0.0049458547 -0.0001595474 -0.008394356 -0.009421651 -0.0075307414 0.0 7.303112e-05 -0.012421309
00000000: 021c cabd 7020 61bc fa79 b4bd b34e 9bb8
00000010: 9a0a 8931 bd7a 03b8 6dde 4ebe 0573 23bd
00000020: 4eca f3bd 0a1e 0bbb 0000 0000 0000 0000
00000030: 0000 0000 fe69 16be 0000 0000 6e0a 0fbe
00000040: b1cb f5bd a954 debc 0000 0000 cbaa 06be
00000050: 110b 4cbe b162 28be b2b8 3bbd fd2e 80bb
00000060: 871b 0fbe e3a4 14be 96d9 a3be bad1 15be
00000070: a840 19be 7883 40bc eaa2 2abe bfed 5dbd
00000080: 23b3 0ebe 75ac c4ba 0e53 46bb 2f99 4cbe
00000090: 0000 0000 350c f0bc 6f2f 8bbe 9f26 48bc
000000a0: a826 a4bd 127b 4ebd 1472 05be da18 11b7
000000b0: 0000 0000 700b 1bbd 7518 2037 e51c 16bd
000000c0: 0790 52bd caf2 17be 0000 0000 a3df ca36
000000d0: a96b a7bd f8e8 0fbe dd4b 64be 46e0 34be
000000e0: 4167 84be 0726 8631 0000 0000 cb09 4dbc
000000f0: ffce acbd 0065 81be 7389 63be fc59 07be
00000100: 4464 04be a3dd aeba 95a2 fcbd 0000 0000
00000110: 9276 85bd 9de1 49be 0000 0000 3a91 20bd
00000120: 0000 0000 0000 0000 9dbf 3135 3d1e 0bbe
00000130: e51b a1b9 4eff a2ba 93c8 8336 02d1 8dba
00000140: 535e 31be 3315 73b8 b7b4 44be 083c e5b9
00000150: 9f6c 41bd 19de a0bd 4784 8bbe 3dc9 c3b6
00000160: 4131 6dbd 0000 0000 0000 0000 c684 b0bd
00000170: 0000 0000 0000 0000 0000 0000 0000 0000
00000180: 67d9 cebd 0000 0000 0000 0000 593f 59be
00000190: 53a2 83bc 0000 0000 0000 0000 9404 e6bd
000001a0: 7a6d afbd 0000 0000 5669 fdbd 0000 0000
000001b0: b9b1 5abe 0000 0000 4377 f1bd fd14 06be
000001c0: bdf0 1836 a7ca 18be ec62 48be 0000 0000
000001d0: c0a7 26bb 0000 0000 72a4 d4b4 d143 21be
000001e0: 307b 6cbd f061 45b9 733f 0dbe 4e3d 0fbe
000001f0: edd5 15be 0000 0000 10cd 40bb 1a0a 2dbe
00000200: 870d cebb acdf 0cbb 945a f2bb f7c7 9eb6
00000210: 33c7 a731 174f 4bb8 e401 43bc 38e8 2bbb
00000220: b270 08bc b5d8 5f39 0000 0000 0000 0000
00000230: 0000 0000 041e 26bc 0000 0000 c50a fbbb
00000240: a237 c8bb c7ed 0bbb 0000 0000 9768 11bc
00000250: 9bff 38bc 6a66 17bc 6031 1fbb 1d37 b2b9
00000260: 61e3 0ebc 6208 16bc 1945 a3bc 6ddb 06bc
00000270: def5 05bc 8cb4 d0ba 5ab3 20bc f51a 75bb
00000280: 9955 06bc 0dfd b9b9 34a9 50b9 b2b9 3bbc
00000290: 0000 0000 0e17 9739 d72d 9bbc c291 6cba
000002a0: c1b1 80bb 9bf2 bfba ec32 01bc 427b c9b7
000002b0: 0000 0000 67a2 32bb 55d7 43b6 3a39 47bb
000002c0: 3579 adbb 21ff 12bc 0000 0000 4fc9 9eb4
000002d0: c900 01bc 816a 12bc 8fd5 5bbc 8c9c 21bc
000002e0: 511a 7ebc a3c2 5b32 0000 0000 6b12 dcba
000002f0: 46a6 fabb 33f5 8fbc cdbb 80bc 034b 0ebc
00000300: 784e 08bc 3d96 6bb9 3d8c 02bc 0000 0000
00000310: ba87 86bb 3182 4bbc 0000 0000 8b16 5abb
00000320: 0000 0000 0000 0000 51b7 2db5 0738 2fbc
00000330: cd3c 3eb9 8876 e6b8 88a3 41b4 a357 6db9
00000340: ba5e 5dbc 1ef3 95b7 8ea5 6cbc 3aef 4cb8
00000350: cbcb 4fba 5f51 cabb 8c1c 84bc 71a6 87b7
00000360: c85a 86bb 0000 0000 0000 0000 fc0e e6bb
00000370: 0000 0000 0000 0000 7bb0 b731 0000 0000
00000380: 0479 82bb 0000 0000 0000 0000 4f0a 69bc
00000390: 6158 56bb 0000 0000 0000 0000 9026 e4bb
000003a0: 9e01 dbbb 0000 0000 ab6c dcbb 0000 0000
000003b0: 9de3 52bc 0000 0000 9683 aebb 18cb 22bc
000003c0: cb4b edb7 a545 2bbc 64e7 45bc 0000 0000
000003d0: 59f3 20ba 0000 0000 1890 8433 3d7d 2fbc
000003e0: d610 a2bb 2e4c 27b9 7b88 09bc 455d 1abc
000003f0: 70c4 f6bb 0000 0000 4928 9938 bf82 4bbc
