traffic_light_control/records/model_9.pth (torch_old, 172648 bytes, 24 tensors)

fc1.weight f4 [128, 28]
-0.09589826 -0.04505318 0.020816252 0.038673237 0.21667393 -0.1310311 0.026806965 -0.07031383
0.10538639 -0.10680667 0.20445666 0.1673408 0.12148075 0.066525355 -0.07779265 -0.03605354
-0.004816892 0.18489917 -0.07786256 -0.0416395 -0.043695793 -0.08012054 -0.088622056 -0.12018469
0.16189964 -0.05184244 -0.1491479 -0.035929628 0.17313261 -0.08199173 0.14548607 0.12271933
-0.019658342 0.07342596 -0.18220629 -0.07974476 -0.17221709 0.02734916 0.15032913 0.13491206
0.065251425 0.052055925 0.07736625 0.019659758 -0.17501938 0.03128709 0.048654422 0.06887685
-0.109572195 0.13289694 -0.1536062 -0.09978127 -0.16500483 0.07950769 0.17092453 -0.07839795
-0.12836707 -0.030339163 0.1535631 -0.15959291 0.17175378 0.17085148 -0.16379456 0.04926559
-0.03151925 0.06560235 -0.16806164 0.084666386 -0.0678853 -0.05605679 0.08876301 -0.13271208
0.109517366 0.022932917 -0.15197344 0.18038797 0.10144408 -0.1538823 0.10856416 -0.05251579
0.14348628 -0.062060095 0.012583991 -0.014599649 0.056135684 0.00832448 0.18870206 0.05144234
0.11165268 0.119997755 0.14061002 -0.05634242 -0.14033467 0.15390117 0.0036922677 0.019631445
0.17080037 -0.08425341 -0.055754483 0.06691544 -0.040414304 -0.05767204 0.010646373 0.096660174
-0.07995872 -0.14802419 0.14916983 -0.17177185 0.008243755 -0.15653962 -0.119952664 0.017637338
0.16159974 -0.011911288 -0.051158547 0.1285245 -0.036153927 -0.05580844 -0.1399629 -0.11879615
0.167753 0.111953005 -0.13074027 -0.04268928 0.06934337 -0.008982882 -0.050403595 -0.16503762
-0.07597123 0.0002386719 0.15977727 -0.096311614 -0.0030916631 0.17910708 0.09656875 -0.18395299
-0.18152325 -0.12404273 0.08181895 -0.08886218 0.08314045 -0.14201392 -0.064658895 0.068669334
0.03055858 0.022361383 -0.051682264 0.03146457 -0.17163104 0.02714032 -0.0815472 -0.021592781
-0.058319345 0.047343384 -0.1561904 0.1624289 -0.0009230697 0.16356699 0.104422495 0.16894025
0.17455368 0.049541906 -0.03780696 0.109448925 0.0872465 0.17758502 -0.14182344 0.14086291
-0.031715512 0.16028915 -0.05965726 0.1395271 0.07175774 0.078733996 -0.08296856 -0.09361274
0.12581958 -0.0018836707 0.073507115 -0.11917877 0.06275956 -0.086446255 -0.1526531 -0.13064106
-0.13742524 0.18623202 -0.018783554 0.0715163 0.05027692 -0.15911967 -0.041498553 0.00643149
0.11288865 0.17326479 0.048471425 -0.11514973 -0.120703064 -0.14493985 0.13928609 -0.016540632
-0.16238505 0.0289357 0.0727296 -0.15287596 -0.1476979 -0.12980431 -0.12239281 -0.025315762
0.11618443 0.15248199 -0.14412723 -0.08140872 -0.17076996 0.10595949 0.007897362 -0.15348303
-0.161487 -0.049184665 0.10831039 0.1376691 -0.1799683 0.1652828 0.04783179 -0.16939898
0.11129157 -0.024701042 0.16166656 -0.06560569 0.18995087 0.020308465 0.027656496 0.014548526
0.11637117 -0.1755697 -0.14940685 -0.17395718 0.09142484 0.1382577 -0.16885632 -0.1708955
0.044856366 0.18293257 0.059214607 0.1705653 0.09693889 -0.074250124 0.121267065 0.0573816
0.0058789714 -0.06435336 0.16314977 0.15411068 -0.12051331 0.1505379 -0.15160874 -0.007376358
00000000: 4f66 c4bd af89 38bd d886 aa3c d467 1e3d
00000010: c5df 5d3e 042d 06be 489a db3c b300 90bd
00000020: d2d4 d73d 75bd dabd 165d 513e 635b 2b3e
00000030: e6ca f83d 723e 883d c151 9fbd e0ac 13bd
00000040: 05d7 9dbb 3556 3d3e 6876 9fbd 2e8e 2abd
00000050: 5cfa 32bd 3d16 a4bd 7b7f b5bd 6423 f6bd
00000060: 05c9 253e bd58 54bd 3aba 18be f22a 13bd
00000070: ad49 313e 48eb a7bd 4dfa 143e 4654 fb3d
00000080: 880a a1bc 5a60 963d 4994 3abe 3951 a3bd
00000090: ad59 30be 580b e03c e1ef 193e 6326 0a3e
000000a0: 8aa2 853d 9838 553d 3272 9e3d 800d a13c
000000b0: 4838 33be e426 003d dc49 473d 4e0f 8d3d
000000c0: 6367 e0bd 2316 083e f24a 1dbe 1f5a ccbd
000000d0: 07f7 28be eed4 a23d d706 2f3e 1b8f a0bd
000000e0: a872 03be d689 f8bc a53f 1d3e 536c 23be
000000f0: 39e0 2f3e b1f3 2e3e c3b9 27be b7ca 493d
00000100: 541a 01bd 865a 863d 5a18 2cbe 9265 ad3d
00000110: 7307 8bbd ce9b 65bd 62c9 b53d ade5 07be
00000120: a44a e03d d0dd bb3c ed9e 1bbe a0b7 383e
00000130: eac1 cf3d 5293 1dbe e356 de3d cc1a 57bd
00000140: 11ee 123e ba32 7ebd 152d 4e3c 5e33 6fbc
00000150: 88ee 653d 6663 083c 1d3b 413e 34b5 523d
00000160: 29aa e43d 62c1 f53d 13fc 0f3e 4fc7 66bd
00000170: e4b3 0fbe 4598 1d3e f9f9 713b 20d2 a03c
00000180: 4be6 2e3e 0d8d acbd d05e 64bd f60a 893d
00000190: 7889 25bd 8439 6cbd 206e 2e3c c5f5 c53d
000001a0: 66c1 a3bd a793 17be fabf 183e f6e4 2fbe
000001b0: d110 073c ec4b 20be bea9 f5bd 2e7c 903c
000001c0: 677a 253e 9027 43bc a08b 51bd ed9b 033e
000001d0: 2416 14bd 6497 64bd 6f52 0fbe 654b f3bd
000001e0: 71c7 2b3e 9e47 e53d c7e0 05be f4da 2ebd
000001f0: e603 8e3d f02c 13bc 0074 4ebd 9fff 28be
00000200: ce96 9bbd 0044 7a39 a79c 233e 063f c5bd
00000210: 809d 4abb d967 373e d6c5 c53d 2c5e 3cbe
00000220: 3be1 39be 1d0a febd b290 a73d 60fd b5bd
00000230: 8a45 aa3d 196c 11be e26b 84bd 82a2 8c3d
00000240: fd55 fa3c 382f b73c c8b0 53bd fee0 003d
00000250: 0cc0 2fbe 6055 de3c 3802 a7bd 58e3 b0bc
00000260: 44e0 6ebd 23eb 413d 60f0 1fbe c353 263e
00000270: 29fa 71ba 1b7e 273e 76db d53d acfe 2c3e
00000280: 33be 323e 74ec 4a3d 79db 1abd c226 e03d
00000290: 4bae b23d d9d8 353e 2a3a 11be 5e3e 103e
000002a0: 20e8 01bd d722 243e 2c5b 74bd 31e0 0e3e
000002b0: b9f5 923d 4a3f a13d 6ceb a9bd 09b8 bfbd
000002c0: d9d6 003e 80e5 f6ba e68a 963d 0014 f4bd
000002d0: 1688 803d bc0a b1bd 1851 1cbe c5c6 05be
000002e0: 34b9 0cbe 9bb3 3e3e f8df 99bc 2377 923d
000002f0: 2cef 4d3d 44f0 22be 63fa 29bd 40bf d23b
00000300: 2a32 e73d 536c 313e f989 463d 9fd3 ebbd
00000310: 2b33 f7bd 1d6b 14be 03a1 0e3e 3880 87bc
00000320: 4448 26be 900a ed3c 42f3 943d 848b 1cbe
00000330: 1e3e 17be 6ceb 04be 15a9 fabd 0063 cfbc
00000340: 1af2 ed3d 3d24 1c3e 1796 13be 9db9 a6bd
00000350: 52de 2ebe 4a01 d93d f063 013c a82a 1dbe
00000360: d95c 25be dc75 49bd d6d1 dd3d 21f9 0c3e
00000370: 9c49 38be e53f 293e 44eb 433d ed76 2dbe
00000380: d6ec e33d d759 cabc eb8b 253e 475c 86bd
00000390: 7b82 423e f05d a63c e08f e23c f15c 6e3c
000003a0: 0254 ee3d 8bc8 33be 1cfe 18be d521 32be
000003b0: f23c bb3d 6d93 0d3e ace8 2cbe 3bff 2ebe
000003c0: 4fbb 373d ad52 3b3e 048b 723d aca8 2e3e
000003d0: e687 c63d 7310 98bd de5a f83d f808 6b3d
000003e0: 63a4 c03b b2cb 83bd bc10 273e 31cf 1d3e
000003f0: afcf f6bd 9b26 1a3e 523f 1bbe 60b5 f1bb

fc1.bias f4 [128]
0.16873889 -0.0744203 0.17979008 -0.08894143 -0.13586634 0.08212323 0.019160127 -0.008238807
0.10141584 0.041884605 0.17609556 -0.093242116 -0.15988958 0.043403737 0.13960953 -0.062065333
-0.116566665 0.066228196 -0.09454679 0.093941614 -0.11553989 0.088160746 0.05630908 -0.18759406
-0.0027852845 0.1791247 -0.18602362 0.03747108 0.007270992 -0.0008578601 0.17338787 0.12187277
-0.176959 -0.043804727 0.019326411 0.15813358 0.043331236 -0.012858951 0.17388555 -0.17510253
0.073846236 -0.029036343 0.008279538 0.0990318 0.13021876 0.19304585 -0.0028493777 -0.1709245
-0.15881407 0.030840524 -0.009518087 0.14605331 0.17852652 0.21946004 -0.028660685 0.21415733
0.005856586 0.07216498 0.06439342 -0.08410104 0.06896536 -0.010487795 0.093330175 0.12358657
0.031476647 -0.16300528 -0.00040047592 -0.10705854 -0.03525715 -0.16255334 0.0051442953 0.07908191
-0.03442333 0.16507782 -0.070027374 0.12723558 -0.055623278 0.087675735 -0.054681987 -0.060280245
0.18425292 -0.02904469 0.14983846 -0.07778235 0.059795253 0.073202096 0.10995638 -0.10517753
-0.09025545 0.058972508 0.019988313 0.039174587 -0.089616224 -0.09896594 -0.15389417 -0.038942542
0.003581658 0.15732107 -0.06662344 0.13455734 0.098190054 0.20281991 0.036264498 -0.07004963
0.150271 0.0576526 -0.037392013 0.075191244 0.16643025 -0.07272718 0.09198801 0.09828809
-0.13620414 0.03545634 0.07848673 0.075410746 -0.06485552 -0.009530488 0.03992536 0.09954302
0.12683763 0.13100469 -0.16078717 0.040640578 0.20978177 -0.15610674 0.09143035 -0.09467096
00000000: e3c9 2c3e ac69 98bd e41a 383e ed26 b6bd
00000010: 8c20 0bbe 3930 a83d b3f5 9c3c 10fc 06bc
00000020: 1cb3 cf3d 318f 2b3d 6552 343e b9f5 bebd
00000030: 18ba 23be 1ec8 313d cdf5 0e3e 3838 7ebd
00000040: 81ba eebd a6a2 873d bfa1 c1bd 7664 c03d
00000050: 2ea0 ecbd 9f8d b43d 5aa4 663d a818 40be
00000060: 5289 36bb 776c 373e fa7c 3ebe 467b 193d
00000070: 8041 ee3b 04e2 60ba 978c 313e 6e98 f93d
00000080: bd34 35be 966c 33bd 6c52 9e3c c5ed 213e
00000090: 187c 313d 5aae 52bc 0e0f 323e 144e 33be
000000a0: b23c 973d a0dd edbc e6a6 073c 2fd1 ca3d
000000b0: 1158 053e d0ad 453e a0bc 3abb d506 2fbe
000000c0: 28a0 22be 44a5 fc3c c0f1 1bbc 008f 153e
000000d0: a8cf 363e 22ba 603e d0c9 eabc 0f4c 5b3e
000000e0: 9be8 bf3b 3ccb 933d b3e0 833d 2b3d acbd
000000f0: b63d 8d3d 00d5 2bbc e423 bf3d f51a fd3d
00000100: a8ed 003d dbea 26be f8f6 d1b9 8241 dbbd
00000110: cd69 10bd 6274 26be 7a91 a83b b2f5 a13d
00000120: 7aff 0cbd 290a 293e 836a 8fbd 0b4a 023e
00000130: 3cd5 63bd 568f b33d 38fa 5fbd 6be8 76bd
00000140: ccac 3c3e 21ef edbc 416f 193e 5a4c 9fbd
00000150: deeb 743d fbea 953d d030 e13d 5167 d7bd
00000160: d9d7 b8bd 288d 713d 88be a33c 8875 203d
00000170: b688 b7bd a8ae cabd 6f96 1dbe 3782 1fbd
00000180: 40ba 6a3b c618 213e df71 88bd 66c9 093e
00000190: de17 c93d 06b0 4f3e 158a 143d 2e76 8fbd
000001a0: a4e0 193e 2225 6c3d 5e28 19bd defd 993d
000001b0: b16c 2a3e fdf1 94bd 3664 bc3d 444b c93d
000001c0: 1979 0bbe ab3a 113d a7bd a03d f370 9a3d
000001d0: f9d2 84bd c425 1cbc c688 233d 36dd cb3d
000001e0: b9e1 013e 1826 063e 64a5 24be bc76 263d
000001f0: 08d1 563e 72da 1fbe d63f bb3d d9e2 c1bd

fc2.weight f4 [64, 128]
-0.01590621 -0.042136963 -0.08719025 0.07160591 -0.019013517 0.030587569 0.014076614 -0.072013475
0.058253385 0.032900564 -0.08539026 0.056014266 0.029016482 -0.06803323 -0.01598411 0.05026672
-0.08976218 -0.07268314 0.08355 0.05254604 -0.06172774 0.0477925 -0.01510603 -0.0555487
-0.07634616 -0.0012845604 -0.016357087 0.034668647 -0.047893003 0.07437359 -0.017303443 0.05276189
-0.075113066 0.04010597 -0.034831602 0.0203892 0.073393546 0.07932461 -0.05703462 0.0775496
-0.06275322 -0.07695955 0.07870821 0.02341216 -0.016377725 -0.023088064 0.010634279 0.04328627
-0.025621995 -0.041379724 -0.025529392 0.04253392 -0.010219876 0.07397928 -0.009005666 -0.016808439
-0.05007223 0.0035867605 -0.048116654 -0.07248078 0.011625566 0.06675149 0.07904867 -0.08823587
0.07042185 0.07014916 0.069976434 -0.011702188 -0.062207934 -0.024941966 0.05367833 0.04489208
-0.011624515 0.07241523 0.0024279132 0.0045323274 -0.07338625 0.035376385 0.08061488 -0.048757892
-0.034545414 -0.05625253 0.07432369 0.04267005 -0.02258975 0.08657204 0.03461477 0.082924955
-0.009297641 -0.028893856 0.07309576 -0.01284124 -0.020218352 -0.074582264 0.01782509 -0.014314414
0.030904755 0.010131121 -0.028394047 0.008765578 0.08821634 -0.020670934 0.033920627 -0.05528735
0.06181962 -0.05955473 -0.07974734 -0.03448803 -0.06627966 -0.0073926747 0.08126707 -0.06967376
-0.061363343 -0.02519084 0.08787565 -0.02858159 -0.0853052 -0.079413146 -0.057379685 0.062083844
0.015052446 -1.3805926e-05 -0.032754708 -0.08325514 0.044688568 -0.052233454 0.006643349 -0.028183155
-0.018579988 0.047977068 0.07427902 0.04431146 -0.062399104 -0.07955673 -0.04509751 -0.083431296
-0.06841262 -0.059133552 -0.049340494 0.064004764 -0.022855137 0.0011489908 -0.02347947 -0.06843015
-0.06735057 -0.06699474 -0.04730104 0.037327003 -0.0036173179 0.05259657 0.04729142 0.048906185
-0.007581855 0.0042797513 0.08795976 -0.021200389 -0.06273848 0.00033414495 -0.04842341 0.04305967
-0.008358113 0.07539375 0.07996 -0.013708487 -0.030729625 0.07414237 -0.003363559 -0.07929853
0.05088233 -0.028396036 -0.055632584 0.038095284 -0.09430636 -0.03433707 -0.038044583 -0.087190524
0.006610319 0.056699686 0.06181824 -0.062165488 -0.052653026 0.07177016 -0.06239348 -0.0132942265
0.040583644 -0.033398103 0.054159272 -0.046136424 -0.045193527 -0.085437 -0.01809508 0.0062698107
0.073872395 0.04861378 0.010948243 0.04035212 0.072824985 0.0016089976 -0.016084444 0.048805468
0.02888798 0.050931465 -0.021731853 0.06828917 -0.017480677 -0.066004 0.021377455 -0.05864277
0.034040578 -0.067238025 0.074776955 -0.084215604 0.022457598 0.019213505 0.026933646 0.028537959
-0.051389497 -0.058204338 -0.076428294 -0.07803778 0.03979154 -0.05553094 0.036330797 0.044181146
-0.026802309 -0.091085255 -0.062788755 0.013496779 0.058881376 0.06285294 -2.8573157e-05 -0.093610056
0.016790036 0.05822387 0.059398293 0.037036728 -0.041143008 0.084571965 0.0178665 -0.009242891
-0.005953632 -0.057852775 0.0759153 -0.09398795 -0.039189637 0.062412437 0.012255512 -0.059781555
-0.02624151 0.032101966 -0.04989719 -0.030714285 -0.06294645 -0.0670828 -0.013702212 0.07553626
00000000: bd4d 82bc cf97 2cbd cd90 b2bd 1fa6 923d
00000010: 3cc2 9bbc c892 fa3c 99a1 663c cd7b 93bd
00000020: 1a9b 6e3d bec2 063d 17e1 aebd 376f 653d
00000030: f9b3 ed3c 0255 8bbd 1cf1 82bc 7ae4 4d3d
00000040: 3cd5 b7bd e6da 94bd 431c ab3d 843a 573d
00000050: 3ad6 7cbd 12c2 433d 487f 77bc 0987 63bd
00000060: 605b 9cbd b25e a8ba 4cff 85bc b600 0e3d
00000070: 742b 44bd 2e51 983d f3bf 8dbc da1c 583d
00000080: e1d4 99bd 2846 243d 95ab 0ebd 4007 a73c
00000090: 5b4f 963d f174 a23d 229d 69bd 53d2 9e3d
000000a0: c384 80bd f89c 9dbd c531 a13d dcca bf3c
000000b0: 942a 86bc 2e23 bdbc 663b 2e3c f24c 313d
000000c0: 38e5 d1bc c97d 29bd 0423 d1bc 0c38 2e3d
000000d0: 4471 27bc 7382 973d 808c 13bc dab1 89bc
000000e0: 8a18 4dbd db0f 6b3b f815 45bd ce70 94bd
000000f0: 2879 3e3c 01b5 883d 45e4 a13d 02b5 b4bd
00000100: 5539 903d 5daa 8f3d ce4f 8f3d 89ba 3fbc
00000110: bfcd 7ebd 1853 ccbc cfdd 5b3d c2e0 373d
00000120: c074 3ebc 704e 943d a01d 1f3b eb83 943b
00000130: 884b 96bd d4e6 103d 6a19 a53d 5bb6 47bd
00000140: 7e7f 0dbd 0e69 66bd 0537 983d cac6 2e3d
00000150: 240e b9bc af4c b13d 38c8 0d3d 8fd4 a93d
00000160: 2255 18bc cfb2 ecbc 3bb3 953d 1064 52bc
00000170: f5a0 a5bc 96be 98bd ec05 923c 0187 6abc
00000180: f82b fd3c 00fd 253c a29a e8bc 809d 0f3c
00000190: c5aa b43d 1756 a9bc 5bf0 0a3d fd74 62bd
000001a0: 9236 7d3d a9ef 73bd 9352 a3bd 5243 0dbd
000001b0: a1bd 87bd 403e f2bb 596f a63d 1eb1 8ebd
000001c0: 2158 7bbd 055d cebc 26f8 b33d f023 eabc
000001d0: 7eb4 aebd 5ca3 a2bd f606 6bbd a14b 7e3d
000001e0: 899e 763c 00a0 67b7 cd29 06bd ac81 aabd
000001f0: 5c0b 373d bff2 55bd 73b0 d93b 5ce0 e6bc
00000200: 0f35 98bc 9a83 443d 991f 983d ef7f 353d
00000210: 3496 7fbd a4ee a2bd 2bb8 38bd 07de aabd
00000220: ea1b 8cbd 0636 72bd 4219 4abd ee14 833d
00000230: b23a bbbc bc99 963a 0458 c0bc 1b25 8cbd
00000240: 18ef 89bd 8a34 89bd bcbe 41bd 33e4 183d
00000250: 8610 6dbb 806f 573d a6b4 413d da51 483d
00000260: 3671 f8bb 283d 8c3b 3f24 b43d 70ac adbc
00000270: 087d 80bd 2d30 af39 a057 46bd 565f 303d
00000280: 77f0 08bc 0a68 9a3d 12c2 a33d 9099 60bc
00000290: b2bc fbbc f4d7 973d 286f 5cbb 4567 a2bd
000002a0: fd69 503d ce9e e8bc fede 63bd cd09 1c3d
000002b0: b123 c1bd 07a5 0cbd a3d4 1bbd f290 b2bd
000002c0: 609b d83b ee3d 683d 1f35 7d3d 3da1 7ebd
000002d0: b3aa 57bd 3cfc 923d 4e90 7fbd 07d0 59bc
000002e0: 093b 263d 73cc 08bd 1dd6 5d3d 8cf9 3cbd
000002f0: d91c 39bd 98f9 aebd 223c 94bc fc72 cd3b
00000300: 694a 973d 3e1f 473d 4260 333c 4448 253d
00000310: 4425 953d 00e5 d23a 86c3 83bc 3ee8 473d
00000320: 7ca6 ec3c 839d 503d 0007 b2bc 31db 8b3d
00000330: a333 8fbc 1b2d 87bd c61f af3c 6733 70bd
00000340: 226e 0b3d 17b4 89bd a924 993d 3b79 acbd
00000350: fff8 b73c a465 9d3c f3a3 dc3c 70c8 e93c
00000360: cb7d 52bd ac67 6ebd 7086 9cbd 46d2 9fbd
00000370: 74fc 223d 6974 63bd 9acf 143d 4af7 343d
00000380: 8490 dbbc e88a babd 6497 80bd 9821 5d3c
00000390: 992d 713d 0bb9 803d 63b0 efb7 a1b6 bfbd
000003a0: 428b 893c 277c 6e3d a04b 733d d3b3 173d
000003b0: 9285 28bd 1134 ad3d c45c 923c 7f6f 17bc
000003c0: af16 c3bb 08f7 6cbd 7b79 9b3d c17c c0bd
000003d0: 5085 20bd 2fa4 7f3d 58cb 483c 81dd 74bd
000003e0: 6ff8 d6bc 5a7d 033d ff60 4cbd 869c fbbc
000003f0: 12ea 80bd b562 89bd 3e7f 60bc c1b2 9a3d

fc2.bias f4 [64]
-0.08371437 -0.0083479155 0.028408542 0.041906454 -0.029745992 0.037990358 -0.028228637 -0.010114841
-0.04923905 0.028394282 0.030677013 0.09410606 0.017545827 0.06759852 0.08060075 -0.010270541
0.008055413 0.04801589 0.113177106 -0.014726407 0.055859577 -0.0796648 0.019256834 0.010819421
-0.007553754 0.058609452 -0.059194677 0.014696715 0.06041979 0.054936025 -0.05303853 0.0564874
-0.010869798 -0.019613842 0.0075547434 -0.08398773 0.00022166967 0.061450012 0.014818796 0.08990103
-0.009099541 0.028140983 -0.031335875 0.08103541 0.0056592594 -0.060802147 -0.010756895 0.033330604
0.09461099 -0.061017435 -0.007861398 0.043796882 0.045917988 0.096648335 0.10061271 0.083967604
-0.03522371 0.028548071 0.043469705 0.0010972919 0.093255006 0.022949941 0.058348604 -0.028231498
00000000: 7172 abbd b2c5 08bc 08b9 e83c 1aa6 2b3d
00000010: dead f3bc c79b 1b3d be3f e7bc b8b8 25bc
00000020: e3ae 49bd 209b e83c 5c4e fb3c aeba c03d
00000030: 44bc 8f3c 1871 8a3d 0212 a53d c545 28bc
00000040: dafa 033c 4fac 443d 66c9 e73d 0747 71bc
00000050: 03cd 643d 4c27 a3bd 82c0 9d3c f143 313c
00000060: 7b85 f7bb 7710 703d 1e76 72bd 7eca 703c
00000070: be7a 773d 9904 613d ee3e 59bd 555f 673d
00000080: 3d17 32bc 35ad a0bc c88d f73b c201 acbd
00000090: 0070 6839 02b3 7b3d 89ca 723c 081e b83d
000000a0: 3e16 15bc eb87 e63c 0c5a 00bd e5f5 a53d
000000b0: 4f71 b93b ac0b 79bd b03d 30bc ac85 083d
000000c0: 68c3 c13d 6bed 79bd 18cd 00bc 5c64 333d
000000d0: 8014 3c3d 90ef c53d 090e ce3d 35f7 ab3d
000000e0: bd46 10bd a5dd e93c 4a0d 323d 02d3 8f3a
000000f0: 7bfc be3d 8401 bc3c f2fe 6e3d be45 e7bc

fc3.weight f4 [32, 64]
-0.07759168 0.056796223 0.09189889 -0.109361656 0.07887901 0.101454295 0.036343273 -0.054897606
-0.094119586 0.024048613 -0.026377534 -0.08600393 -0.047596958 -0.07908296 -0.070552036 -0.033880204
0.0017309733 -0.04724259 -0.036581315 0.13157724 -0.09395709 0.0633737 -0.032512035 0.1010856
-0.050253227 0.04762478 -0.059771135 -0.0013602269 0.107527986 0.0647956 0.096432686 -0.073471904
0.05887397 0.06891957 0.08114257 -0.058774766 -0.023489013 0.094900906 0.043842375 0.061628465
-0.08817757 -0.086333185 -0.015842244 -0.0233939 -0.015032845 -0.06902197 0.11032095 0.093363196
0.1209245 0.07886297 0.086152285 -0.029707486 0.1370071 0.030028064 0.09044712 0.04902081
0.08417128 -0.10512337 0.11848569 0.08152296 0.0069374386 0.13475415 0.14856814 -0.07606681
-0.027168512 -0.0073328903 0.06325182 0.028521938 -0.07349761 0.038730606 0.07588871 -0.11696179
0.033964857 -0.08301286 -0.075023875 0.07710533 0.048155773 0.0023838186 -0.1004524 0.06898849
-0.05613062 -0.06538661 -0.0705137 -0.09758924 0.0064952224 0.0952601 0.123382024 0.02865525
0.09031921 -0.0071602874 -0.05448726 0.08282147 0.099879496 -0.10641244 0.11851015 0.0061432603
0.076566406 0.10864959 -0.081016 -0.012236621 0.059408486 -0.07179466 -0.060818925 0.0691815
0.09152857 0.09563811 -0.0031705648 -0.05325464 0.08663808 -0.0028431863 0.11911494 -0.047883313
0.1131208 0.0417231 0.0909262 -0.0053636376 0.04616469 -0.05054524 -0.06870665 0.012961551
0.05525951 -0.059408814 -0.021490127 0.098078266 0.078610234 -0.106687434 -0.14661424 0.07257848
-0.09758733 -0.12748797 0.089367926 -0.11535409 -0.006333992 -0.024432946 0.025584886 -0.029395849
-0.11483951 -0.064522 0.10786315 -0.06564224 0.03675305 -0.024873551 0.046048705 0.015211842
-0.04591902 -0.11053391 -0.019021267 -0.05652345 -0.09088853 -0.0927865 0.09856645 0.11376611
0.09087605 0.044812333 0.07060476 -0.05434677 -0.11177598 0.030895129 -0.013332242 -0.03685249
-0.055245806 0.11405309 0.08868953 -0.115530804 -0.093224004 0.07333033 0.11483842 -0.010762175
0.04035885 -0.11380682 -0.0690763 -0.091457225 0.076698065 -0.025527522 -0.096913815 0.0416656
-0.027563244 -0.09207852 0.09290579 0.07122351 -0.06345543 -0.06496716 -0.09917488 -0.05320099
-0.029172137 -0.007784214 -0.1143021 0.010627298 -0.0489537 -0.089187086 -0.10262199 -0.0122874025
-0.07167664 -0.042499546 -0.07948208 0.004672873 0.03830971 -0.0001595993 -0.057777584 0.021354347
-0.07063203 0.14564095 0.14783624 -0.086502485 0.09404412 0.016161848 0.017010689 0.062658936
-0.074093476 0.038526528 0.05633065 -0.07545768 0.072806075 0.004648747 0.13777277 -0.0060640927
0.11221063 0.11416137 -0.02021624 -0.04343848 -0.04394193 -0.016350435 0.016685395 -0.039453834
0.106374085 -0.042063687 0.10628779 0.037831534 0.052133977 0.12488806 0.071368724 0.058522165
0.15352948 -0.06615651 -0.082282856 0.044106703 0.03759962 0.021090984 0.09250812 0.13879345
0.08027911 -0.02268592 -0.10754019 0.09801939 -0.009649231 -0.07175738 -0.037112955 0.12447079
0.085816786 0.0047446475 0.061508417 -0.004395347 0.011583166 -0.08692729 -0.008645456 0.064689554
00000000: 63e8 9ebd 28a3 683d 7c35 bc3d 01f9 dfbd
00000010: 528b a13d 45c7 cf3d afdc 143d 50dc 60bd
00000020: c5c1 c0bd 9901 c53c b315 d8bc d422 b0bd
00000030: 07f5 42bd 3ff6 a1bd 967d 90bd f8c5 0abd
00000040: d3e1 e23a 7281 41bd 4ad6 15bd 2fbc 063e
00000050: 936c c0bd 12ca 813d 572b 05bd f805 cf3d
00000060: 54d6 4dbd 3412 433d 94d2 74bd a449 b2ba
00000070: a237 dc3d 8eb3 843d 807e c53d 7078 96bd
00000080: d525 713d b425 8d3d 132e a63d cfbd 70bd
00000090: 086c c0bc 685b c23d 1094 333d 216e 7c3d
000000a0: 7196 b4bd 74cf b0bd 98c7 81bc 90a4 bfbc
000000b0: 524c 76bc 645b 8dbd f3ef e13d 3435 bf3d
000000c0: 44a7 f73d e982 a13d 9c70 b03d 1d5d f3bc
000000d0: 974b 0c3e 6afd f53c 573c b93d 0bca 483d
000000e0: fe61 ac3d ec4a d7bd a0a8 f23d 82f5 a63d
000000f0: 7453 e33b fefc 093e 3f22 183e eac8 9bbd
00000100: 8090 debc be48 f0bb 2c8a 813d d7a6 e93c
00000110: ea85 96bd fca3 1e3d 8a6b 9b3d aa89 efbd
00000120: bc1e 0b3d a502 aabd 1ea6 99bd 66e9 9d3d
00000130: fd3e 453d d739 1c3b fdb9 cdbd d649 8d3d
00000140: 39e9 65bd 6ae9 85bd 7d69 90bd dedc c7bd
00000150: e0d5 d43b ba17 c33d b7af fc3d 6abe ea3c
00000160: 47f9 b83d d8a0 eabb 082e 5fbd 4e9e a93d
00000170: 9f8d cc3d c4ee d9bd 73b5 f23d 674d c93b
00000180: d9ce 9c3d ad83 de3d b7eb a5bd 1c7c 48bc
00000190: 5056 733d 1409 93bd 441d 79bd 08af 8d3d
000001a0: 5573 bb3d eadd c33d 40c9 4fbb 8a21 5abd
000001b0: 4e6f b13d c054 3abb 89f2 f33d 4b21 44bd
000001c0: e1ab e73d d7e5 2a3d 8437 ba3d 74c1 afbb
000001d0: 3017 3d3d 8708 4fbd 12b6 8cbd af5c 543c
000001e0: cc57 623d a856 73bd 100c b0bc 42dd c83d
000001f0: 67fe a03d f17e dabd 0b22 16be 07a4 943d
00000200: dedb c7bd 358c 02be 8806 b73d c43e ecbd
00000210: 608d cfbb 9a27 c8bc 6597 d13c 90cf f0bc
00000220: fa30 ebbd 1c24 84bd 5be7 dc3d 706f 86bd
00000230: 5e8a 163d 9ec3 cbbc 919d 3c3d 173b 793c
00000240: 9515 3cbd 9a5f e2bd 7dd2 9bbc 2285 67bd
00000250: c423 babd d906 bebd 35dd c93d 35fe e83d
00000260: 391d ba3d 238d 373d 3a99 903d b89a 5ebd
00000270: ceea e4bd c817 fd3c 7a6f 5abc a3f2 16bd
00000280: 6d49 62bd ab94 e93d dba2 b53d 6a9b ecbd
00000290: 3aec bebd 362e 963d 6830 eb3d d553 30bc
000002a0: 524f 253d 8d13 e9bd e077 8dbd ed4d bbbd
000002b0: e013 9d3d 181f d1bc c07a c6bd 8ca9 2a3d
000002c0: 50cc e1bc aa93 bcbd 6445 be3d a2dd 913d
000002d0: ecf4 81bd 810d 85bd 331c cbbd 48e9 59bd
000002e0: 68fa eebc b812 ffbb 3817 eabd 1e1e 2e3c
000002f0: ad83 48bd b8a7 b6bd 7a2b d2bd 1a51 49bc
00000300: 34cb 92bd 0114 2ebd 80c7 a2bd e61e 993b
00000310: a4ea 1c3d 1c5a 27b9 30a8 6cbd 50ef ae3c
00000320: 87a7 90bd e722 153e 6262 173e 3728 b1bd
00000330: 349a c03d da65 843c 005a 8b3c 5453 803d
00000340: 52be 97bd fecd 1d3d f8ba 663d 8e89 9abd
00000350: 5a1b 953d 8454 983b 4e14 0d3e 4cb5 c6bb
00000360: b0ce e53d 70cd e93d 879c a5bc 8cec 31bd
00000370: 74fc 33bd 59f1 85bc cfaf 883c 589a 21bd
00000380: a8da d93d f94a 2cbd 6aad d93d 3df5 1a3d
00000390: 708a 553d 50c5 ff3d c429 923d f0b4 6f3d
000003a0: d536 1d3e 107d 87bd ea83 a8bd 3ba9 343d
000003b0: 0f02 1a3d 00c7 ac3c e674 bd3d df1f 0e3e
000003c0: 6069 a43d d3d7 b9bc 083e dcbd 64be c83d
000003d0: cf17 1ebc 89f5 92bd c103 18bd 8bea fe3d
000003e0: b6c0 af3d fd78 9b3b 40f0 7b3d d806 90bb
000003f0: 52c7 3d3c ef06 b2bd aca5 0dbc f57b 843d

fc3.bias f4 [32]
0.12855645 -0.024781857 -0.12060769 -0.07861194 0.010814464 -0.082075074 -0.04769794 0.07668368
-0.13577263 0.096946694 -0.12979712 -0.013425001 0.06660342 0.049530428 0.13128531 0.007692768
0.13317628 -0.006439388 -0.06936082 -0.014282778 0.099486135 -0.11524703 0.013000972 0.096697465
0.022320885 -0.058068417 0.104886785 0.054220345 0.08562632 0.03198205 -0.10265693 0.04317002
00000000: 4da4 033e 5203 cbbc 2a01 f7bd 4cff a0bd
00000010: 262f 313c fa16 a8bd ea5e 43bd 550c 9d3d
00000020: fb07 0bbe fd8b c63d 89e9 04be 89f4 5bbc
00000030: 6067 883d 6be0 4a3d a86f 063e 9d13 fc3b
00000040: 5d5f 083e 8001 d3bb 0c0d 8ebd 5002 6abc
00000050: 63bf cb3d a306 ecbd 0702 553c 5209 c63d
00000060: 4ada b63c 26d9 6dbd e2ce d63d 2716 5e3d
00000070: da5c af3d 9cff 023d cc3d d2bd 0cd3 303d

fc4.weight f4 [2, 32]
-0.009266928 -0.13173611 0.12682289 -0.20478843 0.06992986 -0.10283873 0.16313076 -0.052038718
-0.11433249 -0.073922746 0.105407014 0.023151428 -0.14049822 -0.06292633 -0.18750896 0.02205177
-0.0933846 0.09199834 -0.09986276 -0.08629188 -0.16382481 0.005003198 0.073691055 0.09282357
-0.04531302 0.13715573 -0.029675007 0.13997035 -0.107037716 -0.13480473 0.020334542 -0.11172933
-0.063593775 0.05920973 0.10195542 -0.11728151 -0.019550914 -0.053566348 0.031864524 -0.09784814
0.1361874 0.094329365 0.04403422 -0.083693035 0.019880699 0.1344321 0.033686724 0.15365581
0.019570662 0.101404235 -0.08577189 -0.00058065355 -0.105298474 0.083231054 0.09217435 -0.15871312
-0.090345606 -0.09391797 0.11510818 -0.07890315 -0.20712458 -0.049983405 -0.055841178 0.017566007
00000000: 50d4 17bc d5e5 06be dcdd 013e 0fb4 51be
00000010: 6337 8f3d 1d9d d2bd c00b 273e 8d26 55bd
00000020: 2727 eabd cf64 97bd a2df d73d 10a8 bd3c
00000030: c4de 0fbe 85df 80bd 5902 40be eaa5 b43c
00000040: 6d40 bfbd a069 bc3d d984 ccbd ccb9 b0bd
00000050: b1c1 27be def1 a33b 56eb 963d 491a be3d
00000060: 259a 39bd 8d72 0c3e 0019 f3bc 6354 0f3e
00000070: 9736 dbbd 400a 0abe a094 a63c 59d2 e4bd
00000080: 743d 82bd e785 723d 01ce d03d 4a31 f0bd
00000090: 3d29 a0bc 6368 5bbd 6084 023d 9b64 c8bd
000000a0: b674 0b3e c12f c13d 3a5d 343d 4167 abbd
000000b0: d9dc a23c 92a8 093e 17fb 093d f357 1d3e
000000c0: a752 a03c 06ad cf3d 2ca9 afbd 0037 18ba
000000d0: baa6 d7bd 0b75 aa3d e8c5 bc3d b185 22be
000000e0: 1e07 b9bd 1158 c0bd d6bd eb3d fa97 a1bd
000000f0: 7718 54be 66bb 4cbd b8b9 64bd 96e6 8f3c

fc4.bias f4 [2]
-0.14278577 -0.070805825
00000000: 6f36 12be a502 91bd

exp_avg f4 [128, 28]
0.0 -0.0711462 0.0 0.0 -2.0057771 0.0 0.0 -0.18330148
0.0 0.0 -0.5684452 0.0 0.0 -0.023834296 0.0 0.0
-0.61485976 0.0 0.0 -0.06330585 0.0 0.0 -0.7579931 0.0
-0.02720881 -0.03851419 -0.03851419 -0.02720881 0.0 0.0 0.0 0.0
0.0 0.0 0.0 0.0 0.0 0.0 0.0 0.0
0.0 0.0 0.0 0.0 0.0 0.0 0.0 0.0
0.0 0.0 0.0 0.0 0.0 0.0 0.0 0.0
0.0 -0.038031474 0.0 0.0 -1.0605208 0.0 0.0 -0.09925767
0.0 0.0 -0.29927206 0.0 0.0 -0.012182596 0.0 0.0
-0.32860717 0.0 0.0 -0.033249833 0.0 0.0 -0.4055764 0.0
-0.0141974995 -0.02089391 -0.02089391 -0.0141974995 0.0 -0.08553627 0.0 0.0
-2.4033182 0.0 0.0 -0.2219929 0.0 0.0 -0.6800796 0.0
0.0 -0.028104259 0.0 0.0 -0.73972505 0.0 0.0 -0.07564758
0.0 0.0 -0.91243106 0.0 -0.032403212 -0.0466212 -0.0466212 -0.032403212
0.0 0.0 0.0 0.0 0.0 0.0 0.0 0.0
0.0 0.0 0.0 0.0 0.0 0.0 0.0 0.0
0.0 0.0 0.0 0.0 0.0 0.0 0.0 0.0
0.0 0.0 0.0 0.0 0.0 -0.007657597 0.0 0.0
-0.5064243 0.0 0.0 -0.04001723 0.0 0.0 -0.13060108 0.0
0.0 -0.01592341 0.0 0.0 -0.12008336 0.0 0.0 -0.03970207
0.0 0.0 -0.17231673 0.0 -0.009527816 -0.009755296 -0.009755296 -0.009527816
0.0 -0.019859243 0.0 0.0 -0.54175 0.0 0.0 -0.050198738
0.0 0.0 -0.15311928 0.0 0.0 -0.0063240724 0.0 0.0
-0.16425514 0.0 0.0 -0.017451135 0.0 0.0 -0.20476316 0.0
-0.0064939954 -0.0110956635 -0.0110956635 -0.0064939954 0.0 0.0 0.0 0.0
0.0 0.0 0.0 0.0 0.0 0.0 0.0 0.0
0.0 0.0 0.0 0.0 0.0 0.0 0.0 0.0
0.0 0.0 0.0 0.0 0.0 0.0 0.0 0.0
0.0 -0.08381579 0.0 0.0 -2.3786101 0.0 0.0 -0.21463954
0.0 0.0 -0.67533314 0.0 0.0 -0.028812772 0.0 0.0
-0.72452533 0.0 0.0 -0.07536378 0.0 0.0 -0.8929041 0.0
-0.0325333 -0.045196 -0.045196 -0.0325333 0.0 -0.003655305 0.0 0.0
00000000: 0000 0000 19b5 91bd 0000 0000 0000 0000
00000010: a75e 00c0 0000 0000 0000 0000 62b3 3bbe
00000020: 0000 0000 0000 0000 a085 11bf 0000 0000
00000030: 0000 0000 2440 c3bc 0000 0000 0000 0000
00000040: 7367 1dbf 0000 0000 0000 0000 7fa6 81bd
00000050: 0000 0000 0000 0000 d60b 42bf 0000 0000
00000060: 03e5 debc 0ec1 1dbd 0ec1 1dbd 03e5 debc
00000070: 0000 0000 0000 0000 0000 0000 0000 0000
00000080: 0000 0000 0000 0000 0000 0000 0000 0000
00000090: 0000 0000 0000 0000 0000 0000 0000 0000
000000a0: 0000 0000 0000 0000 0000 0000 0000 0000
000000b0: 0000 0000 0000 0000 0000 0000 0000 0000
000000c0: 0000 0000 0000 0000 0000 0000 0000 0000
000000d0: 0000 0000 0000 0000 0000 0000 0000 0000
000000e0: 0000 0000 e4c6 1bbd 0000 0000 0000 0000
000000f0: 25bf 87bf 0000 0000 0000 0000 9b47 cbbd
00000100: 0000 0000 0000 0000 303a 99be 0000 0000
00000110: 0000 0000 8399 47bc 0000 0000 0000 0000
00000120: 333f a8be 0000 0000 0000 0000 fa30 08bd
00000130: 0000 0000 0000 0000 b6a7 cfbe 0000 0000
00000140: a19c 68bc b529 abbc b529 abbc a19c 68bc
00000150: 0000 0000 a42d afbd 0000 0000 0000 0000
00000160: f7cf 19c0 0000 0000 0000 0000 1b52 63be
00000170: 0000 0000 0000 0000 b219 2ebf 0000 0000
00000180: 0000 0000 e73a e6bc 0000 0000 0000 0000
00000190: 9f5e 3dbf 0000 0000 0000 0000 1eed 9abd
000001a0: 0000 0000 0000 0000 1595 69bf 0000 0000
000001b0: 3bb9 04bd dff5 3ebd dff5 3ebd 3bb9 04bd
000001c0: 0000 0000 0000 0000 0000 0000 0000 0000
000001d0: 0000 0000 0000 0000 0000 0000 0000 0000
000001e0: 0000 0000 0000 0000 0000 0000 0000 0000
000001f0: 0000 0000 0000 0000 0000 0000 0000 0000
00000200: 0000 0000 0000 0000 0000 0000 0000 0000
00000210: 0000 0000 0000 0000 0000 0000 0000 0000
00000220: 0000 0000 0000 0000 0000 0000 0000 0000
00000230: 0000 0000 94ec fabb 0000 0000 0000 0000
00000240: 06a5 01bf 0000 0000 0000 0000 1be9 23bd
00000250: 0000 0000 0000 0000 4abc 05be 0000 0000
00000260: 0000 0000 d071 82bc 0000 0000 0000 0000
00000270: 44ee f5bd 0000 0000 0000 0000 a39e 22bd
00000280: 0000 0000 0000 0000 cc73 30be 0000 0000
00000290: 8f1a 1cbc add4 1fbc add4 1fbc 8f1a 1cbc
000002a0: 0000 0000 daaf a2bc 0000 0000 0000 0000
000002b0: 21b0 0abf 0000 0000 0000 0000 319d 4dbd
000002c0: 0000 0000 0000 0000 4dcb 1cbe 0000 0000
000002d0: 0000 0000 2a3a cfbb 0000 0000 0000 0000
000002e0: 8032 28be 0000 0000 0000 0000 aff5 8ebc
000002f0: 0000 0000 0000 0000 6fad 51be 0000 0000
00000300: 95cb d4bb 96ca 35bc 96ca 35bc 95cb d4bb
00000310: 0000 0000 0000 0000 0000 0000 0000 0000
00000320: 0000 0000 0000 0000 0000 0000 0000 0000
00000330: 0000 0000 0000 0000 0000 0000 0000 0000
00000340: 0000 0000 0000 0000 0000 0000 0000 0000
00000350: 0000 0000 0000 0000 0000 0000 0000 0000
00000360: 0000 0000 0000 0000 0000 0000 0000 0000
00000370: 0000 0000 0000 0000 0000 0000 0000 0000
00000380: 0000 0000 9da7 abbd 0000 0000 0000 0000
00000390: 263b 18c0 0000 0000 0000 0000 78ca 5bbe
000003a0: 0000 0000 0000 0000 a2e2 2cbf 0000 0000
000003b0: 0000 0000 c308 ecbc 0000 0000 0000 0000
000003c0: 7e7a 39bf 0000 0000 0000 0000 5358 9abd
000003d0: 0000 0000 0000 0000 5d95 64bf 0000 0000
000003e0: a341 05bd 711f 39bd 711f 39bd a341 05bd
000003f0: 0000 0000 d78d 6fbb 0000 0000 0000 0000

exp_avg_sq f4 [128, 28]
0.0 0.00013392331 0.0 0.0 0.109390005 0.0 0.0 0.00089836435
0.0 0.0 0.008921257 0.0 0.0 1.4356268e-05 0.0 0.0
0.010642607 0.0 0.0 0.000105524545 0.0 0.0 0.015832817 0.0
2.1931979e-05 3.7192378e-05 3.7192378e-05 2.1931979e-05 0.0 0.0 0.0 0.0
0.0 0.0 0.0 0.0 0.0 0.0 0.0 0.0
0.0 0.0 0.0 0.0 0.0 0.0 0.0 0.0
0.0 0.0 0.0 0.0 0.0 0.0 0.0 0.0
0.0 3.3622775e-05 0.0 0.0 0.026345689 0.0 0.0 0.00023070027
0.0 0.0 0.0020971925 0.0 0.0 3.184055e-06 0.0 0.0
0.0026431493 0.0 0.0 2.6083935e-05 0.0 0.0 0.0039756037 0.0
5.623532e-06 9.456679e-06 9.456679e-06 5.623532e-06 0.0 0.00017257134 0.0 0.0
0.13755597 0.0 0.0 0.0011645711 0.0 0.0 0.011076435 0.0
0.0 1.7809325e-05 0.0 0.0 0.013268304 0.0 0.0 0.00013493534
0.0 0.0 0.01999925 0.0 2.7553862e-05 4.831087e-05 4.831087e-05 2.7553862e-05
0.0 0.0 0.0 0.0 0.0 0.0 0.0 0.0
0.0 0.0 0.0 0.0 0.0 0.0 0.0 0.0
0.0 0.0 0.0 0.0 0.0 0.0 0.0 0.0
0.0 0.0 0.0 0.0 0.0 1.3446772e-06 0.0 0.0
0.005328292 0.0 0.0 3.4857443e-05 0.0 0.0 0.0003570643 0.0
0.0 4.8623097e-06 0.0 0.0 0.00030963626 0.0 0.0 3.1138734e-05
0.0 0.0 0.000628402 0.0 1.8846097e-06 1.919113e-06 1.919113e-06 1.8846097e-06
0.0 1.19478555e-05 0.0 0.0 0.009332231 0.0 0.0 7.612728e-05
0.0 0.0 0.00074785633 0.0 0.0 1.2610332e-06 0.0 0.0
0.00091336074 0.0 0.0 9.997129e-06 0.0 0.0 0.0013825947 0.0
1.8931421e-06 3.2563535e-06 3.2563535e-06 1.8931421e-06 0.0 0.0 0.0 0.0
0.0 0.0 0.0 0.0 0.0 0.0 0.0 0.0
0.0 0.0 0.0 0.0 0.0 0.0 0.0 0.0
0.0 0.0 0.0 0.0 0.0 0.0 0.0 0.0
0.0 0.00018351879 0.0 0.0 0.15117514 0.0 0.0 0.0012087184
0.0 0.0 0.0123776775 0.0 0.0 2.1737513e-05 0.0 0.0
0.0142236445 0.0 0.0 0.00014966959 0.0 0.0 0.021293307 0.0
3.0468163e-05 5.060783e-05 5.060783e-05 3.0468163e-05 0.0 3.1979158e-07 0.0 0.0
00000000: 0000 0000 c46d 0c39 0000 0000 0000 0000
00000010: de07 e03d 0000 0000 0000 0000 3680 6b3a
00000020: 0000 0000 0000 0000 772a 123c 0000 0000
00000030: 0000 0000 b4db 7037 0000 0000 0000 0000
00000040: 545e 2e3c 0000 0000 0000 0000 0f4d dd38
00000050: 0000 0000 0000 0000 d3b3 813c 0000 0000
00000060: 91fa b737 03ff 1b38 03ff 1b38 91fa b737
00000070: 0000 0000 0000 0000 0000 0000 0000 0000
00000080: 0000 0000 0000 0000 0000 0000 0000 0000
00000090: 0000 0000 0000 0000 0000 0000 0000 0000
000000a0: 0000 0000 0000 0000 0000 0000 0000 0000
000000b0: 0000 0000 0000 0000 0000 0000 0000 0000
000000c0: 0000 0000 0000 0000 0000 0000 0000 0000
000000d0: 0000 0000 0000 0000 0000 0000 0000 0000
000000e0: 0000 0000 2e06 0d38 0000 0000 0000 0000
000000f0: ead2 d73c 0000 0000 0000 0000 22e8 7139
00000100: 0000 0000 0000 0000 0d71 093b 0000 0000
00000110: 0000 0000 a6ad 5536 0000 0000 0000 0000
00000120: b038 2d3b 0000 0000 0000 0000 d3ce da37
00000130: 0000 0000 0000 0000 c845 823b 0000 0000
00000140: c6b1 bc36 21a8 1e37 21a8 1e37 c6b1 bc36
00000150: 0000 0000 44f4 3439 0000 0000 0000 0000
00000160: 79db 0c3e 0000 0000 0000 0000 86a4 983a
00000170: 0000 0000 0000 0000 f079 353c 0000 0000
00000180: 0000 0000 3c65 9537 0000 0000 0000 0000
00000190: 4d63 593c 0000 0000 0000 0000 6e7d 0d39
000001a0: 0000 0000 0000 0000 78d5 a33c 0000 0000
000001b0: 7823 e737 67a1 4a38 67a1 4a38 7823 e737
000001c0: 0000 0000 0000 0000 0000 0000 0000 0000
000001d0: 0000 0000 0000 0000 0000 0000 0000 0000
000001e0: 0000 0000 0000 0000 0000 0000 0000 0000
000001f0: 0000 0000 0000 0000 0000 0000 0000 0000
00000200: 0000 0000 0000 0000 0000 0000 0000 0000
00000210: 0000 0000 0000 0000 0000 0000 0000 0000
00000220: 0000 0000 0000 0000 0000 0000 0000 0000
00000230: 0000 0000 c27a b435 0000 0000 0000 0000
00000240: f498 ae3b 0000 0000 0000 0000 e533 1238
00000250: 0000 0000 0000 0000 5c34 bb39 0000 0000
00000260: 0000 0000 ec26 a336 0000 0000 0000 0000
00000270: ad56 a239 0000 0000 0000 0000 f69a 0238
00000280: 0000 0000 0000 0000 58bb 243a 0000 0000
00000290: b2f2 fc35 1cca 0036 1cca 0036 b2f2 fc35
000002a0: 0000 0000 a673 4837 0000 0000 0000 0000
000002b0: 37e6 183c 0000 0000 0000 0000 86a6 9f38
000002c0: 0000 0000 0000 0000 ca0b 443a 0000 0000
000002d0: 0000 0000 c540 a935 0000 0000 0000 0000
000002e0: 9a6e 6f3a 0000 0000 0000 0000 58b9 2737
000002f0: 0000 0000 0000 0000 2e38 b53a 0000 0000
00000300: de17 fe35 ba87 5a36 ba87 5a36 de17 fe35
00000310: 0000 0000 0000 0000 0000 0000 0000 0000
00000320: 0000 0000 0000 0000 0000 0000 0000 0000
00000330: 0000 0000 0000 0000 0000 0000 0000 0000
00000340: 0000 0000 0000 0000 0000 0000 0000 0000
00000350: 0000 0000 0000 0000 0000 0000 0000 0000
00000360: 0000 0000 0000 0000 0000 0000 0000 0000
00000370: 0000 0000 0000 0000 0000 0000 0000 0000
00000380: 0000 0000 f36e 4039 0000 0000 0000 0000
00000390: a8cd 1a3e 0000 0000 0000 0000 dc6d 9e3a
000003a0: 0000 0000 0000 0000 becb 4a3c 0000 0000
000003b0: 0000 0000 f458 b637 0000 0000 0000 0000
000003c0: 4a0a 693c 0000 0000 0000 0000 a0f0 1c39
000003d0: 0000 0000 0000 0000 4d6f ae3c 0000 0000
000003e0: e295 ff37 be43 5438 be43 5438 e295 ff37
000003f0: 0000 0000 d2af ab34 0000 0000 0000 0000

exp_avg f4 [128]
-0.065723 0.0 -0.03509141 -0.07902441 0.0 -0.019283114 -0.017589658 0.0
-0.0777293 -0.0025861077 -7.774057e-06 -0.07221812 -0.055239182 -0.06479425 0.0 0.0
0.0002116362 -0.042776603 0.0 -0.06569459 -0.03469458 -9.02154e-05 4.616281e-08 0.0
-0.098081276 -0.02766039 0.0 -0.037723836 -0.08150904 -0.036239836 -0.07688106 0.0
-0.048351567 -0.07422521 -0.029865777 0.0 0.0 -0.016079776 -0.03806854 0.0
0.00012220764 0.0 -0.0055150497 -0.04305637 -0.07815581 -0.037753258 -0.09717792 0.0
0.0 -0.0137437545 -0.0398015 -0.07105966 -0.07163622 -0.0001832302 0.0 -0.10651028
-0.07819824 5.2381724e-06 -0.053113732 -0.08409058 -8.39738e-05 0.0 -0.03905671 -0.00013912172
0.0 0.0 -0.047234315 0.00028955226 -0.06183171 0.0 -0.040776234 0.0
1.161398e-05 -0.052005906 0.0 1.6001997e-05 -0.00022526734 -0.018130971 -0.067549944 -0.01586077
-0.07930475 -0.08389229 -0.060488276 -0.0097960485 1.3974088e-07 -5.679329e-05 -0.0011968217 0.0
-0.050749496 -0.048708484 0.0 -0.00030949345 -0.080236174 0.0 0.0 -0.060161132
0.0 -0.00014353718 0.0 -0.00082396436 -0.012400055 -0.05217127 -0.0802323 -0.044113934
-1.3117651e-05 -0.05918783 -0.084803075 -0.106862806 -0.033243287 0.0 0.0 -0.100375034
-0.083043724 -0.078298084 -0.0038171893 -0.00017853487 0.0 -0.05558464 1.861453e-08 -0.034320813
-0.060614914 -2.9311557e-05 0.0 0.0 -0.06594403 0.0 -0.056451283 0.0
00000000: c899 86bd 0000 0000 03bc 0fbd 8dd7 a1bd
00000010: 0000 0000 9ff7 9dbc 3018 90bc 0000 0000
00000020: 8a30 9fbd b07b 29bb 526d 02b7 18e7 93bd
00000030: 7b42 62bd d9b2 84bd 0000 0000 0000 0000
00000040: a9ea 5d39 8536 2fbd 0000 0000 e38a 86bd
00000050: e71b 0ebd 0632 bdb8 8c44 4633 0000 0000
00000060: d6de c8bd 0b98 e2bc 0000 0000 4f84 1abd
00000070: 36ee a6bd 3970 14bd d173 9dbd 0000 0000
00000080: 4b0c 46bd 6303 98bd 13a9 f4bc 0000 0000
00000090: 0000 0000 bcb9 83bc c2ed 1bbd 0000 0000
000000a0: dd24 0039 0000 0000 97b7 b4bb e05b 30bd
000000b0: 2710 a0bd 29a3 1abd 3805 c7bd 0000 0000
000000c0: 0000 0000 7c2d 61bc e606 23bd ba87 91bd
000000d0: 03b6 92bd 7b21 40b9 0000 0000 1022 dabd
000000e0: 6626 a0bd 8fc3 af36 c98d 59bd af37 acbd
000000f0: 171b b0b8 0000 0000 eef9 1fbd 34e1 11b9
00000100: 0000 0000 0000 0000 c578 41bd 0ccf 9739
00000110: 3f43 7dbd 0000 0000 fb04 27bd 0000 0000
00000120: aad9 4237 2504 55bd 0000 0000 073c 8637
00000130: be35 6cb9 6787 94bc a057 8abd 72ee 81bc
00000140: 876a a2bd b9cf abbd 8ec2 77bd 9b7f 20bc
00000150: ae0b 1634 5535 6eb8 acde 9cba 0000 0000
00000160: b4de 4fbd 8c82 47bd 0000 0000 8243 a2b9
00000170: dd52 a4bd 0000 0000 0000 0000 856b 76bd
00000180: 0000 0000 7882 16b9 0000 0000 50ff 57ba
00000190: 9a29 4bbc 8bb1 55bd d550 a4bd d0b0 34bd
000001a0: e213 5cb7 f06e 72bd 3cad adbd e3da dabd
000001b0: 1d2a 08bd 0000 0000 0000 0000 6d91 cdbd
000001c0: d412 aabd bf5a a0bd cf29 7abb 1735 3bb9
000001d0: 0000 0000 b8ac 63bd c9e5 9f32 fb93 0cbd
000001e0: 5847 78bd 17e2 f5b7 0000 0000 0000 0000
000001f0: aa0d 87bd 0000 0000 7639 67bd 0000 0000

exp_avg_sq f4 [128]
0.00011547071 0.0 2.8956003e-05 0.00014751333 0.0 7.5140824e-06 9.799536e-06 0.0
0.00015868229 1.3642773e-07 5.267657e-12 0.00011816099 6.902167e-05 8.729288e-05 0.0 0.0
7.727306e-08 3.7116533e-05 0.0 9.983991e-05 2.416874e-05 1.803222e-10 7.1016744e-13 0.0
0.00018495639 1.7562277e-05 0.0 3.4350087e-05 0.00015896704 2.7585971e-05 0.00012012319 0.0
4.7630558e-05 0.00011734039 1.8218405e-05 0.0 0.0 6.6421126e-06 3.0767827e-05 0.0
1.6143455e-08 0.0 6.758199e-07 3.656294e-05 0.00012690932 2.8401328e-05 0.00023814922 0.0
0.0 3.7356438e-06 3.259648e-05 0.00011818787 0.0001181174 7.988733e-10 0.0 0.00033902196
0.00014245459 1.0640339e-05 6.6139015e-05 0.00015399275 2.197878e-10 0.0 3.380357e-05 4.2932816e-10
0.0 0.0 4.7447706e-05 1.2669432e-05 8.336373e-05 0.0 3.680651e-05 0.0
4.4118624e-12 6.774755e-05 0.0 2.1755726e-10 1.1424655e-09 2.0254072e-05 0.000111681366 6.7083593e-06
0.00013770249 0.00015644607 7.030838e-05 1.0363067e-05 9.9388015e-12 7.003536e-11 2.8957913e-08 0.0
5.7369965e-05 4.5985482e-05 0.0 1.903597e-09 0.0001534987 0.0 0.0 8.528933e-05
0.0 5.4171295e-10 0.0 1.4284051e-08 3.2126184e-06 5.763715e-05 0.00016125162 4.106883e-05
1.6049098e-10 6.694901e-05 0.0001792682 0.0002887422 2.3473747e-05 0.0 0.0 0.00032903944
0.00015185768 0.00014869557 3.1331692e-07 6.4879047e-10 0.0 6.665e-05 4.2683036e-13 2.674727e-05
8.97485e-05 3.5120712e-11 0.0 0.0 0.00010239988 0.0 7.651882e-05 0.0
00000000: de28 f238 0000 0000 8be6 f237 cfad 1a39
00000010: 0000 0000 7a21 fc36 b068 2437 0000 0000
00000020: f463 2639 f87c 1234 d656 b92c 33cd f738
00000030: babf 9038 0211 b738 0000 0000 0000 0000
00000040: 50f1 a533 93ad 1b38 0000 0000 2561 d138
00000050: f9bd ca37 3044 462f f5e4 472b 0000 0000
00000060: daf0 4139 b452 9337 0000 0000 2013 1038
00000070: 64b0 2639 6c68 e737 a6ea fb38 0000 0000
00000080: ecc6 4738 a414 f638 bad3 9837 0000 0000
00000090: 0000 0000 50df de36 b40c 0138 0000 0000
000000a0: d5ab 8a32 0000 0000 fd69 3535 285b 1938
000000b0: f612 0539 633f ee37 b2b7 7939 0000 0000
000000c0: 0000 0000 dfb1 7a36 34b8 0838 a1db f738
000000d0: ccb5 f738 b697 5b30 0000 0000 c2be b139
000000e0: dd5f 1539 e883 3237 1db4 8a38 1d79 2139
000000f0: c4a8 712f 0000 0000 4fc8 0d38 9106 ec2f
00000100: 0000 0000 0000 0000 9602 4738 cc8e 5437
00000110: 90d3 ae38 0000 0000 b060 1a38 0000 0000
00000120: 863a 9b2c b013 8e38 0000 0000 ed34 6f2f
00000130: ee04 9d30 4ae7 a937 7a36 ea38 5e18 e136
00000140: 3b64 1039 ac0b 2439 8672 9338 09dd 2d37
00000150: 62d8 2e2d 6702 9a2e 20bf f832 0000 0000
00000160: 88a0 7038 89e0 4038 0000 0000 6fd0 0231
00000170: 7ef4 2039 0000 0000 0000 0000 5cdd b238
00000180: 0000 0000 a9e7 1430 0000 0000 ec65 7532
00000190: 5d98 5736 6bbf 7138 a715 2939 5241 2c38
000001a0: 3276 302f fa66 8c38 f1f9 3b39 5262 9739
000001b0: 7de9 c437 0000 0000 0000 0000 ed82 ac39
000001c0: fc3b 1f39 2aeb 1b39 f335 a834 9256 3230
000001d0: 0000 0000 72c6 8b38 bd48 f02a 535f e037
000001e0: 5c37 bc38 6876 1a2e 0000 0000 0000 0000
000001f0: 84bf d638 0000 0000 bb78 a038 0000 0000

exp_avg f4 [64, 128]
4.188409e-06 0.0 1.0102357e-05 3.7693258e-06 0.0 0.0 2.837739e-06 0.0
8.333918e-06 0.0 0.0 6.9765224e-06 5.8916125e-06 1.0449443e-05 0.0 0.0
2.405648e-09 7.6190777e-06 0.0 7.359248e-06 4.2257175e-06 0.0 0.0 0.0
0.0 1.0831371e-06 0.0 1.2923948e-06 1.0929143e-05 8.068459e-06 1.9406875e-07 0.0
4.3660675e-06 8.1029654e-08 1.3801595e-06 0.0 0.0 5.5870614e-06 2.2730603e-06 0.0
0.0 0.0 0.0 0.0 1.7613894e-06 4.044219e-06 2.5509382e-06 0.0
0.0 0.0 9.6723625e-06 1.2760669e-05 1.1543273e-05 0.0 0.0 4.5715183e-06
1.7165385e-06 1.3092659e-06 5.9621016e-07 5.8823625e-06 0.0 0.0 5.4171414e-06 0.0
0.0 0.0 2.4960027e-06 1.4641332e-06 8.506827e-06 0.0 -6.6961455e-08 0.0
0.0 6.897607e-06 0.0 2.4773416e-07 0.0 4.6352916e-06 1.051494e-05 3.0214485e-06
2.6683012e-06 3.9364013e-06 0.0 3.5067967e-06 0.0 0.0 0.0 0.0
9.023613e-06 1.0415878e-06 0.0 0.0 3.5446433e-06 0.0 0.0 1.0428765e-05
0.0 0.0 0.0 0.0 0.0 8.0490545e-06 3.7763361e-06 5.2197047e-06
0.0 0.0 1.2041771e-06 2.3999644e-06 2.4745825e-06 0.0 0.0 3.1484417e-06
-1.9651532e-08 8.96004e-06 -1.1648033e-09 0.0 0.0 3.0690799e-06 0.0 4.02492e-06
2.0880498e-06 0.0 0.0 0.0 8.434405e-06 0.0 7.0096944e-06 0.0
0.0006663447 0.0 0.0006488418 0.00034527964 0.0 1.5934334e-07 0.00018795779 0.0
0.0005696573 3.6148884e-09 0.0 0.0004358941 0.00027472782 0.0008708989 0.0 0.0
4.2237293e-06 0.0006958201 0.0 0.00036420728 0.0002374826 6.2509375e-09 0.0 0.0
8.219843e-07 5.5061315e-05 0.0 0.000269685 0.0006545718 0.000626566 8.9489495e-06 0.0
0.00021747823 3.8252438e-05 3.9519604e-05 0.0 0.0 0.00040598743 5.596836e-05 0.0
1.0774507e-06 0.0 0.0 4.4408494e-06 3.773404e-05 0.00015333958 0.00010183348 0.0
0.0 1.5803039e-07 0.00061076146 0.00079916505 0.0009245393 2.2288358e-09 0.0 0.00019802002
0.00017689382 0.00013610219 0.0001819907 0.00030274462 0.0 0.0 8.737172e-05 1.1341527e-08
0.0 0.0 7.250257e-05 0.00019406517 0.0008435334 0.0 7.511728e-05 0.0
0.0 0.0002825561 0.0 1.0184913e-09 6.421057e-09 6.2514126e-05 0.0007664915 0.0004411405
5.413e-05 0.00028389215 2.864411e-06 7.1516355e-05 3.3720713e-09 0.0 3.6642586e-08 0.0
0.00067405245 4.345288e-05 0.0 0.0 0.0003229511 0.0 0.0 0.0007162647
0.0 3.509358e-09 0.0 0.0 3.586615e-08 0.000520962 0.00029357165 0.0001838925
1.6719552e-08 1.477702e-08 7.684039e-05 0.0004531602 0.0004727421 0.0 0.0 0.00030593885
5.6334815e-05 0.0007224011 2.5457376e-07 1.6587917e-08 0.0 0.00028032996 0.0 0.0001130771
0.00030887214 4.8545214e-08 0.0 0.0 0.0005487123 0.0 0.0002821433 0.0
00000000: 298a 8c36 0000 0000 4b7d 2937 86f4 7c36
00000010: 0000 0000 0000 0000 fc6f 3e36 0000 0000
00000020: e8d1 0b37 0000 0000 0000 0000 df17 ea36
00000030: 91b0 c536 0450 2f37 0000 0000 0000 0000
00000040: 9b50 2531 61a7 ff36 0000 0000 75ef f636
00000050: a3ca 8d36 0000 0000 0000 0000 0000 0000
00000060: 0000 0000 4f60 9135 0000 0000 5976 ad35
00000070: 505c 3737 c45d 0737 3661 5034 0000 0000
00000080: 3c80 9236 8602 ae33 eb3d b935 0000 0000
00000090: 0000 0000 7e78 bb36 e18a 1836 0000 0000
000000a0: 0000 0000 0000 0000 0000 0000 0000 0000
000000b0: e168 ec35 94b3 8736 c930 2b36 0000 0000
000000c0: 0000 0000 0000 0000 7b46 2237 a816 5637
000000d0: fba9 4137 0000 0000 0000 0000 0b65 9936
000000e0: d063 e635 09ba af35 400b 2035 1c61 c536
000000f0: 0000 0000 0000 0000 e4c4 b536 0000 0000
00000100: 0000 0000 0000 0000 0081 2736 3c83 c435
00000110: 8bb8 0e37 0000 0000 73cc 8fb3 0000 0000
00000120: 0000 0000 fe71 e736 0000 0000 5300 8534
00000130: 0000 0000 da88 9b36 5369 3037 17c4 4a36
00000140: 1111 3336 6e15 8436 0000 0000 4f56 6b36
00000150: 0000 0000 0000 0000 0000 0000 0000 0000
00000160: 1f64 1737 afcc 8b35 0000 0000 0000 0000
00000170: 82e0 6d36 0000 0000 0000 0000 34f7 2e37
00000180: 0000 0000 0000 0000 0000 0000 0000 0000
00000190: 0000 0000 6d0a 0737 f66c 7d36 ec24 af36
000001a0: 0000 0000 0000 0000 369f a135 130f 2136
000001b0: 0111 2636 0000 0000 0000 0000 d149 5336
000001c0: 2dce a8b2 1453 1637 df16 a0b0 0000 0000
000001d0: 0000 0000 64f6 4d36 0000 0000 cd0d 8736
000001e0: 6c20 0c36 0000 0000 0000 0000 0000 0000
000001f0: 7e81 0d37 0000 0000 d134 eb36 0000 0000
00000200: a3ad 2e3a 0000 0000 0917 2a3a a606 b539
00000210: 0000 0000 f717 2b34 8916 4539 0000 0000
00000220: 0e55 153a ca69 7831 0000 0000 b788 e439
00000230: 5809 9039 094d 643a 0000 0000 0000 0000
00000240: 8fb9 8d36 b267 363a 0000 0000 13f3 be39
00000250: c004 7939 d4c7 d631 0000 0000 0000 0000
00000260: 55a6 5c35 a3f1 6638 0000 0000 8264 8d39
00000270: 9297 2b3a 2240 243a 7223 1637 0000 0000
00000280: de0a 6439 3e71 2038 dac1 2538 0000 0000
00000290: 0000 0000 b6da d439 92bf 6a38 0000 0000
000002a0: ed9c 9035 0000 0000 0000 0000 9b02 9536
000002b0: 9e44 1e38 c8c9 2039 6f8f d538 0000 0000
000002c0: 0000 0000 10af 2934 821b 203a 0f7f 513a
000002d0: c85c 723a 182a 1931 0000 0000 98a3 4f39
000002e0: 937c 3939 a7b6 0e39 c2d4 3e39 b2b9 9e39
000002f0: 0000 0000 0000 0000 563b b738 90d8 4232
00000300: 0000 0000 0000 0000 850c 9838 f97d 4b39
00000310: 9120 5d3a 0000 0000 4888 9d38 0000 0000
00000320: 0000 0000 0a24 9439 0000 0000 fafa 8b30
00000330: 37a0 dc31 041a 8338 60ee 483a e048 e739
00000340: a509 6338 5cd7 9439 353a 4036 0dfb 9538
00000350: 1bba 6731 0000 0000 f360 1d33 0000 0000
00000360: e5b2 303a 2d41 3638 0000 0000 0000 0000
00000370: c351 a939 0000 0000 0000 0000 b6c3 3b3a
00000380: 0000 0000 4729 7131 0000 0000 0000 0000
00000390: 400b 1a33 2b91 083a 85ea 9939 44d3 4039
000003a0: af9e 8f32 05de 7d32 5f25 a138 2296 ed39
000003b0: 5fda f739 0000 0000 0000 0000 6b66 a039
000003c0: 0c49 6c38 845f 3d3a 5aac 8834 377d 8e32
000003d0: 0000 0000 40f9 9239 0000 0000 ce23 ed38
000003e0: 1ef0 a139 0780 5033 0000 0000 0000 0000
000003f0: 76d7 0f3a 0000 0000 a2ec 9339 0000 0000
